quant_models/facile.onnx (onnx, 26098 bytes, 27 tensors)

bn1.bias f4 [14]
-0.013079552 0.0584379 0.25082323 -0.0058147404 0.00087925803 0.65993893 -0.004926487 0.010957291
0.013505157 0.004495299 -0.22899836 -0.016933288 0.005278331 -0.018528678
00000000: 9e4b 56bc 945c 6f3d e76b 803e 9489 bebb
00000010: 027e 663a c2f1 283f 5e6e a1bb 3686 333c
00000020: bc44 5d3c 4d4d 933b 8c7e 6abe aeb7 8abc
00000030: daf5 ac3b 74c9 97bc

bn1.running_mean f4 [14]
66.00444 2.649617 15.426613 0.17035392 36.19857 0.0019000468 591.59656 859.1389
948.2957 26613.203 12274.17 3813.862 1862.7795 1052.5674
00000000: 4602 8442 5393 2940 68d3 7641 4271 2e3e
00000010: 56cb 1042 fe0a f93a 2ee6 1344 e4c8 5644
00000020: ed12 6d44 68ea cf46 aec8 3f46 cb5d 6e45
00000030: f2d8 e844 2892 8344

bn1.running_var f4 [14]
91.01113 1.3982515 722.5469 506.84207 446.58685 5.2480545e-06 784546.06 2.6438435e+06
2.1448668e+06 1.4675172e+09 2.742337e+08 1.8327808e+07 3.1290655e+06 780720.8
00000000: b305 b642 e8f9 b23f 00a3 3444 c96b fd43
00000010: 1e4b df43 7218 b036 218a 3f49 0e5e 214a
00000020: 8be9 024a 12f1 ae4e cbc3 824d 80d4 8b4b
00000030: a6fb 3e4a 0d9b 3e49

bn1.weight f4 [14]
0.1115069 0.19871664 1.4296907 0.065592825 0.014104602 -0.8025554 -0.07461923 -0.11160951
0.07741113 0.9225813 0.13027862 0.18069655 -0.0696788 0.105699696
00000000: bb5d e43d 607c 4b3e 1b00 b73f 8855 863d
00000010: fd16 673c 4574 4dbf f8d1 98bd 8793 e4bd
00000020: ba89 9e3d 4a2e 6c3f c267 053e 8408 393e
00000030: c2b3 8ebd 1579 d83d

bn2.bias f4 [12]
0.4556981 0.5010472 -0.017620647 0.40740559 -0.013806089 -0.011731797 0.17978375 0.5385516
0.4179893 0.40911472 0.014950836 0.28507155
00000000: 4351 e93e a144 003f 2d59 90bc 7797 d03e
00000010: ef32 62bc b936 40bc 3b19 383e 85de 093f
00000020: b202 d63e 7c77 d13e 5af4 743c e6f4 913e

bn2.running_mean f4 [12]
0.28590947 0.5485885 2.708415 0.4698583 0.11077815 0.09907664 0.26603037 0.66190296
0.42254168 0.5696917 0.10547251 0.3579327
00000000: ba62 923e 4c70 0c3f ac56 2d40 4491 f03e
00000010: a8df e23d b2e8 ca3d 2235 883e 7972 293f
00000020: 6257 d83e 51d7 113f f901 d83d f442 b73e

bn2.running_var f4 [12]
0.33202675 0.88534427 13.321248 0.72388744 0.48941097 0.5500111 0.2903458 1.4332843
0.598543 1.0206847 0.535616 0.48806444
00000000: 69ff a93e eca5 623f d523 5541 b050 393f
00000010: 1394 fa3e 87cd 0c3f 34a8 943e dc75 b73f
00000020: 1d3a 193f cca5 823f 211e 093f 95e3 f93e

bn2.weight f4 [12]
1.3211162 1.2028937 1.0007918 0.65125287 0.2590331 0.35781926 0.50887936 1.2331781
0.6938654 0.5931947 0.28730848 0.6473516
00000000: 561a a93f 6cf8 993f f219 803f 82b8 263f
00000010: fd9f 843e 1634 b73e eb45 023f c8d8 9d3f
00000020: 2aa1 313f 9cdb 173f 191a 933e d6b8 253f

bn3.bias f4 [5]
-0.35685793 0.2549276 0.3901709 0.43777242 8.8064524e-05
00000000: 15b6 b6be df85 823e 7bc4 c73e b523 e03e
00000010: 48af b838

bn3.running_mean f4 [5]
0.0 0.85876316 0.86665636 0.92451304 0.17061394
00000000: 0000 0000 e7d7 5b3f 31dd 5d3f e3ac 6c3f
00000010: 6cb5 2e3e

bn3.running_var f4 [5]
0.0 0.95700413 0.77412045 1.0357758 0.13194412
00000000: 0000 0000 39fe 743f c22c 463f 4d94 843f
00000010: 5c1c 073e

bn3.weight f4 [5]
0.33760417 0.68880725 0.82917273 1.1698023 0.4689214
00000000: 74da ac3e ac55 303f aa44 543f 15bc 953f
00000010: 7716 f03e

bn4.bias f4 [3]
-2.2671633 -2.2551463 2.154737
00000000: 3419 11c0 5154 10c0 36e7 0940

bn4.running_mean f4 [3]
0.6165366 0.6826958 0.1614816
00000000: 58d5 1d3f 27c5 2e3f 6f5b 253e

bn4.running_var f4 [3]
0.028749213 0.008407329 0.030411564
00000000: 7883 eb3c e5be 093c ac21 f93c

bn4.weight f4 [3]
2.6214535 4.2095857 4.027378
00000000: e5c5 2740 edb4 8640 48e0 8040

36 f4 [14, 12]
11.0 9.0 0.0 12.0 -6.0 7.0 16.0 18.0
15.0 11.0 -2.0 7.0 -12.0 5.0 -2.0 5.0
19.0 37.0 -15.0 -15.0 -34.0 8.0 28.0 -24.0
-124.0 8.0 1.0 3.0 -2.0 -1.0 -125.0 -80.0
-127.0 3.0 -2.0 -108.0 -9.0 -2.0 -7.0 -4.0
-8.0 -8.0 -6.0 -8.0 -7.0 -1.0 -11.0 -6.0
0.0 2.0 2.0 -4.0 4.0 1.0 1.0 -2.0
3.0 -7.0 0.0 4.0 -8.0 37.0 125.0 25.0
-30.0 -43.0 -6.0 13.0 1.0 30.0 -36.0 4.0
1.0 5.0 -8.0 21.0 -22.0 -28.0 6.0 9.0
12.0 34.0 -28.0 -7.0 1.0 10.0 -1.0 30.0
-36.0 -34.0 -1.0 15.0 6.0 42.0 -38.0 -0.0
-3.0 15.0 20.0 -4.0 12.0 14.0 -12.0 14.0
-14.0 -12.0 12.0 16.0 14.0 -88.0 -16.0 -88.0
41.0 50.0 15.0 -54.0 15.0 -91.0 47.0 -28.0
-5.0 23.0 -38.0 7.0 -14.0 -1.0 -5.0 -1.0
-2.0 18.0 -3.0 21.0 -8.0 -34.0 -9.0 -23.0
21.0 23.0 -14.0 -17.0 -26.0 -44.0 18.0 -7.0
2.0 -13.0 -15.0 6.0 -10.0 -0.0 5.0 -9.0
5.0 5.0 1.0 -2.0 -4.0 -20.0 -4.0 -26.0
28.0 28.0 -5.0 -5.0 -10.0 -34.0 25.0 3.0
00000000: 0000 3041 0000 1041 0000 0000 0000 4041
00000010: 0000 c0c0 0000 e040 0000 8041 0000 9041
00000020: 0000 7041 0000 3041 0000 00c0 0000 e040
00000030: 0000 40c1 0000 a040 0000 00c0 0000 a040
00000040: 0000 9841 0000 1442 0000 70c1 0000 70c1
00000050: 0000 08c2 0000 0041 0000 e041 0000 c0c1
00000060: 0000 f8c2 0000 0041 0000 803f 0000 4040
00000070: 0000 00c0 0000 80bf 0000 fac2 0000 a0c2
00000080: 0000 fec2 0000 4040 0000 00c0 0000 d8c2
00000090: 0000 10c1 0000 00c0 0000 e0c0 0000 80c0
000000a0: 0000 00c1 0000 00c1 0000 c0c0 0000 00c1
000000b0: 0000 e0c0 0000 80bf 0000 30c1 0000 c0c0
000000c0: 0000 0000 0000 0040 0000 0040 0000 80c0
000000d0: 0000 8040 0000 803f 0000 803f 0000 00c0
000000e0: 0000 4040 0000 e0c0 0000 0000 0000 8040
000000f0: 0000 00c1 0000 1442 0000 fa42 0000 c841
00000100: 0000 f0c1 0000 2cc2 0000 c0c0 0000 5041
00000110: 0000 803f 0000 f041 0000 10c2 0000 8040
00000120: 0000 803f 0000 a040 0000 00c1 0000 a841
00000130: 0000 b0c1 0000 e0c1 0000 c040 0000 1041
00000140: 0000 4041 0000 0842 0000 e0c1 0000 e0c0
00000150: 0000 803f 0000 2041 0000 80bf 0000 f041
00000160: 0000 10c2 0000 08c2 0000 80bf 0000 7041
00000170: 0000 c040 0000 2842 0000 18c2 0000 0080
00000180: 0000 40c0 0000 7041 0000 a041 0000 80c0
00000190: 0000 4041 0000 6041 0000 40c1 0000 6041
000001a0: 0000 60c1 0000 40c1 0000 4041 0000 8041
000001b0: 0000 6041 0000 b0c2 0000 80c1 0000 b0c2
000001c0: 0000 2442 0000 4842 0000 7041 0000 58c2
000001d0: 0000 7041 0000 b6c2 0000 3c42 0000 e0c1
000001e0: 0000 a0c0 0000 b841 0000 18c2 0000 e040
000001f0: 0000 60c1 0000 80bf 0000 a0c0 0000 80bf
00000200: 0000 00c0 0000 9041 0000 40c0 0000 a841
00000210: 0000 00c1 0000 08c2 0000 10c1 0000 b8c1
00000220: 0000 a841 0000 b841 0000 60c1 0000 88c1
00000230: 0000 d0c1 0000 30c2 0000 9041 0000 e0c0
00000240: 0000 0040 0000 50c1 0000 70c1 0000 c040
00000250: 0000 20c1 0000 0080 0000 a040 0000 10c1
00000260: 0000 a040 0000 a040 0000 803f 0000 00c0
00000270: 0000 80c0 0000 a0c1 0000 80c0 0000 d0c1
00000280: 0000 e041 0000 e041 0000 a0c0 0000 a0c0
00000290: 0000 20c1 0000 08c2 0000 c841 0000 4040

38 f4 [12]
-17.846815 -7.475064 74.036606 -11.594509 -7.113945 -19.702452 -21.096617 -3.8295124
-11.269946 -5.254193 -12.3560095 -22.860527
00000000: 47c6 8ec1 b933 efc0 be12 9442 1c83 39c1
00000010: 70a5 e3c0 9f9e 9dc1 dfc5 a8c1 bb16 75c0
00000020: b351 34c1 5922 a8c0 37b2 45c1 5ce2 b6c1

42 f4 [12, 255]
0.009596399 0.028789196 0.047981996 0.06717479 0.08636759 0.10556039 0.124753185 0.14394598
0.16313878 0.18233158 0.20152438 0.22071718 0.23990996 0.25910276 0.27829558 0.2974884
0.31668118 0.33587396 0.35506678 0.37425956 0.39345238 0.41264516 0.43183798 0.45103076
0.47022355 0.48941636 0.5086091 0.52780193 0.54699475 0.56618756 0.5853804 0.60457313
0.62376595 0.64295876 0.6621515 0.68134433 0.70053715 0.71972996 0.7389227 0.75811553
0.77730834 0.7965011 0.8156939 0.8348867 0.85407954 0.8732723 0.8924651 0.9116579
0.9308507 0.9500435 0.9692363 0.9884291 1.0076219 1.0268147 1.0460074 1.0652002
1.084393 1.1035858 1.1227787 1.1419715 1.1611643 1.180357 1.1995498 1.2187426
1.2379354 1.2571282 1.276321 1.2955139 1.3147066 1.3338994 1.3530922 1.372285
1.3914778 1.4106706 1.4298635 1.4490561 1.468249 1.4874418 1.5066346 1.5258274
1.5450202 1.564213 1.5834057 1.6025985 1.6217914 1.6409842 1.660177 1.6793698
1.6985626 1.7177553 1.7369481 1.756141 1.7753338 1.7945266 1.8137194 1.8329122
1.8521049 1.8712977 1.8904905 1.9096833 1.9288762 1.948069 1.9672618 1.9864546
2.0056474 2.02484 2.044033 2.0632257 2.0824184 2.1016114 2.120804 2.139997
2.1591897 2.1783826 2.1975753 2.216768 2.235961 2.2551537 2.2743466 2.2935393
2.3127322 2.331925 2.3511176 2.3703105 2.3895032 2.4086962 2.4278889 2.4470818
2.4662745 2.4854672 2.5046601 2.5238528 2.5430458 2.5622385 2.5814314 2.600624
2.6198168 2.6390097 2.6582024 2.6773953 2.696588 2.715781 2.7349737 2.7541664
2.7733593 2.792552 2.811745 2.8309376 2.8501306 2.8693233 2.888516 2.907709
2.9269016 2.9460945 2.9652872 2.9844801 3.0036728 3.0228655 3.0420585 3.0612512
3.080444 3.0996368 3.1188297 3.1380224 3.157215 3.176408 3.1956007 3.2147937
3.2339864 3.2531793 3.272372 3.2915647 3.3107576 3.3299503 3.3491433 3.368336
3.387529 3.4067216 3.4259143 3.4451072 3.4643 3.4834929 3.5026855 3.5218785
3.5410712 3.5602639 3.5794568 3.5986495 3.6178424 3.6370351 3.656228 3.6754208
3.6946135 3.7138064 3.732999 3.752192 3.7713847 3.7905777 3.8097703 3.8289633
3.848156 3.8673487 3.8865416 3.9057343 3.9249272 3.94412 3.9633129 3.9825056
4.0016985 4.020891 4.040084 4.0592766 4.0784698 4.0976624 4.116855 4.136048
4.1552405 4.1744337 4.1936264 4.212819 4.232012 4.2512045 4.2703977 4.2895904
4.308783 4.3279757 4.347169 4.3663616 4.3855543 4.404747 4.4239397 4.443133
4.4623256 4.4815183 4.500711 4.5199037 4.539097 4.5582895 4.577482 4.596675
4.615868 4.635061 4.6542535 4.673446 4.692639 4.711832 4.7310247 4.7502174
4.76941 4.788603 4.807796 4.8269887 4.8461814 4.865374 4.8845673 0.009596399
00000000: 373a 1d3c 52d7 eb3c c588 443d f092 893d
00000010: 7ee1 b03d 0c30 d83d 997e ff3d 9366 133e
00000020: da0d 273e 21b5 3a3e 685c 4e3e af03 623e
00000030: f5aa 753e 1ea9 843e c27c 8e3e 6650 983e
00000040: 0924 a23e acf7 ab3e 50cb b53e f39e bf3e
00000050: 9772 c93e 3a46 d33e de19 dd3e 81ed e63e
00000060: 24c1 f03e c894 fa3e 3534 023f 071e 073f
00000070: d907 0c3f abf1 103f 7ddb 153f 4ec5 1a3f
00000080: 20af 1f3f f298 243f c382 293f 956c 2e3f
00000090: 6756 333f 3940 383f 0a2a 3d3f dc13 423f
000000a0: aefd 463f 7fe7 4b3f 51d1 503f 23bb 553f
000000b0: f5a4 5a3f c68e 5f3f 9878 643f 6a62 693f
000000c0: 3b4c 6e3f 0d36 733f df1f 783f b109 7d3f
000000d0: c1f9 803f aa6e 833f 92e3 853f 7b58 883f
000000e0: 64cd 8a3f 4d42 8d3f 36b7 8f3f 1f2c 923f
000000f0: 08a1 943f f015 973f d98a 993f c2ff 9b3f
00000100: ab74 9e3f 94e9 a03f 7d5e a33f 66d3 a53f
00000110: 4e48 a83f 37bd aa3f 2032 ad3f 09a7 af3f
00000120: f21b b23f db90 b43f c405 b73f ac7a b93f
00000130: 95ef bb3f 7e64 be3f 67d9 c03f 504e c33f
00000140: 39c3 c53f 2238 c83f 0aad ca3f f321 cd3f
00000150: dc96 cf3f c50b d23f ae80 d43f 97f5 d63f
00000160: 806a d93f 68df db3f 5154 de3f 3ac9 e03f
00000170: 233e e33f 0cb3 e53f f527 e83f de9c ea3f
00000180: c611 ed3f af86 ef3f 98fb f13f 8170 f43f
00000190: 6ae5 f63f 535a f93f 3ccf fb3f 2544 fe3f
000001a0: 875c 0040 fb96 0140 70d1 0240 e40b 0440
000001b0: 5846 0540 cd80 0640 41bb 0740 b6f5 0840
000001c0: 2a30 0a40 9f6a 0b40 13a5 0c40 87df 0d40
000001d0: fc19 0f40 7054 1040 e58e 1140 59c9 1240
000001e0: ce03 1440 423e 1540 b678 1640 2bb3 1740
000001f0: 9fed 1840 1428 1a40 8862 1b40 fd9c 1c40
00000200: 71d7 1d40 e511 1f40 5a4c 2040 ce86 2140
00000210: 43c1 2240 b7fb 2340 2c36 2540 a070 2640
00000220: 14ab 2740 89e5 2840 fd1f 2a40 725a 2b40
00000230: e694 2c40 5bcf 2d40 cf09 2f40 4344 3040
00000240: b87e 3140 2cb9 3240 a1f3 3340 152e 3540
00000250: 8a68 3640 fea2 3740 72dd 3840 e717 3a40
00000260: 5b52 3b40 d08c 3c40 44c7 3d40 b901 3f40
00000270: 2d3c 4040 a176 4140 16b1 4240 8aeb 4340
00000280: ff25 4540 7360 4640 e89a 4740 5cd5 4840
00000290: d00f 4a40 454a 4b40 b984 4c40 2ebf 4d40
000002a0: a2f9 4e40 1734 5040 8b6e 5140 ffa8 5240
000002b0: 74e3 5340 e81d 5540 5d58 5640 d192 5740
000002c0: 46cd 5840 ba07 5a40 2e42 5b40 a37c 5c40
000002d0: 17b7 5d40 8cf1 5e40 002c 6040 7566 6140
000002e0: e9a0 6240 5ddb 6340 d215 6540 4650 6640
000002f0: bb8a 6740 2fc5 6840 a4ff 6940 183a 6b40
00000300: 8c74 6c40 01af 6d40 75e9 6e40 ea23 7040
00000310: 5e5e 7140 d398 7240 47d3 7340 bc0d 7540
00000320: 3048 7640 a482 7740 19bd 7840 8df7 7940
00000330: 0232 7b40 766c 7c40 eba6 7d40 5fe1 7e40
00000340: ea0d 8040 24ab 8040 5e48 8140 98e5 8140
00000350: d382 8240 0d20 8340 47bd 8340 815a 8440
00000360: bbf7 8440 f694 8540 3032 8640 6acf 8640
00000370: a46c 8740 de09 8840 19a7 8840 5344 8940
00000380: 8de1 8940 c77e 8a40 021c 8b40 3cb9 8b40
00000390: 7656 8c40 b0f3 8c40 ea90 8d40 252e 8e40
000003a0: 5fcb 8e40 9968 8f40 d305 9040 0da3 9040
000003b0: 4840 9140 82dd 9140 bc7a 9240 f617 9340
000003c0: 31b5 9340 6b52 9440 a5ef 9440 df8c 9540
000003d0: 192a 9640 54c7 9640 8e64 9740 c801 9840
000003e0: 029f 9840 3c3c 9940 77d9 9940 b176 9a40
000003f0: eb13 9b40 25b1 9b40 604e 9c40 373a 1d3c

49 f4 [12, 5]
-1.0 -127.0 34.0 45.0 -24.0 -12.0 -127.0 33.0
42.0 -51.0 -28.0 -81.0 -6.0 -1.0 106.0 -3.0
41.0 -8.0 46.0 -5.0 1.0 -39.0 -63.0 -1.0
0.0 3.0 -31.0 -96.0 -1.0 1.0 -6.0 61.0
7.0 69.0 -4.0 3.0 -4.0 44.0 -101.0 -7.0
0.0 38.0 -0.0 50.0 -3.0 -13.0 44.0 -12.0
45.0 -5.0 1.0 -33.0 -98.0 0.0 1.0 -6.0
67.0 3.0 71.0 -5.0
00000000: 0000 80bf 0000 fec2 0000 0842 0000 3442
00000010: 0000 c0c1 0000 40c1 0000 fec2 0000 0442
00000020: 0000 2842 0000 4cc2 0000 e0c1 0000 a2c2
00000030: 0000 c0c0 0000 80bf 0000 d442 0000 40c0
00000040: 0000 2442 0000 00c1 0000 3842 0000 a0c0
00000050: 0000 803f 0000 1cc2 0000 7cc2 0000 80bf
00000060: 0000 0000 0000 4040 0000 f8c1 0000 c0c2
00000070: 0000 80bf 0000 803f 0000 c0c0 0000 7442
00000080: 0000 e040 0000 8a42 0000 80c0 0000 4040
00000090: 0000 80c0 0000 3042 0000 cac2 0000 e0c0
000000a0: 0000 0000 0000 1842 0000 0080 0000 4842
000000b0: 0000 40c0 0000 50c1 0000 3042 0000 40c1
000000c0: 0000 3442 0000 a0c0 0000 803f 0000 04c2
000000d0: 0000 c4c2 0000 0000 0000 803f 0000 c0c0
000000e0: 0000 8642 0000 4040 0000 8e42 0000 a0c0

51 f4 [5]
-61.427143 27.498306 20.81164 11.940406 -74.642944
00000000: 65b5 75c2 88fc db41 3d7e a641 e70b 3f41
00000010: 3049 95c2

55 f4 [5, 255]
0.0048578125 0.014573438 0.024289062 0.03400469 0.043720312 0.053435937 0.06315157 0.07286719
0.08258282 0.09229844 0.102014065 0.11172969 0.12144532 0.13116093 0.14087656 0.15059218
0.16030781 0.17002344 0.17973906 0.18945469 0.1991703 0.20888594 0.21860155 0.22831719
0.23803282 0.24774843 0.25746405 0.2671797 0.2768953 0.28661093 0.29632655 0.3060422
0.3157578 0.32547343 0.33518907 0.3449047 0.3546203 0.36433592 0.37405157 0.3837672
0.3934828 0.40319845 0.41291407 0.42262968 0.4323453 0.44206095 0.45177656 0.46149218
0.47120783 0.48092344 0.49063906 0.5003547 0.5100703 0.51978594 0.5295016 0.53921723
0.54893285 0.55864847 0.5683641 0.5780797 0.5877953 0.597511 0.6072266 0.6169422
0.62665784 0.63637346 0.6460891 0.6558047 0.66552037 0.675236 0.6849516 0.6946672
0.70438284 0.71409845 0.7238141 0.73352975 0.74324536 0.752961 0.7626766 0.7723922
0.78210783 0.79182345 0.8015391 0.81125474 0.82097036 0.830686 0.8404016 0.8501172
0.8598328 0.8695485 0.8792641 0.88897973 0.89869535 0.90841097 0.9181266 0.9278422
0.9375579 0.9472735 0.9569891 0.9667047 0.97642034 0.98613596 0.9958516 1.0055672
1.0152828 1.0249984 1.034714 1.0444297 1.0541453 1.0638609 1.0735766 1.0832921
1.0930078 1.1027234 1.112439 1.1221547 1.1318703 1.141586 1.1513015 1.1610172
1.1707327 1.1804484 1.1901641 1.1998796 1.2095953 1.2193109 1.2290266 1.2387421
1.2484578 1.2581735 1.267889 1.2776047 1.2873203 1.2970359 1.3067515 1.3164672
1.3261828 1.3358984 1.3456141 1.3553296 1.3650453 1.3747609 1.3844765 1.3941922
1.4039078 1.4136235 1.423339 1.4330547 1.4427702 1.4524859 1.4622016 1.4719172
1.4816328 1.4913484 1.5010641 1.5107796 1.5204953 1.530211 1.5399265 1.5496422
1.5593578 1.5690734 1.578789 1.5885047 1.5982203 1.6079359 1.6176516 1.6273671
1.6370828 1.6467984 1.656514 1.6662297 1.6759453 1.685661 1.6953765 1.7050922
1.7148077 1.7245234 1.7342391 1.7439547 1.7536703 1.7633859 1.7731016 1.7828171
1.7925328 1.8022485 1.811964 1.8216797 1.8313953 1.841111 1.8508265 1.8605422
1.8702579 1.8799734 1.8896891 1.8994046 1.9091203 1.9188359 1.9285516 1.9382671
1.9479828 1.9576985 1.967414 1.9771297 1.9868453 1.9965609 2.0062766 2.0159922
2.0257077 2.0354235 2.045139 2.0548546 2.0645702 2.074286 2.0840015 2.093717
2.103433 2.1131485 2.122864 2.1325796 2.1422954 2.152011 2.1617265 2.1714423
2.1811578 2.1908734 2.200589 2.2103047 2.2200203 2.2297359 2.2394516 2.2491672
2.2588828 2.2685983 2.278314 2.2880297 2.2977452 2.307461 2.3171766 2.3268921
2.3366077 2.3463235 2.356039 2.3657546 2.3754704 2.385186 2.3949015 2.404617
2.4143329 2.4240484 2.433764 2.4434798 2.4531953 2.462911 2.4726264 0.0048578125
00000000: 492e 9f3b 6ec5 6e3c dbf9 c63c 8048 0b3d
00000010: 1214 333d a4df 5a3d 9c55 813d 653b 953d
00000020: 2e21 a93d f706 bd3d c0ec d03d 89d2 e43d
00000030: 53b8 f83d 0d4f 063e f241 103e d634 1a3e
00000040: bb27 243e a01a 2e3e 840d 383e 6900 423e
00000050: 4df3 4b3e 32e6 553e 16d9 5f3e fbcb 693e
00000060: e0be 733e c4b1 7d3e 54d2 833e c7cb 883e
00000070: 39c5 8d3e abbe 923e 1db8 973e 90b1 9c3e
00000080: 02ab a13e 74a4 a63e e79d ab3e 5997 b03e
00000090: cb90 b53e 3d8a ba3e b083 bf3e 227d c43e
000000a0: 9476 c93e 0770 ce3e 7969 d33e eb62 d83e
000000b0: 5d5c dd3e d055 e23e 424f e73e b448 ec3e
000000c0: 2742 f13e 993b f63e 0b35 fb3e 3f17 003f
000000d0: f893 023f b110 053f 6b8d 073f 240a 0a3f
000000e0: dd86 0c3f 9603 0f3f 4f80 113f 08fd 133f
000000f0: c179 163f 7bf6 183f 3473 1b3f edef 1d3f
00000100: a66c 203f 5fe9 223f 1866 253f d1e2 273f
00000110: 8b5f 2a3f 44dc 2c3f fd58 2f3f b6d5 313f
00000120: 6f52 343f 28cf 363f e14b 393f 9bc8 3b3f
00000130: 5445 3e3f 0dc2 403f c63e 433f 7fbb 453f
00000140: 3838 483f f1b4 4a3f ab31 4d3f 64ae 4f3f
00000150: 1d2b 523f d6a7 543f 8f24 573f 48a1 593f
00000160: 011e 5c3f bb9a 5e3f 7417 613f 2d94 633f
00000170: e610 663f 9f8d 683f 580a 6b3f 1187 6d3f
00000180: cb03 703f 8480 723f 3dfd 743f f679 773f
00000190: aff6 793f 6873 7c3f 21f0 7e3f 6db6 803f
000001a0: c9f4 813f 2633 833f 8271 843f dfaf 853f
000001b0: 3cee 863f 982c 883f f56a 893f 51a9 8a3f
000001c0: aee7 8b3f 0a26 8d3f 6764 8e3f c4a2 8f3f
000001d0: 20e1 903f 7d1f 923f d95d 933f 369c 943f
000001e0: 92da 953f ef18 973f 4c57 983f a895 993f
000001f0: 05d4 9a3f 6112 9c3f be50 9d3f 1a8f 9e3f
00000200: 77cd 9f3f d40b a13f 304a a23f 8d88 a33f
00000210: e9c6 a43f 4605 a63f a243 a73f ff81 a83f
00000220: 5cc0 a93f b8fe aa3f 153d ac3f 717b ad3f
00000230: ceb9 ae3f 2af8 af3f 8736 b13f e474 b23f
00000240: 40b3 b33f 9df1 b43f f92f b63f 566e b73f
00000250: b2ac b83f 0feb b93f 6c29 bb3f c867 bc3f
00000260: 25a6 bd3f 81e4 be3f de22 c03f 3a61 c13f
00000270: 979f c23f f4dd c33f 501c c53f ad5a c63f
00000280: 0999 c73f 66d7 c83f c215 ca3f 1f54 cb3f
00000290: 7c92 cc3f d8d0 cd3f 350f cf3f 914d d03f
000002a0: ee8b d13f 4aca d23f a708 d43f 0447 d53f
000002b0: 6085 d63f bdc3 d73f 1902 d93f 7640 da3f
000002c0: d27e db3f 2fbd dc3f 8cfb dd3f e839 df3f
000002d0: 4578 e03f a1b6 e13f fef4 e23f 5a33 e43f
000002e0: b771 e53f 14b0 e63f 70ee e73f cd2c e93f
000002f0: 296b ea3f 86a9 eb3f e2e7 ec3f 3f26 ee3f
00000300: 9c64 ef3f f8a2 f03f 55e1 f13f b11f f33f
00000310: 0e5e f43f 6a9c f53f c7da f63f 2319 f83f
00000320: 8057 f93f dd95 fa3f 39d4 fb3f 9612 fd3f
00000330: f250 fe3f 4f8f ff3f d666 0040 0406 0140
00000340: 32a5 0140 6144 0240 8fe3 0240 bd82 0340
00000350: eb21 0440 1ac1 0440 4860 0540 76ff 0540
00000360: a59e 0640 d33d 0740 01dd 0740 2f7c 0840
00000370: 5e1b 0940 8cba 0940 ba59 0a40 e9f8 0a40
00000380: 1798 0b40 4537 0c40 73d6 0c40 a275 0d40
00000390: d014 0e40 feb3 0e40 2d53 0f40 5bf2 0f40
000003a0: 8991 1040 b730 1140 e6cf 1140 146f 1240
000003b0: 420e 1340 71ad 1340 9f4c 1440 cdeb 1440
000003c0: fb8a 1540 2a2a 1640 58c9 1640 8668 1740
000003d0: b507 1840 e3a6 1840 1146 1940 3fe5 1940
000003e0: 6e84 1a40 9c23 1b40 cac2 1b40 f961 1c40
000003f0: 2701 1d40 55a0 1d40 833f 1e40 492e 9f3b

62 f4 [5, 3]
-125.0 -74.0 -23.0 2.0 55.0 -31.0 53.0 97.0
-40.0 127.0 51.0 -17.0 61.0 55.0 -32.0
00000000: 0000 fac2 0000 94c2 0000 b8c1 0000 0040
00000010: 0000 5c42 0000 f8c1 0000 5442 0000 c242
00000020: 0000 20c2 0000 fe42 0000 4c42 0000 88c1
00000030: 0000 7442 0000 5c42 0000 00c2

64 f4 [3]
94.60971 86.681015 34.229412
00000000: 2c38 bd42 ae5c ad42 ebea 0842

68 f4 [3, 255]
0.0013907035 0.0041721105 0.0069535174 0.009734925 0.012516331 0.015297739 0.018079145 0.020860553
0.023641959 0.026423365 0.029204773 0.03198618 0.034767587 0.037548993 0.040330403 0.04311181
0.045893215 0.04867462 0.051456027 0.054237437 0.057018843 0.05980025 0.06258166 0.065363064
0.06814447 0.07092588 0.07370728 0.07648869 0.0792701 0.08205151 0.084832914 0.08761432
0.090395726 0.09317713 0.09595854 0.098739944 0.10152135 0.104302764 0.10708417 0.109865576
0.11264698 0.11542839 0.118209794 0.1209912 0.12377261 0.12655403 0.12933543 0.13211684
0.13489825 0.13767965 0.14046106 0.14324246 0.14602387 0.14880528 0.15158668 0.15436809
0.15714951 0.15993091 0.16271232 0.16549373 0.16827513 0.17105654 0.17383794 0.17661935
0.17940076 0.18218216 0.18496357 0.18774498 0.19052638 0.19330779 0.1960892 0.1988706
0.201652 0.20443343 0.20721483 0.20999624 0.21277764 0.21555905 0.21834046 0.22112186
0.22390327 0.22668467 0.22946608 0.23224749 0.2350289 0.2378103 0.2405917 0.24337311
0.24615453 0.24893594 0.25171733 0.25449872 0.25728014 0.26006153 0.26284295 0.26562434
0.26840577 0.2711872 0.27396858 0.27675 0.2795314 0.2823128 0.2850942 0.28787562
0.290657 0.29343843 0.29621983 0.29900125 0.30178264 0.30456406 0.30734545 0.31012687
0.3129083 0.31568968 0.3184711 0.3212525 0.32403392 0.3268153 0.32959673 0.33237812
0.33515954 0.33794093 0.34072235 0.34350374 0.34628516 0.34906656 0.35184798 0.35462937
0.3574108 0.3601922 0.3629736 0.36575502 0.3685364 0.37131783 0.37409922 0.37688065
0.37966204 0.38244346 0.38522485 0.38800627 0.39078766 0.39356908 0.39635047 0.3991319
0.4019133 0.4046947 0.40747613 0.41025752 0.41303894 0.41582033 0.41860175 0.42138314
0.42416456 0.42694595 0.42972738 0.43250877 0.4352902 0.43807158 0.440853 0.4436344
0.4464158 0.44919723 0.45197862 0.45476004 0.45754144 0.46032286 0.46310425 0.46588567
0.46866706 0.47144848 0.47422987 0.4770113 0.47979268 0.4825741 0.4853555 0.48813692
0.49091834 0.49369973 0.49648115 0.49926254 0.50204396 0.50482535 0.50760674 0.5103882
0.5131696 0.515951 0.51873237 0.5215138 0.5242952 0.5270766 0.529858 0.53263944
0.53542084 0.5382022 0.5409837 0.54376507 0.54654646 0.54932785 0.5521093 0.5548907
0.5576721 0.5604535 0.5632349 0.5660163 0.5687977 0.5715791 0.57436055 0.57714194
0.57992333 0.5827048 0.5854862 0.58826756 0.59104896 0.5938304 0.5966118 0.5993932
0.6021746 0.60495603 0.6077374 0.6105188 0.6133002 0.61608166 0.61886305 0.62164444
0.6244259 0.6272073 0.6299887 0.63277006 0.6355515 0.6383329 0.6411143 0.6438957
0.64667714 0.6494585 0.6522399 0.6550213 0.65780276 0.66058415 0.66336554 0.66614693
0.6689284 0.6717098 0.67449117 0.6772726 0.680054 0.6828354 0.6856168 0.68839824
0.69117963 0.693961 0.6967424 0.69952387 0.70230526 0.70508665 0.70786804 0.0013907035
00000000: 4448 b63a 33b6 883b 55da e33b 3c7f 1f3c
00000010: 4c11 4d3c 5ea3 7a3c b71a 943c c0e3 aa3c
00000020: c8ac c13c d075 d83c d93e ef3c f103 033d
00000030: 7568 0e3d f9cc 193d 7e31 253d 0296 303d
00000040: 86fa 3b3d 0a5f 473d 8ec3 523d 1328 5e3d
00000050: 978c 693d 1bf1 743d d02a 803d 12dd 853d
00000060: 548f 8b3d 9641 913d d8f3 963d 1aa6 9c3d
00000070: 5d58 a23d 9f0a a83d e1bc ad3d 236f b33d
00000080: 6521 b93d a7d3 be3d e985 c43d 2b38 ca3d
00000090: 6dea cf3d b09c d53d f24e db3d 3401 e13d
000000a0: 76b3 e63d b865 ec3d fa17 f23d 3cca f73d
000000b0: 7f7c fd3d 6197 013e 8270 043e a349 073e
000000c0: c422 0a3e e5fb 0c3e 06d5 0f3e 27ae 123e
000000d0: 4887 153e 6960 183e 8a39 1b3e ab12 1e3e
000000e0: cdeb 203e eec4 233e 0f9e 263e 3077 293e
000000f0: 5150 2c3e 7229 2f3e 9302 323e b4db 343e
00000100: d5b4 373e f68d 3a3e 1767 3d3e 3840 403e
00000110: 5919 433e 7af2 453e 9bcb 483e bca4 4b3e
00000120: dd7d 4e3e ff56 513e 2030 543e 4109 573e
00000130: 62e2 593e 83bb 5c3e a494 5f3e c56d 623e
00000140: e646 653e 0720 683e 28f9 6a3e 49d2 6d3e
00000150: 6aab 703e 8b84 733e ac5d 763e cd36 793e
00000160: ef0f 7c3e 10e9 7e3e 18e1 803e a84d 823e
00000170: 39ba 833e c926 853e 5a93 863e eaff 873e
00000180: 7b6c 893e 0cd9 8a3e 9c45 8c3e 2db2 8d3e
00000190: bd1e 8f3e 4e8b 903e def7 913e 6f64 933e
000001a0: ffd0 943e 903d 963e 20aa 973e b116 993e
000001b0: 4183 9a3e d2ef 9b3e 625c 9d3e f3c8 9e3e
000001c0: 8435 a03e 14a2 a13e a50e a33e 357b a43e
000001d0: c6e7 a53e 5654 a73e e7c0 a83e 772d aa3e
000001e0: 089a ab3e 9806 ad3e 2973 ae3e b9df af3e
000001f0: 4a4c b13e dab8 b23e 6b25 b43e fb91 b53e
00000200: 8cfe b63e 1d6b b83e add7 b93e 3e44 bb3e
00000210: ceb0 bc3e 5f1d be3e ef89 bf3e 80f6 c03e
00000220: 1063 c23e a1cf c33e 313c c53e c2a8 c63e
00000230: 5215 c83e e381 c93e 73ee ca3e 045b cc3e
00000240: 94c7 cd3e 2534 cf3e b6a0 d03e 460d d23e
00000250: d779 d33e 67e6 d43e f852 d63e 88bf d73e
00000260: 192c d93e a998 da3e 3a05 dc3e ca71 dd3e
00000270: 5bde de3e eb4a e03e 7cb7 e13e 0c24 e33e
00000280: 9d90 e43e 2efd e53e be69 e73e 4fd6 e83e
00000290: df42 ea3e 70af eb3e 001c ed3e 9188 ee3e
000002a0: 21f5 ef3e b261 f13e 42ce f23e d33a f43e
000002b0: 63a7 f53e f413 f73e 8480 f83e 15ed f93e
000002c0: a659 fb3e 36c6 fc3e c732 fe3e 579f ff3e
000002d0: f485 003f 3c3c 013f 84f2 013f cda8 023f
000002e0: 155f 033f 5d15 043f a5cb 043f ee81 053f
000002f0: 3638 063f 7eee 063f c6a4 073f 0f5b 083f
00000300: 5711 093f 9fc7 093f e87d 0a3f 3034 0b3f
00000310: 78ea 0b3f c0a0 0c3f 0957 0d3f 510d 0e3f
00000320: 99c3 0e3f e179 0f3f 2a30 103f 72e6 103f
00000330: ba9c 113f 0253 123f 4b09 133f 93bf 133f
00000340: db75 143f 242c 153f 6ce2 153f b498 163f
00000350: fc4e 173f 4505 183f 8dbb 183f d571 193f
00000360: 1d28 1a3f 66de 1a3f ae94 1b3f f64a 1c3f
00000370: 3e01 1d3f 87b7 1d3f cf6d 1e3f 1724 1f3f
00000380: 60da 1f3f a890 203f f046 213f 38fd 213f
00000390: 81b3 223f c969 233f 1120 243f 59d6 243f
000003a0: a28c 253f ea42 263f 32f9 263f 7aaf 273f
000003b0: c365 283f 0b1c 293f 53d2 293f 9b88 2a3f
000003c0: e43e 2b3f 2cf5 2b3f 74ab 2c3f bd61 2d3f
000003d0: 0518 2e3f 4dce 2e3f 9584 2f3f de3a 303f
000003e0: 26f1 303f 6ea7 313f b65d 323f ff13 333f
000003f0: 47ca 333f 8f80 343f d736 353f 4448 b63a

75 f4 [3, 1]
-84.0 -127.0 114.0
00000000: 0000 a8c2 0000 fec2 0000 e442

81 f4 [1, 255]
0.36769852 1.1030955 1.8384926 2.5738895 3.3092866 4.044684 4.780081 5.515478
6.250875 6.986272 7.721669 8.457067 9.192463 9.92786 10.663258 11.398654
12.134051 12.869449 13.604845 14.340242 15.07564 15.811036 16.546434 17.28183
18.017227 18.752625 19.488022 20.22342 20.958817 21.694212 22.42961 23.165007
23.900404 24.635801 25.371199 26.106596 26.841991 27.577389 28.312786 29.048183
29.78358 30.518978 31.254374 31.98977 32.72517 33.460564 34.19596 34.93136
35.666756 36.402153 37.13755 37.872948 38.608345 39.343742 40.07914 40.814537
41.549934 42.28533 43.020725 43.756123 44.49152 45.226917 45.962315 46.697712
47.43311 48.168507 48.903904 49.6393 50.3747 51.110096 51.845493 52.580887
53.316284 54.05168 54.78708 55.522476 56.257874 56.99327 57.72867 58.464066
59.199463 59.93486 60.670258 61.405655 62.14105 62.876446 63.611843 64.34724
65.08264 65.81804 66.55343 67.288826 68.02422 68.75962 69.49502 70.230415
70.96581 71.70121 72.43661 73.172005 73.9074 74.6428 75.3782 76.113594
76.84899 77.58439 78.319786 79.05518 79.79058 80.52598 81.261375 81.99677
82.73217 83.46757 84.202965 84.93836 85.67375 86.40915 87.14455 87.879944
88.61534 89.35074 90.086136 90.82153 91.55693 92.29233 93.027725 93.76312
94.49852 95.23392 95.969315 96.70471 97.44011 98.17551 98.910904 99.6463
100.3817 101.117096 101.85249 102.58789 103.32329 104.05868 104.794075 105.52947
106.26487 107.00027 107.735664 108.47106 109.20646 109.94186 110.67725 111.41265
112.14805 112.883446 113.61884 114.35424 115.08964 115.825035 116.56043 117.29583
118.03123 118.766624 119.50202 120.23742 120.97282 121.70821 122.44361 123.179
123.9144 124.649796 125.38519 126.12059 126.85599 127.591385 128.32678 129.06218
129.79758 130.53297 131.26837 132.00377 132.73915 133.47455 134.20995 134.94534
135.68074 136.41614 137.15154 137.88693 138.62233 139.35773 140.09312 140.82852
141.56392 142.29932 143.03471 143.77011 144.50551 145.2409 145.9763 146.7117
147.4471 148.1825 148.9179 149.65329 150.38869 151.12408 151.85948 152.59488
153.33028 154.06567 154.80107 155.53647 156.27187 157.00726 157.74266 158.47806
159.21346 159.94885 160.68425 161.41965 162.15504 162.89044 163.62584 164.36124
165.09663 165.83203 166.56743 167.30283 168.03822 168.77362 169.50902 170.2444
170.9798 171.7152 172.45059 173.18599 173.92139 174.65678 175.39218 176.12758
176.86298 177.59837 178.33377 179.06917 179.80457 180.53996 181.27536 182.01076
182.74615 183.48155 184.21695 184.95235 185.68774 186.42314 187.15854
00000000: fb42 bc3e 3c32 8d3f ba53 eb3f 9bba 2440
00000010: 5acb 5340 0d6e 8140 6cf6 9840 cc7e b040
00000020: 2b07 c840 8a8f df40 ea17 f740 2550 0741
00000030: 5414 1341 84d8 1e41 b49c 2a41 e360 3641
00000040: 1325 4241 43e9 4d41 72ad 5941 a271 6541
00000050: d235 7141 01fa 7c41 195f 8441 3041 8a41
00000060: 4823 9041 6005 9641 78e7 9b41 90c9 a141
00000070: a8ab a741 bf8d ad41 d76f b341 ef51 b941
00000080: 0734 bf41 1f16 c541 37f8 ca41 4fda d041
00000090: 66bc d641 7e9e dc41 9680 e241 ae62 e841
000000a0: c644 ee41 de26 f441 f508 fa41 0deb ff41
000000b0: 93e6 0242 9ed7 0542 aac8 0842 b6b9 0b42
000000c0: c2aa 0e42 ce9b 1142 da8c 1442 e67d 1742
000000d0: f26e 1a42 fe5f 1d42 0a51 2042 1642 2342
000000e0: 2233 2642 2e24 2942 3915 2c42 4506 2f42
000000f0: 51f7 3142 5de8 3442 69d9 3742 75ca 3a42
00000100: 81bb 3d42 8dac 4042 999d 4342 a58e 4642
00000110: b17f 4942 bd70 4c42 c961 4f42 d452 5242
00000120: e043 5542 ec34 5842 f825 5b42 0417 5e42
00000130: 1008 6142 1cf9 6342 28ea 6642 34db 6942
00000140: 40cc 6c42 4cbd 6f42 58ae 7242 649f 7542
00000150: 6f90 7842 7b81 7b42 8772 7e42 c9b1 8042
00000160: 502a 8242 d6a2 8342 5b1b 8542 e193 8642
00000170: 670c 8842 ed84 8942 73fd 8a42 f975 8c42
00000180: 7fee 8d42 0567 8f42 8bdf 9042 1158 9242
00000190: 97d0 9342 1d49 9542 a3c1 9642 293a 9842
000001a0: afb2 9942 352b 9b42 bba3 9c42 411c 9e42
000001b0: c794 9f42 4d0d a142 d385 a242 59fe a342
000001c0: df76 a542 65ef a642 eb67 a842 71e0 a942
000001d0: f658 ab42 7cd1 ac42 024a ae42 88c2 af42
000001e0: 0e3b b142 94b3 b242 1a2c b442 a0a4 b542
000001f0: 261d b742 ac95 b842 320e ba42 b886 bb42
00000200: 3eff bc42 c477 be42 4af0 bf42 d068 c142
00000210: 56e1 c242 dc59 c442 62d2 c542 e84a c742
00000220: 6ec3 c842 f43b ca42 7ab4 cb42 002d cd42
00000230: 86a5 ce42 0b1e d042 9196 d142 170f d342
00000240: 9d87 d442 2300 d642 a978 d742 2ff1 d842
00000250: b569 da42 3be2 db42 c15a dd42 47d3 de42
00000260: cd4b e042 53c4 e142 d93c e342 5fb5 e442
00000270: e52d e642 6ba6 e742 f11e e942 7797 ea42
00000280: fd0f ec42 8388 ed42 0901 ef42 8f79 f042
00000290: 15f2 f142 9b6a f342 21e3 f442 a65b f642
000002a0: 2cd4 f742 b24c f942 38c5 fa42 be3d fc42
000002b0: 44b6 fd42 ca2e ff42 a853 0043 eb0f 0143
000002c0: 2ecc 0143 7188 0243 b444 0343 f700 0443
000002d0: 39bd 0443 7c79 0543 bf35 0643 02f2 0643
000002e0: 45ae 0743 886a 0843 cb26 0943 0ee3 0943
000002f0: 519f 0a43 945b 0b43 d717 0c43 1ad4 0c43
00000300: 5d90 0d43 a04c 0e43 e308 0f43 26c5 0f43
00000310: 6981 1043 ac3d 1143 eff9 1143 32b6 1243
00000320: 7572 1343 b82e 1443 fbea 1443 3ea7 1543
00000330: 8163 1643 c41f 1743 07dc 1743 4a98 1843
00000340: 8d54 1943 d010 1a43 13cd 1a43 5689 1b43
00000350: 9945 1c43 dc01 1d43 1fbe 1d43 627a 1e43
00000360: a536 1f43 e8f2 1f43 2baf 2043 6e6b 2143
00000370: b127 2243 f4e3 2243 37a0 2343 7a5c 2443
00000380: bd18 2543 00d5 2543 4391 2643 864d 2743
00000390: c909 2843 0cc6 2843 4f82 2943 913e 2a43
000003a0: d4fa 2a43 17b7 2b43 5a73 2c43 9d2f 2d43
000003b0: e0eb 2d43 23a8 2e43 6664 2f43 a920 3043
000003c0: ecdc 3043 2f99 3143 7255 3243 b511 3343
000003d0: f8cd 3343 3b8a 3443 7e46 3543 c102 3643
000003e0: 04bf 3643 477b 3743 8a37 3843 cdf3 3843
000003f0: 10b0 3943 536c 3a43 9628 3b43
