quant_models/facile_tidy.onnx (onnx, 58229 bytes, 27 tensors)

BatchNormalization_0_param1 f4 [14]
00000000: 919a b3bd e602 c73e 11f7 383f c5c7 2b3e
00000010: bc2e e5bc f0b0 963e b150 0f3e 32f6 593e
00000020: 5f86 6d3e a3b4 cfbe 1477 a7c0 adc3 30bd
00000030: ea8d 11bf 924f fbbe
-0.087697156 0.388694 0.72251993 0.16775425 -0.027976386 0.29431868 0.13995625 0.21285322
0.2319579 -0.40567502 -5.233286 -0.04315536 -0.5685717 -0.49084145

BatchNormalization_0_param2 f4 [14]
00000000: c053 8442 c878 2a40 f548 5841 99e9 01bf
00000010: e672 1542 418e fb3a eea8 2a44 74ca 5944
00000020: 7c5b 7944 53cc c546 d7c1 3346 3567 5f45
00000030: 2c6e da44 4752 7844
66.163574 2.663622 13.517812 -0.50747067 37.362206 0.0019192175 682.6395 871.1633
997.42944 25318.162 11504.46 3574.4504 1747.4429 993.2856

BatchNormalization_0_param3 f4 [14]
00000000: 8dd0 da42 3982 c83f 2320 0644 1b92 0244
00000010: 55cc db43 38d2 b736 24c2 b549 a94c ec49
00000020: 0c1a 2e4a a674 9e4e 28d2 614d aa56 664b
00000030: 469a 184a 9a92 2649
109.407326 1.5664741 536.50214 522.2829 439.59634 5.4782977e-06 1.4889645e+06 1.9357651e+06
2.852483e+06 1.3292224e+09 2.367904e+08 1.5095466e+07 2.5002415e+06 682281.6

BatchNormalization_0_param0 f4 [14]
00000000: d687 a73e e28d aa3f d01e 4d40 0749 a1be
00000010: 6ca2 36bc 8e30 fb40 4b2b 243e 52fa 743e
00000020: 4a8b d83e 7bae 2340 0b38 f53e b4bf 9f3f
00000030: 5f88 4f3f 3051 0b3f
0.32720822 1.3324549 3.2050056 -0.31501028 -0.011147123 7.849677 0.1603214 0.23923615
0.4229377 2.5575244 0.4789432 1.2480378 0.8106746 0.5442076

BatchNormalization_1_param1 f4 [31]
00000000: d953 5240 68a4 e9bd 1173 123f 8322 94be
00000010: 201b babf 76bd 57bf a578 0f3d 5cd5 03c0
00000020: ded4 063f fc56 353c deb3 54bf 2591 b43d
00000030: 241d 1d40 e3d7 c33e 8647 bebe dc94 21bb
00000040: a6ec b83c 6403 643e d4b1 d13f 4a55 6e3f
00000050: df9b a33c c1ec 1bc0 62c5 6e3c e645 4940
00000060: d88b 693c 8d9a 0abd df34 8d3c a752 57bf
00000070: db63 3540 8ba2 383f 258b a9bb
3.2863677 -0.11408311 0.5720683 -0.2893258 -1.4539528 -0.8427347 0.035027165 -2.0598974
0.5266856 0.011068102 -0.83086956 0.088167466 2.4549036 0.38250646 -0.37163943 -0.0024655377
0.02257378 0.22266918 1.6382394 0.9309889 0.019971786 -2.4363253 0.014573427 3.1448913
0.014254533 -0.033838797 0.017237125 -0.8411049 2.8342197 0.7212302 -0.005174058

BatchNormalization_1_param2 f4 [31]
00000000: daf0 1842 b306 263e 46fd c13f 0676 9f3e
00000010: 7692 9540 559d 113f 0000 0000 ac35 7f3f
00000020: b80d 2e41 0000 0000 f50d 4642 da0e 2940
00000030: 4bd8 a641 95f7 1e42 54ca b241 0000 0000
00000040: 0000 0000 bed6 bd3f e57f 3442 cc24 3c42
00000050: 0000 0000 57f3 7a41 27b6 1300 1794 a541
00000060: 0000 0000 0000 0000 0000 0000 a1a2 2642
00000070: 0869 a640 04e9 2540 0000 0000
38.235207 0.16213493 1.5155418 0.31144732 4.6741285 0.56880695 0.0 0.9969127
10.878349 0.0 49.51363 2.6415315 20.855612 39.74178 22.348793 0.0
0.0 1.4831159 45.124897 47.035934 0.0 15.684409 1.810218e-39 20.69731
0.0 0.0 0.0 41.658817 5.200321 2.5923471 0.0

BatchNormalization_1_param3 f4 [31]
00000000: 9f66 a443 8b0c 8a40 e9ca 6042 22b0 e940
00000010: 92a0 0943 5ef6 9440 0000 0000 a0f7 e341
00000020: 9fe8 1c43 0000 0000 01dd ad42 35fa e841
00000030: f5d9 8743 9024 bb43 fd12 8e43 0000 0000
00000040: 0000 0000 158c a941 e47c 8943 6d72 9643
00000050: 0000 0000 203f 1743 be7b bd01 2de6 4c43
00000060: 0000 0000 0000 0000 0000 0000 6265 7943
00000070: 31c1 2a42 539e 9942 0000 0000
328.80173 4.314031 56.198154 7.3027506 137.62723 4.655074 0.0 28.49591
156.90868 0.0 86.93165 29.122171 271.7028 374.28564 284.14835 0.0
0.0 21.1934 274.9757 300.89395 0.0 151.24658 6.9605196e-38 204.89912
0.0 0.0 0.0 249.39603 42.688663 76.80923 0.0

BatchNormalization_1_param0 f4 [31]
00000000: c5b7 1840 8dab 9cbe e886 e93f 70d3 03c0
00000010: d510 4f40 6f80 c13f c515 7ebe 73eb 94bf
00000020: b433 ac3f 3fab be3e c818 2e40 a2f3 2c40
00000030: 8d78 6640 09f6 7d40 18fc 8a40 a9a7 3d3e
00000040: d9b4 e4bd e6e3 b93f a99a 2e40 39b2 48c0
00000050: 5582 9a3e 744a 8140 f73a afbf f926 8b3f
00000060: 0d17 e3bc d12f 19bd fae5 0ebe 7b9d 7640
00000070: 3c61 4140 6bcf 1140 2959 ae3e
2.3862164 -0.30599633 1.8244295 -2.0597801 3.2354023 1.511732 -0.24812992 -1.1634353
1.3453279 0.37240025 2.7202625 2.7023702 3.6011078 3.9681418 4.343273 0.18520989
-0.111673065 1.4522674 2.7281897 -3.1358778 0.3017756 4.0403385 -1.368987 1.0871269
-0.027720952 -0.037399117 -0.13954917 3.8533618 3.0215597 2.2782848 0.340524

BatchNormalization_2_param1 f4 [11]
00000000: b77a 08be 65d9 2ebe a868 8d3c 5220 f3c0
00000010: f105 cf3f 74a3 10c0 e58a 353f ed12 36c0
00000020: 919b a13f f33e 8f40 19ae 9fc0
-0.13328062 -0.17075117 0.017261818 -7.5976954 1.6173688 -2.2599764 0.7091506 -2.8449051
1.26256 4.476434 -4.990002

BatchNormalization_2_param2 f4 [11]
00000000: 38eb 2942 5e27 3f42 0000 0000 9d84 c241
00000010: 87c3 e241 984e 4e40 ac50 1342 6cde 6240
00000020: 43f1 cc41 5fe5 2041 93b0 6d3f
42.479706 47.788445 0.0 24.314753 28.345472 3.223547 36.82878 3.5448256
25.617804 10.055999 0.92847556

BatchNormalization_2_param3 f4 [11]
00000000: 459b 0445 310c 0345 0000 0000 6e76 4844
00000010: a8b1 3244 2fea 2443 e712 d044 47c0 0043
00000020: 1664 c743 80d2 df43 9573 5942
2121.7043 2096.762 0.0 801.85046 714.7759 164.91478 1664.5907 128.75108
398.78192 447.64453 54.362873

BatchNormalization_2_param0 f4 [11]
00000000: ddaf 2640 ee59 3c40 939d 213e 6e4b d83f
00000010: 0eec 3940 52ca 993f 62c9 9e3f c253 653f
00000020: 986d 383f bb82 af3f 63ea 913f
2.6044838 2.9429889 0.15782766 1.6898019 2.9050326 1.2014868 1.2405207 0.8958093
0.72042227 1.3711771 1.1399654

BatchNormalization_3_param1 f4 [3]
00000000: 14ca d5bf fbc5 c8bf 9cc4 42bf
-1.6702294 -1.5685419 -0.7608125

BatchNormalization_3_param2 f4 [3]
00000000: 38d4 8142 fa7d 8b42 cbcd a33f
64.91449 69.74605 1.2797178

BatchNormalization_3_param3 f4 [3]
00000000: ddd9 3743 e41d 4043 21a7 5141
183.85103 192.11676 13.103303

BatchNormalization_3_param0 f4 [3]
00000000: 7926 cf40 1df1 f440 2c40 2240
6.4734464 7.654433 2.5351667

MatMul_0_param0 f4 [14, 31]
00000000: 0000 80c0 0000 5041 0000 1041 0000 10c1
00000010: 0000 8040 0000 a0c0 0000 e0c0 0000 0040
00000020: 0000 80bf 0000 e841 0000 00c0 0000 80bf
00000030: 0000 4040 0000 803f 0000 0040 0000 2041
00000040: 0000 4040 0000 80c0 0000 7041 0000 a040
00000050: 0000 a040 0000 2041 0000 d841 0000 80c0
00000060: 0000 4041 0000 803f 0000 e0c1 0000 0040
00000070: 0000 1041 0000 00c1 0000 00c1 0000 0041
00000080: 0000 50c1 0000 0040 0000 f041 0000 40c0
00000090: 0000 c841 0000 0000 0000 5041 0000 fcc2
000000a0: 0000 0842 0000 80c0 0000 00c0 0000 a0c0
000000b0: 0000 e0c0 0000 e0c0 0000 5041 0000 7041
000000c0: 0000 fac2 0000 a0c0 0000 30c1 0000 9041
000000d0: 0000 c040 0000 c0c1 0000 5cc2 0000 a040
000000e0: 0000 0040 0000 5041 0000 e040 0000 0041
000000f0: 0000 fec2 0000 e8c1 0000 c0c0 0000 a8c1
00000100: 0000 4040 0000 9841 0000 28c2 0000 c040
00000110: 0000 0000 0000 0042 0000 92c2 0000 20c1
00000120: 0000 0041 0000 7041 0000 8041 0000 e0c0
00000130: 0000 803f 0000 80c0 0000 00c0 0000 4040
00000140: 0000 96c2 0000 8040 0000 80c0 0000 fcc2
00000150: 0000 80bf 0000 88c1 0000 80c0 0000 80c0
00000160: 0000 10c1 0000 8040 0000 bcc2 0000 0cc2
00000170: 0000 40c0 0000 0040 0000 70c1 0000 00c1
00000180: 0000 20c1 0000 4040 0000 70c1 0000 a0c0
00000190: 0000 3041 0000 60c1 0000 0040 0000 2041
000001a0: 0000 8841 0000 a040 0000 80c0 0000 803f
000001b0: 0000 a0c1 0000 88c1 0000 7041 0000 4041
000001c0: 0000 2041 0000 a0c0 0000 80bf 0000 80bf
000001d0: 0000 0842 0000 8841 0000 4040 0000 c0c0
000001e0: 0000 10c1 0000 40c0 0000 0c42 0000 c0c0
000001f0: 0000 00c0 0000 1041 0000 e0c0 0000 803f
00000200: 0000 00c0 0000 4040 0000 00c1 0000 0041
00000210: 0000 803f 0000 34c2 0000 00c0 0000 0080
00000220: 0000 803f 0000 803f 0000 80bf 0000 e040
00000230: 0000 0000 0000 10c1 0000 a0c0 0000 4040
00000240: 0000 c040 0000 40c0 0000 8040 0000 0040
00000250: 0000 8041 0000 50c1 0000 a8c1 0000 c040
00000260: 0000 0080 0000 40c0 0000 803f 0000 8ac2
00000270: 0000 d0c1 0000 3842 0000 4041 0000 b841
00000280: 0000 c6c2 0000 0000 0000 c6c2 0000 8040
00000290: 0000 0041 0000 803f 0000 fec2 0000 8040
000002a0: 0000 a8c1 0000 fec2 0000 a040 0000 c040
000002b0: 0000 90c1 0000 e0c0 0000 34c2 0000 8040
000002c0: 0000 1041 0000 e040 0000 c8c1 0000 0080
000002d0: 0000 4040 0000 4040 0000 8040 0000 4040
000002e0: 0000 92c2 0000 a040 0000 a040 0000 4040
000002f0: 0000 20c1 0000 a0c0 0000 e040 0000 10c1
00000300: 0000 5041 0000 30c1 0000 5041 0000 4040
00000310: 0000 c0c0 0000 0000 0000 88c1 0000 50c1
00000320: 0000 80bf 0000 10c1 0000 c0c0 0000 c040
00000330: 0000 3041 0000 00c0 0000 4040 0000 e040
00000340: 0000 80bf 0000 18c2 0000 80c0 0000 4041
00000350: 0000 0041 0000 3041 0000 c040 0000 8841
00000360: 0000 c040 0000 c040 0000 e0c0 0000 7041
00000370: 0000 00c0 0000 e0c0 0000 50c1 0000 a0c0
00000380: 0000 08c2 0000 34c2 0000 d0c1 0000 20c1
00000390: 0000 8040 0000 20c1 0000 80c0 0000 803f
000003a0: 0000 00c0 0000 0041 0000 00c0 0000 a841
000003b0: 0000 0040 0000 803f 0000 e040 0000 a0c1
000003c0: 0000 00c0 0000 e8c1 0000 00c1 0000 40c0
000003d0: 0000 803f 0000 00c0 0000 0040 0000 80c1
000003e0: 0000 c0c0 0000 40c0 0000 0041 0000 4040
000003f0: 0000 0000 0000 e0c0 0000 f8c1 0000 4cc2
-4.0 13.0 9.0 -9.0 4.0 -5.0 -7.0 2.0
-1.0 29.0 -2.0 -1.0 3.0 1.0 2.0 10.0
3.0 -4.0 15.0 5.0 5.0 10.0 27.0 -4.0
12.0 1.0 -28.0 2.0 9.0 -8.0 -8.0 8.0
-13.0 2.0 30.0 -3.0 25.0 0.0 13.0 -126.0
34.0 -4.0 -2.0 -5.0 -7.0 -7.0 13.0 15.0
-125.0 -5.0 -11.0 18.0 6.0 -24.0 -55.0 5.0
2.0 13.0 7.0 8.0 -127.0 -29.0 -6.0 -21.0
3.0 19.0 -42.0 6.0 0.0 32.0 -73.0 -10.0
8.0 15.0 16.0 -7.0 1.0 -4.0 -2.0 3.0
-75.0 4.0 -4.0 -126.0 -1.0 -17.0 -4.0 -4.0
-9.0 4.0 -94.0 -35.0 -3.0 2.0 -15.0 -8.0
-10.0 3.0 -15.0 -5.0 11.0 -14.0 2.0 10.0
17.0 5.0 -4.0 1.0 -20.0 -17.0 15.0 12.0
10.0 -5.0 -1.0 -1.0 34.0 17.0 3.0 -6.0
-9.0 -3.0 35.0 -6.0 -2.0 9.0 -7.0 1.0
-2.0 3.0 -8.0 8.0 1.0 -45.0 -2.0 -0.0
1.0 1.0 -1.0 7.0 0.0 -9.0 -5.0 3.0
6.0 -3.0 4.0 2.0 16.0 -13.0 -21.0 6.0
-0.0 -3.0 1.0 -69.0 -26.0 46.0 12.0 23.0
-99.0 0.0 -99.0 4.0 8.0 1.0 -127.0 4.0
-21.0 -127.0 5.0 6.0 -18.0 -7.0 -45.0 4.0
9.0 7.0 -25.0 -0.0 3.0 3.0 4.0 3.0
-73.0 5.0 5.0 3.0 -10.0 -5.0 7.0 -9.0
13.0 -11.0 13.0 3.0 -6.0 0.0 -17.0 -13.0
-1.0 -9.0 -6.0 6.0 11.0 -2.0 3.0 7.0
-1.0 -38.0 -4.0 12.0 8.0 11.0 6.0 17.0
6.0 6.0 -7.0 15.0 -2.0 -7.0 -13.0 -5.0
-34.0 -45.0 -26.0 -10.0 4.0 -10.0 -4.0 1.0
-2.0 8.0 -2.0 21.0 2.0 1.0 7.0 -20.0
-2.0 -29.0 -8.0 -3.0 1.0 -2.0 2.0 -16.0
-6.0 -3.0 8.0 3.0 0.0 -7.0 -31.0 -51.0

Add_0_param0 f4 [31]
00000000: d8df 2143 bf9d 2dc2 538c b1c2 4a0a 54c2
00000010: ce11 19c2 41ca 86c2 8765 bcc1 95b8 d9c2
00000020: 3562 0f41 ed77 8ec2 9a74 8942 2f35 82c2
00000030: 1882 01c2 5482 81c0 bdf2 d742 b110 2fc2
00000040: 605b 55c2 a18a 1dc2 49c8 3742 1eeb 5243
00000050: e0aa 0bc2 a8ba fc40 9521 1cc2 4849 b341
00000060: 06e1 16c2 5e6a 43c2 0f77 2ac2 43a8 4d43
00000070: c30d df40 0197 51c2 df59 26c2
161.87439 -43.40405 -88.77407 -53.010048 -38.267387 -67.39503 -23.549574 -108.86051
8.961476 -71.23423 68.72774 -65.103874 -32.377045 -4.047159 107.9741 -43.7663
-53.339233 -39.38538 45.94559 210.91843 -34.91687 7.897785 -39.032795 22.410782
-37.71975 -48.853874 -42.61627 205.65727 6.97043 -52.397465 -41.587765

MultiThreshold_0_param0 f4 [31, 255]
00000000: b008 f63d 8486 b83e 6ec5 193f 9a47 573f
00000010: e364 8a3f f925 a93f 0fe7 c73f 25a8 e63f
00000020: 9eb4 0240 2815 1240 b475 2140 3ed6 3040
00000030: ca36 4040 5497 4f40 e0f7 5e40 6a58 6e40
00000040: f6b8 7d40 c18c 8640 063d 8e40 4bed 9540
00000050: 919d 9d40 d74d a540 1cfe ac40 61ae b440
00000060: a75e bc40 ed0e c440 32bf cb40 776f d340
00000070: bd1f db40 03d0 e240 4880 ea40 8d30 f240
00000080: d3e0 f940 8cc8 0041 afa0 0441 d178 0841
00000090: f450 0c41 1729 1041 3901 1441 5cd9 1741
000000a0: 7fb1 1b41 a289 1f41 c561 2341 e739 2741
000000b0: 0a12 2b41 2dea 2e41 4fc2 3241 729a 3641
000000c0: 9572 3a41 b84a 3e41 db22 4241 fdfa 4541
000000d0: 20d3 4941 43ab 4d41 6583 5141 885b 5541
000000e0: ab33 5941 ce0b 5d41 f1e3 6041 13bc 6441
000000f0: 3694 6841 596c 6c41 7b44 7041 9e1c 7441
00000100: c1f4 7741 e4cc 7b41 07a5 7f41 95be 8141
00000110: a7aa 8341 b896 8541 c982 8741 db6e 8941
00000120: ec5a 8b41 fd46 8d41 0f33 8f41 201f 9141
00000130: 310b 9341 43f7 9441 54e3 9641 66cf 9841
00000140: 77bb 9a41 88a7 9c41 9a93 9e41 ab7f a041
00000150: bd6b a241 ce57 a441 df43 a641 f12f a841
00000160: 021c aa41 1308 ac41 25f4 ad41 36e0 af41
00000170: 47cc b141 59b8 b341 6aa4 b541 7c90 b741
00000180: 8d7c b941 9e68 bb41 b054 bd41 c140 bf41
00000190: d32c c141 e418 c341 f504 c541 07f1 c641
000001a0: 18dd c841 29c9 ca41 3bb5 cc41 4ca1 ce41
000001b0: 5d8d d041 6f79 d241 8065 d441 9251 d641
000001c0: a33d d841 b429 da41 c615 dc41 d701 de41
000001d0: e9ed df41 fad9 e141 0bc6 e341 1db2 e541
000001e0: 2e9e e741 3f8a e941 5176 eb41 6262 ed41
000001f0: 734e ef41 853a f141 9626 f341 a812 f541
00000200: b9fe f641 caea f841 dcd6 fa41 edc2 fc41
00000210: ffae fe41 884d 0042 9043 0142 9939 0242
00000220: a22f 0342 aa25 0442 b31b 0542 bc11 0642
00000230: c407 0742 cdfd 0742 d6f3 0842 dee9 0942
00000240: e7df 0a42 f0d5 0b42 f8cb 0c42 01c2 0d42
00000250: 0ab8 0e42 12ae 0f42 1ba4 1042 249a 1142
00000260: 2c90 1242 3586 1342 3e7c 1442 4772 1542
00000270: 4f68 1642 585e 1742 6154 1842 694a 1942
00000280: 7240 1a42 7b36 1b42 832c 1c42 8c22 1d42
00000290: 9518 1e42 9d0e 1f42 a604 2042 affa 2042
000002a0: b8f0 2142 c0e6 2242 c9dc 2342 d2d2 2442
000002b0: dac8 2542 e3be 2642 ecb4 2742 f4aa 2842
000002c0: fda0 2942 0697 2a42 0e8d 2b42 1783 2c42
000002d0: 2079 2d42 286f 2e42 3165 2f42 3a5b 3042
000002e0: 4251 3142 4b47 3242 543d 3342 5d33 3442
000002f0: 6529 3542 6e1f 3642 7715 3742 7f0b 3842
00000300: 8801 3942 91f7 3942 99ed 3a42 a2e3 3b42
00000310: abd9 3c42 b3cf 3d42 bcc5 3e42 c5bb 3f42
00000320: ceb1 4042 d6a7 4142 df9d 4242 e893 4342
00000330: f089 4442 f97f 4542 0276 4642 0a6c 4742
00000340: 1362 4842 1c58 4942 244e 4a42 2d44 4b42
00000350: 363a 4c42 3e30 4d42 4726 4e42 501c 4f42
00000360: 5812 5042 6108 5142 6afe 5142 73f4 5242
00000370: 7bea 5342 84e0 5442 8dd6 5542 95cc 5642
00000380: 9ec2 5742 a7b8 5842 afae 5942 b8a4 5a42
00000390: c19a 5b42 c990 5c42 d286 5d42 db7c 5e42
000003a0: e472 5f42 ec68 6042 f55e 6142 fe54 6242
000003b0: 064b 6342 0f41 6442 1837 6542 202d 6642
000003c0: 2923 6742 3219 6842 3a0f 6942 4305 6a42
000003d0: 4cfb 6a42 54f1 6b42 5de7 6c42 66dd 6d42
000003e0: 6ed3 6e42 77c9 6f42 80bf 7042 89b5 7142
000003f0: 91ab 7242 9aa1 7342 a397 7442 b008 f63d
0.12013376 0.36040127 0.6006688 0.8409363 1.0812038 1.3214713 1.5617388 1.8020064
2.042274 2.2825413 2.522809 2.7630763 3.003344 3.2436113 3.483879 3.7241464
3.9644141 4.204682 4.444949 4.6852164 4.925484 5.165752 5.406019 5.6462865
5.8865542 6.126822 6.3670893 6.6073565 6.8476243 7.087892 7.3281593 7.5684266
7.8086944 8.048962 8.289229 8.529496 8.769764 9.010032 9.2502985 9.490566
9.730834 9.971102 10.2113695 10.451636 10.691904 10.932172 11.172439 11.412706
11.652974 11.893242 12.13351 12.373776 12.614044 12.854312 13.094579 13.3348465
13.575114 13.815382 14.05565 14.295917 14.536184 14.776452 15.016719 15.256987
15.497254 15.737522 15.97779 16.218058 16.458326 16.698593 16.93886 17.179129
17.419395 17.659662 17.899931 18.140198 18.380465 18.620733 18.861 19.101269
19.341536 19.581802 19.822071 20.062338 20.302607 20.542873 20.78314 21.023409
21.263676 21.503942 21.744211 21.984478 22.224745 22.465014 22.70528 22.945549
23.185816 23.426083 23.666351 23.906618 24.146887 24.387154 24.62742 24.86769
25.107956 25.348223 25.588491 25.828758 26.069025 26.309294 26.54956 26.78983
27.030096 27.270363 27.510632 27.750898 27.991167 28.231434 28.4717 28.71197
28.952236 29.192503 29.432772 29.673038 29.913305 30.153574 30.39384 30.63411
30.874376 31.114643 31.354912 31.595179 31.835447 32.075714 32.31598 32.556248
32.796516 33.03678 33.27705 33.51732 33.757584 33.997852 34.23812 34.478386
34.718655 34.958923 35.19919 35.439457 35.679726 35.91999 36.16026 36.400528
36.640793 36.88106 37.12133 37.3616 37.601864 37.842133 38.0824 38.322666
38.562935 38.803204 39.04347 39.283737 39.524006 39.76427 40.00454 40.24481
40.485077 40.72534 40.96561 41.20588 41.446144 41.686413 41.92668 42.166946
42.407215 42.647484 42.88775 43.128017 43.368286 43.60855 43.84882 44.08909
44.329353 44.569622 44.80989 45.05016 45.290424 45.530693 45.77096 46.011227
46.251495 46.491764 46.73203 46.972298 47.212566 47.45283 47.6931 47.93337
48.173637 48.413902 48.65417 48.89444 49.134705 49.374973 49.615242 49.855507
50.095776 50.336044 50.57631 50.816578 51.056847 51.29711 51.53738 51.77765
52.017914 52.258183 52.49845 52.73872 52.978985 53.219254 53.459522 53.699787
53.940056 54.180325 54.42059 54.66086 54.901127 55.14139 55.38166 55.62193
55.862198 56.102463 56.34273 56.583 56.823265 57.063534 57.303802 57.544067
57.784336 58.024605 58.26487 58.50514 58.745407 58.985672 59.22594 59.46621
59.706474 59.946743 60.18701 60.42728 60.667545 60.907814 61.148083 0.12013376

MatMul_1_param0 f4 [31, 11]
00000000: 0000 08c2 0000 90c1 0000 80c1 0000 40c1
00000010: 0000 a040 0000 ecc2 0000 f041 0000 98c2
00000020: 0000 5041 0000 40c0 0000 b4c2 0000 50c1
00000030: 0000 5041 0000 e8c1 0000 a8c1 0000 08c2
00000040: 0000 6041 0000 2041 0000 b841 0000 0842
00000050: 0000 2041 0000 10c1 0000 0442 0000 4442
00000060: 0000 1842 0000 8041 0000 18c2 0000 2042
00000070: 0000 9242 0000 8041 0000 64c2 0000 1442
00000080: 0000 b0c1 0000 c842 0000 9041 0000 d841
00000090: 0000 9841 0000 a841 0000 f0c1 0000 78c2
000000a0: 0000 1c42 0000 50c1 0000 7c42 0000 d0c1
000000b0: 0000 88c1 0000 04c2 0000 d0c1 0000 1cc2
000000c0: 0000 b0c2 0000 1442 0000 20c1 0000 d0c1
000000d0: 0000 4042 0000 1c42 0000 7041 0000 80bf
000000e0: 0000 40c1 0000 0041 0000 1041 0000 b841
000000f0: 0000 68c2 0000 acc2 0000 70c1 0000 3842
00000100: 0000 8642 0000 a841 0000 0040 0000 0080
00000110: 0000 5042 0000 803f 0000 c0c0 0000 0040
00000120: 0000 0040 0000 0000 0000 803f 0000 0000
00000130: 0000 80bf 0000 24c2 0000 c8c1 0000 5c42
00000140: 0000 40c1 0000 e040 0000 aa42 0000 a041
00000150: 0000 e0c0 0000 a6c2 0000 7042 0000 40c0
00000160: 0000 0000 0000 50c1 0000 b0c1 0000 c0c0
00000170: 0000 4040 0000 a0c0 0000 6042 0000 98c1
00000180: 0000 2042 0000 1842 0000 74c2 0000 0040
00000190: 0000 803f 0000 5042 0000 803f 0000 70c1
000001a0: 0000 a0c0 0000 00c0 0000 0000 0000 80c0
000001b0: 0000 0080 0000 8040 0000 10c1 0000 0cc2
000001c0: 0000 2042 0000 98c1 0000 b0c1 0000 5cc2
000001d0: 0000 a8c1 0000 2cc2 0000 c842 0000 b0c1
000001e0: 0000 b841 0000 60c2 0000 a8c1 0000 00c1
000001f0: 0000 1041 0000 8041 0000 ccc2 0000 78c2
00000200: 0000 3c42 0000 2041 0000 a242 0000 a0c0
00000210: 0000 a0c1 0000 f0c1 0000 a040 0000 0040
00000220: 0000 6842 0000 8cc2 0000 aa42 0000 9cc2
00000230: 0000 6041 0000 2041 0000 6cc2 0000 5041
00000240: 0000 80bf 0000 b841 0000 28c2 0000 dac2
00000250: 0000 d8c1 0000 98c1 0000 9041 0000 6041
00000260: 0000 e041 0000 4cc2 0000 d4c2 0000 d0c2
00000270: 0000 70c1 0000 c0c1 0000 e0c0 0000 f0c1
00000280: 0000 70c1 0000 f8c1 0000 48c2 0000 f0c1
00000290: 0000 a0c0 0000 40c0 0000 0000 0000 08c2
000002a0: 0000 00c0 0000 1041 0000 803f 0000 80bf
000002b0: 0000 80bf 0000 00c0 0000 0040 0000 0080
000002c0: 0000 4040 0000 0000 0000 e841 0000 0040
000002d0: 0000 10c1 0000 803f 0000 803f 0000 0000
000002e0: 0000 8040 0000 00c0 0000 0080 0000 3442
000002f0: 0000 b0c1 0000 80bf 0000 3041 0000 e041
00000300: 0000 c0c1 0000 5cc2 0000 00c0 0000 7042
00000310: 0000 00c1 0000 2041 0000 b042 0000 4442
00000320: 0000 8040 0000 f0c1 0000 2041 0000 24c2
00000330: 0000 9041 0000 4041 0000 28c2 0000 1042
00000340: 0000 24c2 0000 803f 0000 6842 0000 4cc2
00000350: 0000 0041 0000 e0c0 0000 3041 0000 c0c1
00000360: 0000 8442 0000 60c2 0000 74c2 0000 1842
00000370: 0000 0040 0000 80bf 0000 7442 0000 0080
00000380: 0000 80c0 0000 803f 0000 80bf 0000 80bf
00000390: 0000 80bf 0000 803f 0000 0000 0000 e841
000003a0: 0000 c841 0000 2042 0000 f8c1 0000 6442
000003b0: 0000 8041 0000 fa42 0000 e0c1 0000 c2c2
000003c0: 0000 d442 0000 0040 0000 803f 0000 00c0
000003d0: 0000 90c1 0000 0080 0000 a0c0 0000 0080
000003e0: 0000 803f 0000 0080 0000 00c0 0000 80bf
000003f0: 0000 803f 0000 a040 0000 3442 0000 c4c2
-34.0 -18.0 -16.0 -12.0 5.0 -118.0 30.0 -76.0
13.0 -3.0 -90.0 -13.0 13.0 -29.0 -21.0 -34.0
14.0 10.0 23.0 34.0 10.0 -9.0 33.0 49.0
38.0 16.0 -38.0 40.0 73.0 16.0 -57.0 37.0
-22.0 100.0 18.0 27.0 19.0 21.0 -30.0 -62.0
39.0 -13.0 63.0 -26.0 -17.0 -33.0 -26.0 -39.0
-88.0 37.0 -10.0 -26.0 48.0 39.0 15.0 -1.0
-12.0 8.0 9.0 23.0 -58.0 -86.0 -15.0 46.0
67.0 21.0 2.0 -0.0 52.0 1.0 -6.0 2.0
2.0 0.0 1.0 0.0 -1.0 -41.0 -25.0 55.0
-12.0 7.0 85.0 20.0 -7.0 -83.0 60.0 -3.0
0.0 -13.0 -22.0 -6.0 3.0 -5.0 56.0 -19.0
40.0 38.0 -61.0 2.0 1.0 52.0 1.0 -15.0
-5.0 -2.0 0.0 -4.0 -0.0 4.0 -9.0 -35.0
40.0 -19.0 -22.0 -55.0 -21.0 -43.0 100.0 -22.0
23.0 -56.0 -21.0 -8.0 9.0 16.0 -102.0 -62.0
47.0 10.0 81.0 -5.0 -20.0 -30.0 5.0 2.0
58.0 -70.0 85.0 -78.0 14.0 10.0 -59.0 13.0
-1.0 23.0 -42.0 -109.0 -27.0 -19.0 18.0 14.0
28.0 -51.0 -106.0 -104.0 -15.0 -24.0 -7.0 -30.0
-15.0 -31.0 -50.0 -30.0 -5.0 -3.0 0.0 -34.0
-2.0 9.0 1.0 -1.0 -1.0 -2.0 2.0 -0.0
3.0 0.0 29.0 2.0 -9.0 1.0 1.0 0.0
4.0 -2.0 -0.0 45.0 -22.0 -1.0 11.0 28.0
-24.0 -55.0 -2.0 60.0 -8.0 10.0 88.0 49.0
4.0 -30.0 10.0 -41.0 18.0 12.0 -42.0 36.0
-41.0 1.0 58.0 -51.0 8.0 -7.0 11.0 -24.0
66.0 -56.0 -61.0 38.0 2.0 -1.0 61.0 -0.0
-4.0 1.0 -1.0 -1.0 -1.0 1.0 0.0 29.0
25.0 40.0 -31.0 57.0 16.0 125.0 -28.0 -97.0
106.0 2.0 1.0 -2.0 -18.0 -0.0 -5.0 -0.0
1.0 -0.0 -2.0 -1.0 1.0 5.0 45.0 -98.0

Add_1_param0 f4 [11]
00000000: b925 8041 fff9 ed42 c729 89c2 2c5e bf42
00000010: 0fee 4f3e 4a68 45c2 5489 eec1 442c 2fc2
00000020: 23b3 7fc0 33f5 d0c2 af1b 25c3
16.01842 118.98827 -68.5816 95.68393 0.20305656 -49.351845 -29.817055 -43.79323
-3.9953086 -104.478905 -165.10814

MultiThreshold_1_param0 f4 [11, 255]
00000000: 79b4 893e b68e 4e3f 9721 ac3f d4fb f03f
00000010: 08eb 1a40 2658 3d40 45c5 5f40 3219 8140
00000020: c14f 9240 5086 a340 dfbc b440 6ef3 c540
00000030: fe29 d740 8d60 e840 1c97 f940 d566 0541
00000040: 1d02 0e41 659d 1641 ac38 1f41 f4d3 2741
00000050: 3b6f 3041 830a 3941 caa5 4141 1241 4a41
00000060: 5adc 5241 a177 5b41 e912 6441 30ae 6c41
00000070: 7849 7541 bfe4 7d41 0340 8341 a78d 8741
00000080: 4bdb 8b41 ef28 9041 9376 9441 36c4 9841
00000090: da11 9d41 7e5f a141 22ad a541 c5fa a941
000000a0: 6948 ae41 0d96 b241 b1e3 b641 5531 bb41
000000b0: f87e bf41 9ccc c341 401a c841 e467 cc41
000000c0: 88b5 d041 2b03 d541 cf50 d941 739e dd41
000000d0: 17ec e141 ba39 e641 5e87 ea41 02d5 ee41
000000e0: a622 f341 4a70 f741 edbd fb41 c805 0042
000000f0: 9a2c 0242 6c53 0442 3e7a 0642 10a1 0842
00000100: e2c7 0a42 b4ee 0c42 8615 0f42 583c 1142
00000110: 2a63 1342 fb89 1542 cdb0 1742 9fd7 1942
00000120: 71fe 1b42 4325 1e42 154c 2042 e772 2242
00000130: b999 2442 8bc0 2642 5ce7 2842 2e0e 2b42
00000140: 0035 2d42 d25b 2f42 a482 3142 76a9 3342
00000150: 48d0 3542 1af7 3742 ec1d 3a42 bd44 3c42
00000160: 8f6b 3e42 6192 4042 33b9 4242 05e0 4442
00000170: d706 4742 a92d 4942 7b54 4b42 4d7b 4d42
00000180: 1fa2 4f42 f0c8 5142 c2ef 5342 9416 5642
00000190: 663d 5842 3864 5a42 0a8b 5c42 dcb1 5e42
000001a0: aed8 6042 80ff 6242 5126 6542 234d 6742
000001b0: f573 6942 c79a 6b42 99c1 6d42 6be8 6f42
000001c0: 3d0f 7242 0f36 7442 e15c 7642 b283 7842
000001d0: 84aa 7a42 56d1 7c42 28f8 7e42 7c8f 8042
000001e0: e5a2 8142 4eb6 8242 b7c9 8342 20dd 8442
000001f0: 89f0 8542 f203 8742 5b17 8842 c42a 8942
00000200: 2d3e 8a42 9651 8b42 ff64 8c42 6878 8d42
00000210: d18b 8e42 3a9f 8f42 a3b2 9042 0cc6 9142
00000220: 75d9 9242 deec 9342 4600 9542 af13 9642
00000230: 1827 9742 813a 9842 ea4d 9942 5361 9a42
00000240: bc74 9b42 2588 9c42 8e9b 9d42 f7ae 9e42
00000250: 60c2 9f42 c9d5 a042 32e9 a142 9bfc a242
00000260: 0410 a442 6d23 a542 d636 a642 3f4a a742
00000270: a75d a842 1071 a942 7984 aa42 e297 ab42
00000280: 4bab ac42 b4be ad42 1dd2 ae42 86e5 af42
00000290: eff8 b042 580c b242 c11f b342 2a33 b442
000002a0: 9346 b542 fc59 b642 656d b742 ce80 b842
000002b0: 3794 b942 a0a7 ba42 08bb bb42 71ce bc42
000002c0: dae1 bd42 43f5 be42 ac08 c042 151c c142
000002d0: 7e2f c242 e742 c342 5056 c442 b969 c542
000002e0: 227d c642 8b90 c742 f4a3 c842 5db7 c942
000002f0: c6ca ca42 2fde cb42 98f1 cc42 0105 ce42
00000300: 6a18 cf42 d22b d042 3b3f d142 a452 d242
00000310: 0d66 d342 7679 d442 df8c d542 48a0 d642
00000320: b1b3 d742 1ac7 d842 83da d942 eced da42
00000330: 5501 dc42 be14 dd42 2728 de42 903b df42
00000340: f94e e042 6262 e142 cb75 e242 3389 e342
00000350: 9c9c e442 05b0 e542 6ec3 e642 d7d6 e742
00000360: 40ea e842 a9fd e942 1211 eb42 7b24 ec42
00000370: e437 ed42 4d4b ee42 b65e ef42 1f72 f042
00000380: 8885 f142 f198 f242 5aac f342 c3bf f442
00000390: 2cd3 f542 94e6 f642 fdf9 f742 660d f942
000003a0: cf20 fa42 3834 fb42 a147 fc42 0a5b fd42
000003b0: 736e fe42 dc81 ff42 a24a 0043 57d4 0043
000003c0: 0b5e 0143 c0e7 0143 7471 0243 29fb 0243
000003d0: dd84 0343 920e 0443 4698 0443 fb21 0543
000003e0: afab 0543 6435 0643 18bf 0643 cd48 0743
000003f0: 81d2 0743 365c 0843 eae5 0843 79b4 893e
0.26895502 0.8068651 1.3447751 1.8826852 2.4205952 2.9585052 3.4964154 4.0343256
4.5722356 5.1101456 5.6480556 6.1859655 6.723876 7.261786 7.799696 8.337605
8.875516 9.413426 9.951336 10.489246 11.027156 11.565066 12.102976 12.640886
13.178797 13.716706 14.254617 14.792526 15.330437 15.868346 16.406256 16.944166
17.482077 18.019987 18.557898 19.095806 19.633717 20.171627 20.709538 21.247446
21.785357 22.323267 22.861177 23.399088 23.936996 24.474907 25.012817 25.550728
26.088638 26.626547 27.164457 27.702368 28.240278 28.778187 29.316097 29.854008
30.391918 30.929829 31.467737 32.005646 32.543556 33.081467 33.619377 34.157288
34.695198 35.23311 35.77102 36.30893 36.84684 37.384747 37.922657 38.460567
38.998478 39.53639 40.0743 40.61221 41.15012 41.68803 42.225937 42.763847
43.301758 43.83967 44.37758 44.91549 45.4534 45.99131 46.52922 47.067127
47.605038 48.14295 48.68086 49.21877 49.75668 50.29459 50.8325 51.37041
51.90832 52.446228 52.98414 53.52205 54.05996 54.59787 55.13578 55.67369
56.2116 56.74951 57.28742 57.82533 58.36324 58.90115 59.43906 59.97697
60.51488 61.05279 61.590702 62.12861 62.66652 63.20443 63.74234 64.28024
64.81815 65.356064 65.893974 66.431885 66.969795 67.507706 68.045616 68.58353
69.12144 69.65935 70.19726 70.73517 71.27308 71.81099 72.3489 72.88681
73.42472 73.96263 74.500534 75.038445 75.576355 76.114265 76.652176 77.19009
77.728 78.26591 78.80382 79.34173 79.87964 80.41755 80.95546 81.49337
82.03128 82.56919 83.1071 83.64501 84.182915 84.720825 85.258736 85.796646
86.33456 86.87247 87.41038 87.94829 88.4862 89.02411 89.56202 90.09993
90.63784 91.17575 91.71366 92.25157 92.78948 93.32739 93.865295 94.403206
94.94112 95.47903 96.01694 96.55485 97.09276 97.63067 98.16858 98.70649
99.2444 99.78231 100.32022 100.85813 101.39604 101.93395 102.47186 103.00977
103.54768 104.08559 104.6235 105.16141 105.69932 106.23723 106.77514 107.31305
107.85096 108.38887 108.92678 109.46469 110.0026 110.54051 111.07842 111.61633
112.15424 112.692154 113.230064 113.76797 114.30588 114.84379 115.3817 115.91961
116.45752 116.99543 117.53334 118.07125 118.60916 119.14707 119.68498 120.22289
120.7608 121.29871 121.836624 122.374535 122.912445 123.45035 123.98826 124.52617
125.06408 125.60199 126.1399 126.67781 127.21572 127.75363 128.29153 128.82945
129.36736 129.90527 130.44318 130.9811 131.519 132.05692 132.59482 133.13274
133.67064 134.20856 134.74646 135.28438 135.82228 136.3602 136.8981 0.26895502

MatMul_2_param0 f4 [11, 3]
00000000: 0000 64c2 0000 b842 0000 c0c2 0000 20c2
00000010: 0000 10c1 0000 fe42 0000 e040 0000 20c1
00000020: 0000 0080 0000 9841 0000 c6c2 0000 b041
00000030: 0000 c642 0000 90c2 0000 80bf 0000 18c2
00000040: 0000 f8c1 0000 80bf 0000 c841 0000 9041
00000050: 0000 fcc2 0000 80c0 0000 7cc2 0000 78c2
00000060: 0000 0442 0000 5041 0000 a041 0000 ae42
00000070: 0000 9841 0000 d0c1 0000 5cc2 0000 60c1
00000080: 0000 0040
-57.0 92.0 -96.0 -40.0 -9.0 127.0 7.0 -10.0
-0.0 19.0 -99.0 22.0 99.0 -72.0 -1.0 -38.0
-31.0 -1.0 25.0 18.0 -126.0 -4.0 -63.0 -62.0
33.0 13.0 20.0 87.0 19.0 -26.0 -55.0 -14.0
2.0

Add_2_param0 f4 [3]
00000000: 96d4 1644 4e52 fc43 2f2c 5042
603.32166 504.643 52.043148

MultiThreshold_2_param0 f4 [3, 255]
00000000: 306c 4d3e 2411 1a3f 9e63 803f aabe b33f
00000010: b619 e73f 613a 0d40 e7e7 2640 6d95 4040
00000020: f342 5a40 79f0 7340 00cf 8640 c2a5 9340
00000030: 867c a040 4853 ad40 0c2a ba40 ce00 c740
00000040: 92d7 d340 54ae e040 1885 ed40 da5b fa40
00000050: 4f99 0341 b104 0a41 1270 1041 73db 1641
00000060: d546 1d41 37b2 2341 981d 2a41 f988 3041
00000070: 5bf4 3641 bd5f 3d41 1ecb 4341 7f36 4a41
00000080: e1a1 5041 430d 5741 a478 5d41 05e4 6341
00000090: 674f 6a41 c9ba 7041 2a26 7741 8b91 7d41
000000a0: 76fe 8141 2734 8541 d869 8841 889f 8b41
000000b0: 39d5 8e41 ea0a 9241 9a40 9541 4b76 9841
000000c0: fcab 9b41 ade1 9e41 5e17 a241 0e4d a541
000000d0: bf82 a841 70b8 ab41 20ee ae41 d123 b241
000000e0: 8259 b541 338f b841 e4c4 bb41 94fa be41
000000f0: 4530 c241 f665 c541 a69b c841 57d1 cb41
00000100: 0807 cf41 b93c d241 6a72 d541 1aa8 d841
00000110: cbdd db41 7c13 df41 2c49 e241 dd7e e541
00000120: 8eb4 e841 3fea eb41 f01f ef41 a055 f241
00000130: 518b f541 02c1 f841 b2f6 fb41 632c ff41
00000140: 0a31 0142 e2cb 0242 bb66 0442 9301 0642
00000150: 6c9c 0742 4437 0942 1cd2 0a42 f56c 0c42
00000160: cd07 0e42 a5a2 0f42 7e3d 1142 56d8 1242
00000170: 2e73 1442 070e 1642 dfa8 1742 b843 1942
00000180: 90de 1a42 6879 1c42 4114 1e42 19af 1f42
00000190: f249 2142 cae4 2242 a27f 2442 7b1a 2642
000001a0: 53b5 2742 2b50 2942 04eb 2a42 dc85 2c42
000001b0: b420 2e42 8dbb 2f42 6556 3142 3ef1 3242
000001c0: 168c 3442 ee26 3642 c7c1 3742 9f5c 3942
000001d0: 78f7 3a42 5092 3c42 282d 3e42 01c8 3f42
000001e0: d962 4142 b1fd 4242 8a98 4442 6233 4642
000001f0: 3ace 4742 1369 4942 eb03 4b42 c49e 4c42
00000200: 9c39 4e42 74d4 4f42 4d6f 5142 250a 5342
00000210: fea4 5442 d63f 5642 aeda 5742 8775 5942
00000220: 5f10 5b42 37ab 5c42 1046 5e42 e8e0 5f42
00000230: c07b 6142 9916 6342 71b1 6442 4a4c 6642
00000240: 22e7 6742 fa81 6942 d31c 6b42 abb7 6c42
00000250: 8452 6e42 5ced 6f42 3488 7142 0d23 7342
00000260: e5bd 7442 bd58 7642 96f3 7742 6e8e 7942
00000270: 4629 7b42 1fc4 7c42 f75e 7e42 d0f9 7f42
00000280: 54ca 8042 c097 8142 2c65 8242 9932 8342
00000290: 0500 8442 71cd 8442 dd9a 8542 4968 8642
000002a0: b635 8742 2203 8842 8ed0 8842 fa9d 8942
000002b0: 666b 8a42 d238 8b42 3f06 8c42 abd3 8c42
000002c0: 17a1 8d42 836e 8e42 ef3b 8f42 5c09 9042
000002d0: c8d6 9042 34a4 9142 a071 9242 0c3f 9342
000002e0: 780c 9442 e5d9 9442 51a7 9542 bd74 9642
000002f0: 2942 9742 950f 9842 02dd 9842 6eaa 9942
00000300: da77 9a42 4645 9b42 b212 9c42 1fe0 9c42
00000310: 8bad 9d42 f77a 9e42 6348 9f42 cf15 a042
00000320: 3ce3 a042 a8b0 a142 147e a242 804b a342
00000330: ec18 a442 58e6 a442 c5b3 a542 3181 a642
00000340: 9d4e a742 091c a842 75e9 a842 e2b6 a942
00000350: 4e84 aa42 ba51 ab42 261f ac42 92ec ac42
00000360: feb9 ad42 6b87 ae42 d754 af42 4322 b042
00000370: afef b042 1bbd b142 888a b242 f457 b342
00000380: 6025 b442 ccf2 b442 38c0 b542 a58d b642
00000390: 115b b742 7d28 b842 e9f5 b842 55c3 b942
000003a0: c290 ba42 2e5e bb42 9a2b bc42 06f9 bc42
000003b0: 72c6 bd42 de93 be42 4b61 bf42 b72e c042
000003c0: 23fc c042 8fc9 c142 fb96 c242 6864 c342
000003d0: d431 c442 40ff c442 accc c542 189a c642
000003e0: 8467 c742 f134 c842 5d02 c942 c9cf c942
000003f0: 359d ca42 a16a cb42 0e38 cc42 306c 4d3e
0.20060802 0.60182405 1.0030401 1.4042561 1.8054721 2.2066882 2.6079042 3.0091202
3.4103363 3.8115523 4.2127686 4.613984 5.0152006 5.416416 5.8176327 6.218848
6.6200647 7.0212803 7.422497 7.8237123 8.224929 8.626145 9.027361 9.428576
9.829793 10.2310095 10.632225 11.033441 11.434657 11.835874 12.237089 12.638305
13.039521 13.440738 13.841953 14.243169 14.644385 15.045602 15.446817 15.848033
16.249249 16.650465 17.051682 17.452896 17.854113 18.25533 18.656544 19.05776
19.458977 19.860193 20.26141 20.662624 21.06384 21.465057 21.866272 22.267488
22.668705 23.069921 23.471138 23.872353 24.27357 24.674786 25.076 25.477217
25.878433 26.27965 26.680866 27.08208 27.483297 27.884514 28.285728 28.686945
29.088161 29.489378 29.890594 30.29181 30.693026 31.094242 31.495457 31.896673
32.29789 32.699104 33.100323 33.501537 33.902756 34.30397 34.705185 35.106403
35.507618 35.908833 36.31005 36.711266 37.11248 37.5137 37.914913 38.31613
38.717346 39.11856 39.51978 39.920994 40.322212 40.723427 41.12464 41.52586
41.927074 42.32829 42.729507 43.130722 43.531937 43.933155 44.33437 44.735588
45.136803 45.538017 45.939236 46.34045 46.74167 47.142883 47.544098 47.945316
48.34653 48.747746 49.148964 49.55018 49.951393 50.35261 50.753826 51.155045
51.55626 51.957474 52.358692 52.759907 53.161125 53.56234 53.963554 54.364773
54.765987 55.167202 55.56842 55.969635 56.37085 56.772068 57.173283 57.5745
57.975716 58.37693 58.77815 59.179363 59.58058 59.981796 60.38301 60.78423
61.185444 61.58666 61.987877 62.38909 62.790306 63.191525 63.59274 63.993958
64.39517 64.79639 65.1976 65.59882 66.00004 66.40125 66.80247 67.20368
67.604904 68.00612 68.40733 68.80855 69.20976 69.61098 70.0122 70.413414
70.81463 71.21584 71.61706 72.01828 72.419495 72.82071 73.221924 73.62314
74.02435 74.425575 74.82679 75.228004 75.62922 76.03043 76.431656 76.83287
77.234085 77.6353 78.036514 78.43774 78.83895 79.240166 79.64138 80.042595
80.44382 80.84503 81.24625 81.64746 82.048676 82.44989 82.85111 83.25233
83.65354 84.054756 84.45597 84.85719 85.25841 85.65962 86.06084 86.46205
86.863266 87.26449 87.6657 88.06692 88.46813 88.86935 89.27057 89.67178
90.073 90.47421 90.87543 91.27665 91.677864 92.07908 92.48029 92.88151
93.28273 93.683945 94.08516 94.486374 94.88759 95.2888 95.690025 96.09124
96.492455 96.89367 97.29488 97.696106 98.09732 98.498535 98.89975 99.300964
99.70218 100.1034 100.504616 100.90583 101.307045 101.70826 102.10948 0.20060802

MatMul_3_param0 f4 [3, 1]
00000000: 0000 d4c2 0000 fec2 0000 0042
-106.0 -127.0 32.0

MultiThreshold_3_param0 f4 [1, 255]
00000000: 5c34 503f 4527 1c40 ba20 8240 d02d b640
00000010: e83a ea40 0024 0f41 8b2a 2941 1631 4341
00000020: a237 5d41 2e3e 7741 5da2 8841 a2a5 9541
00000030: e8a8 a241 2eac af41 73af bc41 b9b2 c941
00000040: ffb5 d641 45b9 e341 8bbc f041 d0bf fd41
00000050: 8b61 0542 2de3 0b42 d064 1242 73e6 1842
00000060: 1668 1f42 b9e9 2542 5c6b 2c42 ffec 3242
00000070: a16e 3942 44f0 3f42 e771 4642 8af3 4c42
00000080: 2d75 5342 d0f6 5942 7378 6042 16fa 6642
00000090: b97b 6d42 5bfd 7342 fe7e 7a42 5180 8042
000000a0: 23c1 8342 f401 8742 c542 8a42 9783 8d42
000000b0: 68c4 9042 3a05 9442 0b46 9742 dd86 9a42
000000c0: aec7 9d42 7f08 a142 5149 a442 228a a742
000000d0: f4ca aa42 c50b ae42 974c b142 688d b442
000000e0: 39ce b742 0b0f bb42 dc4f be42 ae90 c142
000000f0: 7fd1 c442 5112 c842 2253 cb42 f493 ce42
00000100: c5d4 d142 9615 d542 6856 d842 3997 db42
00000110: 0bd8 de42 dc18 e242 ae59 e542 7f9a e842
00000120: 51db eb42 221c ef42 f35c f242 c59d f542
00000130: 96de f842 681f fc42 3960 ff42 8550 0143
00000140: eef0 0243 5691 0443 bf31 0643 28d2 0743
00000150: 9072 0943 f912 0b43 62b3 0c43 cb53 0e43
00000160: 33f4 0f43 9c94 1143 0535 1343 6dd5 1443
00000170: d675 1643 3f16 1843 a8b6 1943 1057 1b43
00000180: 79f7 1c43 e297 1e43 4a38 2043 b3d8 2143
00000190: 1c79 2343 8519 2543 edb9 2643 565a 2843
000001a0: bffa 2943 279b 2b43 903b 2d43 f9db 2e43
000001b0: 627c 3043 ca1c 3243 33bd 3343 9c5d 3543
000001c0: 04fe 3643 6d9e 3843 d63e 3a43 3fdf 3b43
000001d0: a77f 3d43 1020 3f43 79c0 4043 e260 4243
000001e0: 4a01 4443 b3a1 4543 1c42 4743 84e2 4843
000001f0: ed82 4a43 5623 4c43 bfc3 4d43 2764 4f43
00000200: 9004 5143 f9a4 5243 6145 5443 cae5 5543
00000210: 3386 5743 9c26 5943 04c7 5a43 6d67 5c43
00000220: d607 5e43 3ea8 5f43 a748 6143 10e9 6243
00000230: 7989 6443 e129 6643 4aca 6743 b36a 6943
00000240: 1c0b 6b43 84ab 6c43 ed4b 6e43 56ec 6f43
00000250: be8c 7143 272d 7343 90cd 7443 f96d 7643
00000260: 610e 7843 caae 7943 334f 7b43 9bef 7c43
00000270: 0490 7e43 3718 8043 6be8 8043 9fb8 8143
00000280: d488 8243 0859 8343 3c29 8443 71f9 8443
00000290: a5c9 8543 d999 8643 0e6a 8743 423a 8843
000002a0: 760a 8943 abda 8943 dfaa 8a43 137b 8b43
000002b0: 484b 8c43 7c1b 8d43 b1eb 8d43 e5bb 8e43
000002c0: 198c 8f43 4e5c 9043 822c 9143 b6fc 9143
000002d0: ebcc 9243 1f9d 9343 536d 9443 883d 9543
000002e0: bc0d 9643 f0dd 9643 25ae 9743 597e 9843
000002f0: 8e4e 9943 c21e 9a43 f6ee 9a43 2bbf 9b43
00000300: 5f8f 9c43 935f 9d43 c82f 9e43 fcff 9e43
00000310: 30d0 9f43 65a0 a043 9970 a143 ce40 a243
00000320: 0211 a343 36e1 a343 6bb1 a443 9f81 a543
00000330: d351 a643 0822 a743 3cf2 a743 70c2 a843
00000340: a592 a943 d962 aa43 0d33 ab43 4203 ac43
00000350: 76d3 ac43 aba3 ad43 df73 ae43 1344 af43
00000360: 4814 b043 7ce4 b043 b0b4 b143 e584 b243
00000370: 1955 b343 4d25 b443 82f5 b443 b6c5 b543
00000380: ea95 b643 1f66 b743 5336 b843 8806 b943
00000390: bcd6 b943 f0a6 ba43 2577 bb43 5947 bc43
000003a0: 8d17 bd43 c2e7 bd43 f6b7 be43 2a88 bf43
000003b0: 5f58 c043 9328 c143 c8f8 c143 fcc8 c243
000003c0: 3099 c343 6569 c443 9939 c543 cd09 c643
000003d0: 02da c643 36aa c743 6a7a c843 9f4a c943
000003e0: d31a ca43 07eb ca43 3cbb cb43 708b cc43
000003f0: a55b cd43 d92b ce43 0dfc ce43
0.81329894 2.4398968 4.066495 5.6930923 7.3196907 8.946289 10.572886 12.199484
13.826082 15.452681 17.079279 18.705875 20.332474 21.959072 23.585669 25.212267
26.838865 28.465464 30.092062 31.718658 33.345257 34.97185 36.59845 38.225048
39.851646 41.478245 43.104843 44.73144 46.358036 47.984634 49.611233 51.23783
52.86443 54.491028 56.117626 57.744225 59.370823 60.997417 62.624016 64.25062
65.87722 67.503815 69.13041 70.75701 72.383606 74.01021 75.6368 77.263405
78.89 80.516594 82.143196 83.76979 85.39639 87.02299 88.64959 90.276184
91.90278 93.52938 95.155975 96.78258 98.40917 100.035774 101.66237 103.28897
104.915565 106.54216 108.16876 109.79536 111.42196 113.04855 114.675156 116.30175
117.92835 119.55495 121.18154 122.80814 124.43474 126.06134 127.687935 129.31453
130.94113 132.56772 134.19432 135.82092 137.44751 139.07411 140.70071 142.32732
143.9539 145.5805 147.2071 148.8337 150.4603 152.0869 153.7135 155.34009
156.96669 158.59329 160.21988 161.84648 163.47308 165.09969 166.72627 168.35287
169.97948 171.60606 173.23267 174.85927 176.48587 178.11246 179.73906 181.36566
182.99225 184.61885 186.24545 187.87206 189.49864 191.12524 192.75185 194.37845
196.00504 197.63164 199.25824 200.88483 202.51143 204.13803 205.76463 207.39122
209.01782 210.64442 212.27101 213.89761 215.52422 217.15082 218.7774 220.404
222.03061 223.6572 225.2838 226.9104 228.537 230.16359 231.79019 233.4168
235.0434 236.66998 238.29659 239.92319 241.54977 243.17638 244.80298 246.42958
248.05617 249.68277 251.30937 252.93596 254.56256 256.18918 257.81577 259.44235
261.06897 262.69556 264.32214 265.94876 267.57535 269.20193 270.82855 272.45514
274.08173 275.70834 277.33493 278.96152 280.58813 282.21472 283.84134 285.46793
287.0945 288.72113 290.34772 291.9743 293.60092 295.2275 296.8541 298.4807
300.1073 301.7339 303.3605 304.9871 306.6137 308.2403 309.86688 311.4935
313.1201 314.74667 316.3733 317.99988 319.62646 321.25308 322.87967 324.5063
326.13287 327.75946 329.38608 331.01266 332.63925 334.26587 335.89246 337.51904
339.14566 340.77225 342.39883 344.02545 345.65204 347.27866 348.90524 350.53183
352.15845 353.78503 355.41162 357.03824 358.66483 360.2914 361.91803 363.54462
365.1712 366.79782 368.4244 370.05103 371.6776 373.3042 374.93082 376.5574
378.184 379.8106 381.4372 383.06378 384.6904 386.317 387.9436 389.5702
391.19678 392.8234 394.44998 396.07657 397.7032 399.32977 400.95636 402.58298
404.20956 405.83615 407.46277 409.08936 410.71597 412.34256 413.96915
