quant_models/facile_postproc.onnx (onnx, 31423 bytes, 27 tensors)

BatchNormalization_0_param1 f4 [14]
0.06528172 0.15141796 5.2125883 0.22759362 -8.59536 -0.96223354 0.40348485 -0.022343773
-0.16867708 -4.75394 0.046316616 0.84045905 -0.29772326 -0.25222927
00000000: 6cb2 853d 4f0d 1b3e 86cd a640 4d0e 693e
00000010: 9886 09c1 f054 76bf 9195 ce3e 4a0a b7bc
00000020: afb9 2cbe 4720 98c0 7eb6 3d3d 5328 573f
00000030: 2f6f 98be 3224 81be

BatchNormalization_0_param2 f4 [14]
66.922134 2.6487322 14.164116 -0.7577211 35.278828 0.0020125846 610.9425 771.42
898.6692 24838.904 11530.397 3709.1138 1848.4474 1036.1147
00000000: 22d8 8542 d484 2940 38a0 6241 03fa 41bf
00000010: 851d 0d42 91e5 033b 52bc 1844 e1da 4044
00000020: d4aa 6044 cf0d c246 9729 3446 d2d1 6745
00000030: 510e e744 ac83 8144

BatchNormalization_0_param3 f4 [14]
109.688835 1.4103838 599.6375 525.8831 443.49268 5.7327843e-06 839796.9 1.2006356e+06
1.6930239e+06 1.1663195e+09 2.2092194e+08 1.5760981e+07 3.1338945e+06 774349.75
00000000: af60 db42 7587 b43f cde8 1544 8578 0344
00000010: 10bf dd43 3e5c c036 4e07 4d49 dd8f 9249
00000020: ffaa ce49 3f09 8b4e 05b0 524d 557e 704b
00000030: 1a47 3f4a dc0c 3d49

BatchNormalization_0_param0 f4 [14]
-2.0292094 -3.8944006 25.90964 -1.2400954 -0.053413942 13.0409975 -1.7655609 2.0752835
2.07697 14.263324 -0.2811136 3.21139 1.1577549 -1.8977928
00000000: 91de 01c0 dc3d 79c0 f146 cf41 72bb 9ebf
00000010: 94c8 5abd eda7 5041 e6fd e1bf 72d1 0440
00000020: 14ed 0440 9336 6441 1fee 8fbe 6a87 4d40
00000030: 5031 943f e0ea f2bf

BatchNormalization_1_param1 f4 [12]
0.9936543 0.85197884 0.56411344 -1.1498753 0.517355 -4.3282814 -9.141922 2.189716
0.2725481 1.9213047 1.0585845 -2.910842
00000000: 2160 7e3f 491b 5a3f bd69 103f 1d2f 93bf
00000010: 6171 043f 4881 8ac0 5045 12c1 4f24 0c40
00000020: 6d8b 8b3e 50ed f53f b27f 873f 3c4b 3ac0

BatchNormalization_1_param2 f4 [12]
581.69086 175.183 247.2808 267.2527 301.09216 23.40759 885.3388 197.8467
589.10004 183.1905 223.45619 30.873158
00000000: 376c 1144 d92e 2f43 e347 7743 58a0 8543
00000010: cc8b 9643 bf42 bb41 af55 5d44 c1d8 4543
00000020: 6746 1344 c530 3743 c974 5f43 3afc f641

BatchNormalization_1_param3 f4 [12]
928781.7 107218.31 222019.56 250976.66 320710.56 27261.959 1.8608645e+06 155962.25
936780.6 129009.69 183544.2 38808.562
00000000: dbc0 6249 2869 d147 e4d0 5848 2a18 7548
00000010: d298 9c48 ebfb d446 0428 e349 904e 1848
00000020: cab4 6449 d8f8 fb47 0d3e 3348 9098 1747

BatchNormalization_1_param0 f4 [12]
6.0246577 9.134307 5.7693233 -9.091375 8.426643 5.555008 9.1254225 10.088935
11.482741 9.26394 9.578772 3.1450572
00000000: ffc9 c040 1f26 1241 4c9e b840 4676 11c1
00000010: 88d3 0641 a0c2 b140 bb01 1241 476c 2141
00000020: 4fb9 3741 1939 1441 a642 1941 9e48 4940

BatchNormalization_2_param1 f4 [5]
4.4098945 -8.483347 5.205659 -20.31459 10.841016
00000000: db1d 8d40 cabb 07c1 c294 a640 4884 a2c1
00000010: cd74 2d41

BatchNormalization_2_param2 f4 [5]
130.4318 27.781567 487.94275 249.87357 268.11743
00000000: 8a6e 0243 a640 de41 acf8 f343 a2df 7943
00000010: 080f 8643

BatchNormalization_2_param3 f4 [5]
16834.553 4269.794 173837.34 68955.05 90083.8
00000000: 1b85 8346 5a6e 8545 56c3 2948 86ad 8647
00000010: e6f1 af47

BatchNormalization_2_param0 f4 [5]
-9.774308 -18.71908 10.491198 19.06741 12.763675
00000000: 9163 1cc1 adc0 95c1 f2db 2741 0e8a 9841
00000010: 0338 4c41

BatchNormalization_3_param1 f4 [3]
3.3197198 2.9825757 -3.1698875
00000000: 4a76 5440 85e2 3e40 70df 4ac0

BatchNormalization_3_param2 f4 [3]
253.6345 374.55392 12.578052
00000000: 6fa2 7d43 e746 bb43 b33f 4941

BatchNormalization_3_param3 f4 [3]
24384.469 20756.566 1354.3671
00000000: f080 be46 2229 a246 bf4b a944

BatchNormalization_3_param0 f4 [3]
5.010605 5.687922 6.2690496
00000000: e056 a040 7503 b640 0e9c c840

MatMul_0_param0 f4 [14, 12]
-10.0 2.0 -2.0 -8.0 -12.0 -1.0 -7.0 -8.0
-6.0 -16.0 -9.0 3.0 -18.0 -3.0 6.0 20.0
32.0 -12.0 -13.0 11.0 -1.0 11.0 16.0 -10.0
12.0 -0.0 2.0 -126.0 -126.0 0.0 -6.0 -126.0
7.0 -126.0 -127.0 -0.0 -2.0 -0.0 4.0 9.0
9.0 6.0 1.0 5.0 1.0 4.0 5.0 2.0
11.0 -22.0 21.0 4.0 -11.0 17.0 -30.0 26.0
-19.0 28.0 16.0 8.0 -44.0 9.0 -125.0 0.0
-4.0 18.0 -16.0 6.0 -100.0 6.0 4.0 18.0
50.0 -6.0 -11.0 2.0 3.0 -8.0 -1.0 0.0
-8.0 4.0 2.0 -9.0 -54.0 7.0 6.0 -1.0
-6.0 8.0 -3.0 -1.0 3.0 -6.0 -2.0 12.0
-22.0 4.0 21.0 -4.0 -6.0 8.0 22.0 -1.0
26.0 1.0 -2.0 10.0 -123.0 15.0 -43.0 15.0
19.0 20.0 -126.0 12.0 -88.0 15.0 16.0 19.0
3.0 -1.0 -3.0 -1.0 4.0 -2.0 -2.0 -1.0
1.0 1.0 2.0 1.0 -59.0 12.0 -26.0 -8.0
-14.0 16.0 -10.0 -9.0 -25.0 -4.0 -11.0 15.0
-34.0 2.0 19.0 -4.0 -2.0 6.0 7.0 -5.0
31.0 -0.0 3.0 0.0 29.0 -9.0 10.0 5.0
10.0 -12.0 5.0 2.0 12.0 -1.0 3.0 -9.0
00000000: 0000 20c1 0000 0040 0000 00c0 0000 00c1
00000010: 0000 40c1 0000 80bf 0000 e0c0 0000 00c1
00000020: 0000 c0c0 0000 80c1 0000 10c1 0000 4040
00000030: 0000 90c1 0000 40c0 0000 c040 0000 a041
00000040: 0000 0042 0000 40c1 0000 50c1 0000 3041
00000050: 0000 80bf 0000 3041 0000 8041 0000 20c1
00000060: 0000 4041 0000 0080 0000 0040 0000 fcc2
00000070: 0000 fcc2 0000 0000 0000 c0c0 0000 fcc2
00000080: 0000 e040 0000 fcc2 0000 fec2 0000 0080
00000090: 0000 00c0 0000 0080 0000 8040 0000 1041
000000a0: 0000 1041 0000 c040 0000 803f 0000 a040
000000b0: 0000 803f 0000 8040 0000 a040 0000 0040
000000c0: 0000 3041 0000 b0c1 0000 a841 0000 8040
000000d0: 0000 30c1 0000 8841 0000 f0c1 0000 d041
000000e0: 0000 98c1 0000 e041 0000 8041 0000 0041
000000f0: 0000 30c2 0000 1041 0000 fac2 0000 0000
00000100: 0000 80c0 0000 9041 0000 80c1 0000 c040
00000110: 0000 c8c2 0000 c040 0000 8040 0000 9041
00000120: 0000 4842 0000 c0c0 0000 30c1 0000 0040
00000130: 0000 4040 0000 00c1 0000 80bf 0000 0000
00000140: 0000 00c1 0000 8040 0000 0040 0000 10c1
00000150: 0000 58c2 0000 e040 0000 c040 0000 80bf
00000160: 0000 c0c0 0000 0041 0000 40c0 0000 80bf
00000170: 0000 4040 0000 c0c0 0000 00c0 0000 4041
00000180: 0000 b0c1 0000 8040 0000 a841 0000 80c0
00000190: 0000 c0c0 0000 0041 0000 b041 0000 80bf
000001a0: 0000 d041 0000 803f 0000 00c0 0000 2041
000001b0: 0000 f6c2 0000 7041 0000 2cc2 0000 7041
000001c0: 0000 9841 0000 a041 0000 fcc2 0000 4041
000001d0: 0000 b0c2 0000 7041 0000 8041 0000 9841
000001e0: 0000 4040 0000 80bf 0000 40c0 0000 80bf
000001f0: 0000 8040 0000 00c0 0000 00c0 0000 80bf
00000200: 0000 803f 0000 803f 0000 0040 0000 803f
00000210: 0000 6cc2 0000 4041 0000 d0c1 0000 00c1
00000220: 0000 60c1 0000 8041 0000 20c1 0000 10c1
00000230: 0000 c8c1 0000 80c0 0000 30c1 0000 7041
00000240: 0000 08c2 0000 0040 0000 9841 0000 80c0
00000250: 0000 00c0 0000 c040 0000 e040 0000 a0c0
00000260: 0000 f841 0000 0080 0000 4040 0000 0000
00000270: 0000 e841 0000 10c1 0000 2041 0000 a040
00000280: 0000 2041 0000 40c1 0000 a040 0000 0040
00000290: 0000 4041 0000 80bf 0000 4040 0000 10c1

Add_0_param0 f4 [12]
-0.97047424 167.09369 -55.205853 -43.64299 -4.590852 -62.66759 200.86101 -86.00654
75.04262 -74.36091 -60.546654 -64.65162
00000000: 0071 78bf fc17 2743 cbd2 5cc2 6c92 2ec2
00000010: 42e8 92c0 9dab 7ac2 6bdc 4843 5903 acc2
00000020: d215 9642 c9b8 94c2 c62f 72c2 a14d 81c2

MultiThreshold_0_param0 f4 [12, 255]
2.7761161 8.328348 13.880581 19.432812 24.985044 30.537277 36.089508 41.641743
47.193974 52.746204 58.29844 63.85067 69.4029 74.95513 80.50737 86.0596
91.61183 97.16406 102.71629 108.26853 113.82076 119.37299 124.925224 130.47746
136.0297 141.58192 147.13416 152.6864 158.23863 163.79086 169.3431 174.89532
180.44756 185.99979 191.55202 197.10425 202.65648 208.20871 213.76096 219.31319
224.86542 230.41765 235.96988 241.52211 247.07434 252.62657 258.1788 263.73105
269.28326 274.8355 280.38773 285.93997 291.4922 297.04443 302.59668 308.1489
313.70114 319.25336 324.8056 330.35782 335.91006 341.46228 347.01453 352.56674
358.119 363.67123 369.22345 374.7757 380.3279 385.88016 391.43237 396.98462
402.53683 408.08908 413.6413 419.19354 424.7458 430.298 435.85025 441.40247
446.9547 452.50693 458.05917 463.6114 469.16364 474.71585 480.2681 485.82034
491.37256 496.9248 502.47702 508.02927 513.5815 519.1337 524.686 530.23816
535.7904 541.34265 546.8949 552.44714 557.9993 563.5516 569.1038 574.65607
580.20825 585.7605 591.31274 596.865 602.41724 607.9694 613.52167 619.0739
624.62616 630.17834 635.7306 641.28284 646.8351 652.38727 657.9395 663.49176
669.044 674.59625 680.14844 685.7007 691.2529 696.8052 702.35736 707.9096
713.46185 719.0141 724.56635 730.1185 735.6708 741.223 746.77527 752.32745
757.8797 763.43195 768.9842 774.53644 780.0886 785.64087 791.1931 796.74536
802.29755 807.8498 813.40204 818.9543 824.5065 830.0587 835.61096 841.1632
846.71545 852.26764 857.8199 863.37213 868.9244 874.47656 880.0288 885.58105
891.1333 896.68555 902.23773 907.79 913.3422 918.8945 924.44666 929.9989
935.55115 941.1034 946.6556 952.2078 957.7601 963.3123 968.86456 974.41675
979.969 985.52124 991.0735 996.6257 1002.1779 1007.73016 1013.2824 1018.83466
1024.3868 1029.9391 1035.4913 1041.0436 1046.5958 1052.1481 1057.7002 1063.2524
1068.8047 1074.3569 1079.9092 1085.4614 1091.0137 1096.5659 1102.1182 1107.6703
1113.2225 1118.7748 1124.327 1129.8793 1135.4315 1140.9838 1146.536 1152.0883
1157.6404 1163.1926 1168.7449 1174.2971 1179.8494 1185.4016 1190.9539 1196.5061
1202.0583 1207.6105 1213.1627 1218.715 1224.2672 1229.8195 1235.3717 1240.924
1246.4762 1252.0284 1257.5806 1263.1328 1268.685 1274.2373 1279.7896 1285.3418
1290.894 1296.4463 1301.9984 1307.5507 1313.1029 1318.6552 1324.2074 1329.7596
1335.3119 1340.8641 1346.4164 1351.9685 1357.5208 1363.073 1368.6252 1374.1775
1379.7297 1385.282 1390.8342 1396.3865 1401.9386 1407.4908 1413.0431 2.7761161
00000000: e3ab 3140 ea40 0541 dc16 5e41 6676 9b41
00000010: 5fe1 c741 584c f441 a85b 1042 2591 2642
00000020: a1c6 3c42 1dfc 5242 9a31 6942 1667 7f42
00000030: 49ce 8a42 07e9 9542 c603 a142 841e ac42
00000040: 4239 b742 0054 c242 be6e cd42 7d89 d842
00000050: 3ba4 e342 f9be ee42 b7d9 f942 3b7a 0243
00000060: 9a07 0843 f994 0d43 5822 1343 b8af 1843
00000070: 173d 1e43 76ca 2343 d557 2943 34e5 2e43
00000080: 9372 3443 f2ff 3943 518d 3f43 b01a 4543
00000090: 0fa8 4a43 6e35 5043 cec2 5543 2d50 5b43
000000a0: 8cdd 6043 eb6a 6643 4af8 6b43 a985 7143
000000b0: 0813 7743 67a0 7c43 e316 8143 93dd 8343
000000c0: 42a4 8643 f26a 8943 a131 8c43 51f8 8e43
000000d0: 00bf 9143 b085 9443 604c 9743 0f13 9a43
000000e0: bfd9 9c43 6ea0 9f43 1e67 a243 cd2d a543
000000f0: 7df4 a743 2cbb aa43 dc81 ad43 8b48 b043
00000100: 3b0f b343 ebd5 b543 9a9c b843 4a63 bb43
00000110: f929 be43 a9f0 c043 58b7 c343 087e c643
00000120: b744 c943 670b cc43 16d2 ce43 c698 d143
00000130: 765f d443 2526 d743 d5ec d943 84b3 dc43
00000140: 347a df43 e340 e243 9307 e543 42ce e743
00000150: f294 ea43 a15b ed43 5122 f043 01e9 f243
00000160: b0af f543 6076 f843 0f3d fb43 bf03 fe43
00000170: 3765 0044 8fc8 0144 e72b 0344 3e8f 0444
00000180: 96f2 0544 ee55 0744 46b9 0844 9e1c 0a44
00000190: f57f 0b44 4de3 0c44 a546 0e44 fda9 0f44
000001a0: 540d 1144 ac70 1244 04d4 1344 5c37 1544
000001b0: b49a 1644 0bfe 1744 6361 1944 bbc4 1a44
000001c0: 1328 1c44 6a8b 1d44 c2ee 1e44 1a52 2044
000001d0: 72b5 2144 c918 2344 217c 2444 79df 2544
000001e0: d142 2744 29a6 2844 8009 2a44 d86c 2b44
000001f0: 30d0 2c44 8833 2e44 df96 2f44 37fa 3044
00000200: 8f5d 3244 e7c0 3344 3f24 3544 9687 3644
00000210: eeea 3744 464e 3944 9eb1 3a44 f514 3c44
00000220: 4d78 3d44 a5db 3e44 fd3e 4044 55a2 4144
00000230: ac05 4344 0469 4444 5ccc 4544 b42f 4744
00000240: 0b93 4844 63f6 4944 bb59 4b44 13bd 4c44
00000250: 6a20 4e44 c283 4f44 1ae7 5044 724a 5244
00000260: caad 5344 2111 5544 7974 5644 d1d7 5744
00000270: 293b 5944 809e 5a44 d801 5c44 3065 5d44
00000280: 88c8 5e44 e02b 6044 378f 6144 8ff2 6244
00000290: e755 6444 3fb9 6544 961c 6744 ee7f 6844
000002a0: 46e3 6944 9e46 6b44 f5a9 6c44 4d0d 6e44
000002b0: a570 6f44 fdd3 7044 5537 7244 ac9a 7344
000002c0: 04fe 7444 5c61 7644 b4c4 7744 0b28 7944
000002d0: 638b 7a44 bbee 7b44 1352 7d44 6bb5 7e44
000002e0: 610c 8044 0dbe 8044 b96f 8144 6521 8244
000002f0: 11d3 8244 bd84 8344 6836 8444 14e8 8444
00000300: c099 8544 6c4b 8644 18fd 8644 c4ae 8744
00000310: 7060 8844 1c12 8944 c8c3 8944 7375 8a44
00000320: 1f27 8b44 cbd8 8b44 778a 8c44 233c 8d44
00000330: cfed 8d44 7b9f 8e44 2751 8f44 d302 9044
00000340: 7eb4 9044 2a66 9144 d617 9244 82c9 9244
00000350: 2e7b 9344 da2c 9444 86de 9444 3290 9544
00000360: de41 9644 89f3 9644 35a5 9744 e156 9844
00000370: 8d08 9944 39ba 9944 e56b 9a44 911d 9b44
00000380: 3dcf 9b44 e980 9c44 9432 9d44 40e4 9d44
00000390: ec95 9e44 9847 9f44 44f9 9f44 f0aa a044
000003a0: 9c5c a144 480e a244 f3bf a244 9f71 a344
000003b0: 4b23 a444 f7d4 a444 a386 a544 4f38 a644
000003c0: fbe9 a644 a79b a744 534d a844 fefe a844
000003d0: aab0 a944 5662 aa44 0214 ab44 aec5 ab44
000003e0: 5a77 ac44 0629 ad44 b2da ad44 5e8c ae44
000003f0: 093e af44 b5ef af44 61a1 b044 e3ab 3140

MatMul_1_param0 f4 [12, 5]
-1.0 -10.0 12.0 -24.0 1.0 -126.0 5.0 -83.0
14.0 -28.0 -5.0 2.0 13.0 -16.0 -12.0 -6.0
7.0 -27.0 52.0 -14.0 6.0 -6.0 26.0 -51.0
10.0 8.0 1.0 -127.0 1.0 27.0 -3.0 126.0
-18.0 -14.0 -22.0 7.0 -6.0 32.0 -53.0 21.0
-18.0 -4.0 -121.0 -11.0 58.0 7.0 -5.0 31.0
-50.0 21.0 7.0 -5.0 31.0 -51.0 16.0 28.0
24.0 20.0 1.0 -91.0
00000000: 0000 80bf 0000 20c1 0000 4041 0000 c0c1
00000010: 0000 803f 0000 fcc2 0000 a040 0000 a6c2
00000020: 0000 6041 0000 e0c1 0000 a0c0 0000 0040
00000030: 0000 5041 0000 80c1 0000 40c1 0000 c0c0
00000040: 0000 e040 0000 d8c1 0000 5042 0000 60c1
00000050: 0000 c040 0000 c0c0 0000 d041 0000 4cc2
00000060: 0000 2041 0000 0041 0000 803f 0000 fec2
00000070: 0000 803f 0000 d841 0000 40c0 0000 fc42
00000080: 0000 90c1 0000 60c1 0000 b0c1 0000 e040
00000090: 0000 c0c0 0000 0042 0000 54c2 0000 a841
000000a0: 0000 90c1 0000 80c0 0000 f2c2 0000 30c1
000000b0: 0000 6842 0000 e040 0000 a0c0 0000 f841
000000c0: 0000 48c2 0000 a841 0000 e040 0000 a0c0
000000d0: 0000 f841 0000 4cc2 0000 8041 0000 e041
000000e0: 0000 c041 0000 a041 0000 803f 0000 b6c2

Add_1_param0 f4 [5]
37.543755 -207.70735 145.84557 181.96269 106.10643
00000000: ce2c 1642 15b5 4fc3 77d8 1143 73f6 3543
00000010: 7e36 d442

MultiThreshold_1_param0 f4 [5, 255]
2.0937986 6.281396 10.468993 14.65659 18.844189 23.031784 27.219383 31.406979
35.594578 39.782177 43.969772 48.157368 52.344967 56.532566 60.72016 64.90775
69.09535 73.28295 77.47055 81.65814 85.84574 90.03334 94.22093 98.40853
102.59613 106.78373 110.97133 115.15892 119.34652 123.53412 127.72171 131.90932
136.09691 140.2845 144.4721 148.6597 152.8473 157.0349 161.22249 165.4101
169.59769 173.78528 177.97289 182.16048 186.34807 190.53568 194.72327 198.91087
203.09846 207.28606 211.47366 215.66125 219.84886 224.03645 228.22404 232.41165
236.59924 240.78683 244.97444 249.16203 253.34962 257.53723 261.72485 265.91245
270.10004 274.28763 278.47522 282.66284 286.85043 291.03802 295.22562 299.4132
303.60083 307.78842 311.976 316.1636 320.3512 324.5388 328.7264 332.914
337.1016 341.28918 345.47678 349.6644 353.852 358.03958 362.22717 366.41476
370.60236 374.78998 378.97757 383.16516 387.35275 391.54034 395.72797 399.91556
404.10315 408.29074 412.47833 416.66595 420.85355 425.04114 429.22873 433.41632
437.60394 441.79153 445.97913 450.16672 454.3543 458.5419 462.72952 466.9171
471.1047 475.2923 479.4799 483.6675 487.8551 492.0427 496.2303 500.41788
504.60547 508.7931 512.98065 517.1683 521.3559 525.54346 529.7311 533.91864
538.10626 542.2939 546.48145 550.66907 554.8566 559.04425 563.2319 567.41943
571.60706 575.7946 579.98224 584.16986 588.3574 592.54504 596.7326 600.9202
605.10785 609.2954 613.48303 617.6706 621.8582 626.0458 630.2334 634.421
638.6086 642.7962 646.98376 651.1714 655.359 659.5466 663.7342 667.92175
672.1094 676.297 680.48456 684.6722 688.85974 693.04736 697.235 701.42255
705.61017 709.7977 713.98535 718.173 722.36053 726.54816 730.7357 734.92334
739.1109 743.2985 747.48615 751.6737 755.8613 760.0489 764.2365 768.42413
772.6117 776.7993 780.9869 785.1745 789.3621 793.5497 797.7373 801.92487
806.1125 810.3001 814.4877 818.6753 822.86285 827.0505 831.2381 835.42566
839.6133 843.80084 847.98846 852.1761 856.36365 860.5513 864.73883 868.92645
873.1141 877.30164 881.48926 885.6768 889.86444 894.052 898.2396 902.42725
906.6148 910.8024 914.99 919.1776 923.36523 927.5528 931.7404 935.928
940.1156 944.3032 948.4908 952.6784 956.86597 961.0536 965.2412 969.4288
973.6164 977.80396 981.9916 986.1792 990.36676 994.5544 998.74194 1002.92957
1007.1171 1011.30475 1015.4924 1019.67993 1023.86755 1028.055 1032.2427 1036.4303
1040.6179 1044.8054 1048.993 1053.1807 1057.3683 1061.5559 1065.7434 2.0937986
00000000: cc00 0640 3201 c940 ff80 2741 6581 6a41
00000010: e6c0 9641 1841 b841 4cc1 d941 7e41 fb41
00000020: d960 0e42 f320 1f42 0ce1 2f42 25a1 4042
00000030: 3f61 5142 5921 6242 72e1 7242 c5d0 8142
00000040: d230 8a42 df90 9242 ecf0 9a42 f850 a342
00000050: 05b1 ab42 1211 b442 1e71 bc42 2bd1 c442
00000060: 3831 cd42 4591 d542 52f1 dd42 5e51 e642
00000070: 6bb1 ee42 7811 f742 8471 ff42 c9e8 0343
00000080: cf18 0843 d548 0c43 dc78 1043 e2a8 1443
00000090: e9d8 1843 ef08 1d43 f538 2143 fc68 2543
000000a0: 0299 2943 08c9 2d43 0ff9 3143 1529 3643
000000b0: 1b59 3a43 2289 3e43 28b9 4243 2fe9 4643
000000c0: 3519 4b43 3b49 4f43 4279 5343 48a9 5743
000000d0: 4fd9 5b43 5509 6043 5b39 6443 6269 6843
000000e0: 6899 6c43 6ec9 7043 75f9 7443 7b29 7943
000000f0: 8159 7d43 c4c4 8043 c8dc 8243 cbf4 8443
00000100: ce0c 8743 d124 8943 d43c 8b43 d854 8d43
00000110: db6c 8f43 de84 9143 e19c 9343 e4b4 9543
00000120: e8cc 9743 ebe4 9943 eefc 9b43 f114 9e43
00000130: f42c a043 f744 a243 fb5c a443 fe74 a643
00000140: 018d a843 04a5 aa43 07bd ac43 0bd5 ae43
00000150: 0eed b043 1105 b343 141d b543 1735 b743
00000160: 1a4d b943 1e65 bb43 217d bd43 2495 bf43
00000170: 27ad c143 2ac5 c343 2edd c543 31f5 c743
00000180: 340d ca43 3725 cc43 3a3d ce43 3e55 d043
00000190: 416d d243 4485 d443 479d d643 4ab5 d843
000001a0: 4ecd da43 51e5 dc43 54fd de43 5715 e143
000001b0: 5a2d e343 5d45 e543 615d e743 6475 e943
000001c0: 678d eb43 6aa5 ed43 6dbd ef43 71d5 f143
000001d0: 74ed f343 7705 f643 7a1d f843 7d35 fa43
000001e0: 804d fc43 8465 fe43 c33e 0044 c54a 0144
000001f0: c756 0244 c862 0344 ca6e 0444 cb7a 0544
00000200: cd86 0644 cf92 0744 d09e 0844 d2aa 0944
00000210: d3b6 0a44 d5c2 0b44 d7ce 0c44 d8da 0d44
00000220: dae6 0e44 dbf2 0f44 ddfe 1044 df0a 1244
00000230: e016 1344 e222 1444 e32e 1544 e53a 1644
00000240: e746 1744 e852 1844 ea5e 1944 eb6a 1a44
00000250: ed76 1b44 ee82 1c44 f08e 1d44 f29a 1e44
00000260: f3a6 1f44 f5b2 2044 f6be 2144 f8ca 2244
00000270: fad6 2344 fbe2 2444 fdee 2544 fefa 2644
00000280: 0007 2844 0213 2944 031f 2a44 052b 2b44
00000290: 0637 2c44 0843 2d44 0a4f 2e44 0b5b 2f44
000002a0: 0d67 3044 0e73 3144 107f 3244 128b 3344
000002b0: 1397 3444 15a3 3544 16af 3644 18bb 3744
000002c0: 19c7 3844 1bd3 3944 1ddf 3a44 1eeb 3b44
000002d0: 20f7 3c44 2103 3e44 230f 3f44 251b 4044
000002e0: 2627 4144 2833 4244 293f 4344 2b4b 4444
000002f0: 2d57 4544 2e63 4644 306f 4744 317b 4844
00000300: 3387 4944 3593 4a44 369f 4b44 38ab 4c44
00000310: 39b7 4d44 3bc3 4e44 3dcf 4f44 3edb 5044
00000320: 40e7 5144 41f3 5244 43ff 5344 450b 5544
00000330: 4617 5644 4823 5744 492f 5844 4b3b 5944
00000340: 4d47 5a44 4e53 5b44 505f 5c44 516b 5d44
00000350: 5377 5e44 5483 5f44 568f 6044 589b 6144
00000360: 59a7 6244 5bb3 6344 5cbf 6444 5ecb 6544
00000370: 60d7 6644 61e3 6744 63ef 6844 64fb 6944
00000380: 6607 6b44 6813 6c44 691f 6d44 6b2b 6e44
00000390: 6c37 6f44 6e43 7044 704f 7144 715b 7244
000003a0: 7367 7344 7473 7444 767f 7544 788b 7644
000003b0: 7997 7744 7ba3 7844 7caf 7944 7ebb 7a44
000003c0: 7fc7 7b44 81d3 7c44 83df 7d44 84eb 7e44
000003d0: 86f7 7f44 c381 8044 c407 8144 c58d 8144
000003e0: c613 8244 c699 8244 c71f 8344 c8a5 8344
000003f0: c92b 8444 cab1 8444 ca37 8544 cc00 0640

MatMul_2_param0 f4 [5, 3]
42.0 94.0 -32.0 -21.0 -37.0 1.0 74.0 127.0
18.0 -1.0 -17.0 66.0 53.0 62.0 37.0
00000000: 0000 2842 0000 bc42 0000 00c2 0000 a8c1
00000010: 0000 14c2 0000 803f 0000 9442 0000 fe42
00000020: 0000 9041 0000 80bf 0000 88c1 0000 8442
00000030: 0000 5442 0000 7842 0000 1442

Add_2_param0 f4 [3]
-22.923525 216.30759 -55.816174
00000000: 6163 b7c1 be4e 5843 c343 5fc2

MultiThreshold_2_param0 f4 [3, 255]
0.95091367 2.852741 4.754568 6.656396 8.558223 10.46005 12.361877 14.263705
16.165533 18.06736 19.969187 21.871016 23.772842 25.67467 27.576498 29.478325
31.380152 33.28198 35.183804 37.085632 38.987457 40.889286 42.791115 44.69294
46.59477 48.496597 50.398422 52.30025 54.20208 56.103905 58.005733 59.90756
61.809387 63.711216 65.613045 67.51487 69.416695 71.31853 73.22035 75.12218
77.024 78.925835 80.82766 82.729485 84.63132 86.53314 88.43497 90.3368
92.238625 94.14045 96.04228 97.94411 99.84593 101.747765 103.64959 105.551414
107.45325 109.35507 111.2569 113.15872 115.060555 116.96238 118.864204 120.76604
122.66786 124.56969 126.47152 128.37335 130.27518 132.177 134.07883 135.98065
137.88248 139.7843 141.68614 143.58797 145.48979 147.39162 149.29344 151.19527
153.09709 154.99893 156.90076 158.80258 160.7044 162.60623 164.50806 166.4099
168.31172 170.21355 172.11537 174.0172 175.91902 177.82086 179.72269 181.62451
183.52634 185.42816 187.32999 189.23181 191.13365 193.03548 194.9373 196.83913
198.74095 200.64278 202.54462 204.44644 206.34827 208.25009 210.15192 212.05374
213.95558 215.8574 217.75923 219.66106 221.56288 223.4647 225.36653 227.26837
229.1702 231.07202 232.97385 234.87567 236.7775 238.67934 240.58116 242.48299
244.38481 246.28664 248.18846 250.09029 251.99213 253.89395 255.79578 257.69763
259.59946 261.50128 263.4031 265.30493 267.20676 269.10858 271.0104 272.91223
274.81406 276.71588 278.6177 280.51953 282.4214 284.3232 286.22504 288.12686
290.0287 291.9305 293.83234 295.73416 297.636 299.5378 301.43964 303.34146
305.2433 307.14514 309.04697 310.9488 312.85062 314.75244 316.65427 318.5561
320.45792 322.35974 324.26157 326.1634 328.06522 329.96707 331.8689 333.77072
335.67255 337.57437 339.4762 341.37802 343.27985 345.18167 347.0835 348.98532
350.88715 352.78897 354.69083 356.59265 358.49448 360.3963 362.29813 364.19995
366.10178 368.0036 369.90543 371.80725 373.70908 375.6109 377.51273 379.41458
381.3164 383.21823 385.12006 387.02188 388.9237 390.82553 392.72736 394.62918
396.531 398.43283 400.33466 402.23648 404.13834 406.04016 407.942 409.8438
411.74564 413.64746 415.5493 417.4511 419.35294 421.25476 423.1566 425.0584
426.96027 428.8621 430.76392 432.66574 434.56757 436.4694 438.37122 440.27304
442.17487 444.0767 445.97852 447.88034 449.78217 451.68402 453.58585 455.48767
457.3895 459.29132 461.19315 463.09497 464.9968 466.89862 468.80045 470.70227
472.6041 474.50592 476.40778 478.3096 480.21143 482.11325 484.01508 0.95091367
00000000: 146f 733f 4f93 3640 6c25 9840 3201 d540
00000010: 7bee 0841 5d5c 2741 40ca 4541 2338 6441
00000020: 0353 8141 f489 9041 e5c0 9f41 d7f7 ae41
00000030: c82e be41 b965 cd41 ab9c dc41 9cd3 eb41
00000040: 8d0a fb41 bf20 0542 37bc 0c42 b057 1442
00000050: 28f3 1b42 a18e 2342 1a2a 2b42 92c5 3242
00000060: 0b61 3a42 84fc 4142 fc97 4942 7533 5142
00000070: eece 5842 666a 6042 df05 6842 57a1 6f42
00000080: d03c 7742 49d8 7e42 e139 8342 9d07 8742
00000090: 59d5 8a42 16a3 8e42 d270 9242 8e3e 9642
000000a0: 4a0c 9a42 07da 9d42 c3a7 a142 7f75 a542
000000b0: 3c43 a942 f810 ad42 b4de b042 71ac b442
000000c0: 2d7a b842 e947 bc42 a615 c042 62e3 c342
000000d0: 1eb1 c742 db7e cb42 974c cf42 531a d342
000000e0: 10e8 d642 ccb5 da42 8883 de42 4451 e242
000000f0: 011f e642 bdec e942 79ba ed42 3688 f142
00000100: f255 f542 ae23 f942 6bf1 fc42 945f 0043
00000110: 7246 0243 502d 0443 2e14 0643 0cfb 0743
00000120: eae1 0943 c8c8 0b43 a7af 0d43 8596 0f43
00000130: 637d 1143 4164 1343 1f4b 1543 fd31 1743
00000140: db18 1943 baff 1a43 98e6 1c43 76cd 1e43
00000150: 54b4 2043 329b 2243 1082 2443 ef68 2643
00000160: cd4f 2843 ab36 2a43 891d 2c43 6704 2e43
00000170: 45eb 2f43 24d2 3143 02b9 3343 e09f 3543
00000180: be86 3743 9c6d 3943 7a54 3b43 583b 3d43
00000190: 3722 3f43 1509 4143 f3ef 4243 d1d6 4443
000001a0: afbd 4643 8da4 4843 6c8b 4a43 4a72 4c43
000001b0: 2859 4e43 0640 5043 e426 5243 c20d 5443
000001c0: a1f4 5543 7fdb 5743 5dc2 5943 3ba9 5b43
000001d0: 1990 5d43 f776 5f43 d55d 6143 b444 6343
000001e0: 922b 6543 7012 6743 4ef9 6843 2ce0 6a43
000001f0: 0ac7 6c43 e9ad 6e43 c794 7043 a57b 7243
00000200: 8362 7443 6149 7643 3f30 7843 1d17 7a43
00000210: fcfd 7b43 dae4 7d43 b8cb 7f43 4cd9 8043
00000220: bbcc 8143 2ac0 8243 99b3 8343 08a7 8443
00000230: 779a 8543 e68d 8643 5581 8743 c474 8843
00000240: 3368 8943 a25b 8a43 114f 8b43 8042 8c43
00000250: f035 8d43 5f29 8e43 ce1c 8f43 3d10 9043
00000260: ac03 9143 1bf7 9143 8aea 9243 f9dd 9343
00000270: 68d1 9443 d7c4 9543 46b8 9643 b5ab 9743
00000280: 249f 9843 9492 9943 0386 9a43 7279 9b43
00000290: e16c 9c43 5060 9d43 bf53 9e43 2e47 9f43
000002a0: 9d3a a043 0c2e a143 7b21 a243 ea14 a343
000002b0: 5908 a443 c9fb a443 38ef a543 a7e2 a643
000002c0: 16d6 a743 85c9 a843 f4bc a943 63b0 aa43
000002d0: d2a3 ab43 4197 ac43 b08a ad43 1f7e ae43
000002e0: 8e71 af43 fd64 b043 6d58 b143 dc4b b243
000002f0: 4b3f b343 ba32 b443 2926 b543 9819 b643
00000300: 070d b743 7600 b843 e5f3 b843 54e7 b943
00000310: c3da ba43 32ce bb43 a1c1 bc43 11b5 bd43
00000320: 80a8 be43 ef9b bf43 5e8f c043 cd82 c143
00000330: 3c76 c243 ab69 c343 1a5d c443 8950 c543
00000340: f843 c643 6737 c743 d62a c843 451e c943
00000350: b511 ca43 2405 cb43 93f8 cb43 02ec cc43
00000360: 71df cd43 e0d2 ce43 4fc6 cf43 beb9 d043
00000370: 2dad d143 9ca0 d243 0b94 d343 7a87 d443
00000380: ea7a d543 596e d643 c861 d743 3755 d843
00000390: a648 d943 153c da43 842f db43 f322 dc43
000003a0: 6216 dd43 d109 de43 40fd de43 aff0 df43
000003b0: 1ee4 e043 8ed7 e143 fdca e243 6cbe e343
000003c0: dbb1 e443 4aa5 e543 b998 e643 288c e743
000003d0: 977f e843 0673 e943 7566 ea43 e459 eb43
000003e0: 534d ec43 c240 ed43 3234 ee43 a127 ef43
000003f0: 101b f043 7f0e f143 ee01 f243 146f 733f

MatMul_3_param0 f4 [3, 1]
-54.0 -95.0 127.0
00000000: 0000 58c2 0000 bec2 0000 fe42

MultiThreshold_3_param0 f4 [1, 255]
0.5844152 1.7532456 2.922076 4.090906 5.259737 6.428567 7.597398 8.766228
9.935059 11.103889 12.272719 13.441549 14.61038 15.779211 16.94804 18.11687
19.285702 20.454533 21.623363 22.792192 23.961023 25.129854 26.298683 27.467514
28.636345 29.805176 30.974007 32.142834 33.311665 34.480495 35.649326 36.818157
37.986988 39.15582 40.32465 41.49348 42.66231 43.83114 44.99997 46.1688
47.33763 48.506462 49.675293 50.844124 52.01295 53.18178 54.350613 55.519444
56.688274 57.857105 59.025936 60.194767 61.363598 62.532425 63.701256 64.87009
66.03891 67.20774 68.37657 69.5454 70.71423 71.883064 73.051895 74.220726
75.38956 76.55839 77.72722 78.89605 80.06488 81.23371 82.40254 83.57137
84.740204 85.90903 87.07786 88.24669 89.41552 90.58435 91.75318 92.92201
94.09084 95.259674 96.428505 97.597336 98.76617 99.935 101.10383 102.27266
103.44148 104.61031 105.779144 106.947975 108.116806 109.28564 110.45447 111.6233
112.79213 113.96096 115.12979 116.29862 117.46745 118.636284 119.805115 120.973946
122.14278 123.3116 124.48043 125.64926 126.81809 127.98692 129.15576 130.32458
131.49341 132.66225 133.83107 134.99991 136.16873 137.33757 138.5064 139.67523
140.84406 142.0129 143.18172 144.35056 145.51938 146.68822 147.85704 149.02588
150.1947 151.36353 152.53236 153.70119 154.87003 156.03885 157.20769 158.37651
159.54535 160.71417 161.88301 163.05183 164.22067 165.3895 166.55833 167.72716
168.896 170.06482 171.23364 172.40248 173.5713 174.74014 175.90897 177.0778
178.24663 179.41547 180.58429 181.75313 182.92195 184.09079 185.25961 186.42845
187.59727 188.7661 189.93494 191.10376 192.2726 193.44142 194.61026 195.77908
196.94792 198.11674 199.28558 200.4544 201.62325 202.79207 203.9609 205.12973
206.29855 207.46739 208.63622 209.80505 210.97388 212.14272 213.31154 214.48038
215.6492 216.81804 217.98686 219.1557 220.32452 221.49336 222.66219 223.83102
224.99985 226.16867 227.33751 228.50633 229.67517 230.844 232.01283 233.18166
234.3505 235.51932 236.68816 237.85698 239.02582 240.19464 241.36348 242.5323
243.70114 244.86996 246.03879 247.20763 248.37645 249.54529 250.71411 251.88295
253.05177 254.22061 255.38943 256.5583 257.7271 258.89594 260.06476 261.23358
262.4024 263.57126 264.74008 265.9089 267.07773 268.24658 269.4154 270.58423
271.75305 272.9219 274.09073 275.25955 276.42838 277.59723 278.76605 279.93488
281.1037 282.27252 283.44138 284.6102 285.77902 286.94785 288.1167 289.28552
290.45435 291.62317 292.79202 293.96085 295.12967 296.2985 297.46735
00000000: 3c9c 153f 5a6a e03f 4b03 3b40 b4e8 8240
00000010: c44f a840 d2b6 cd40 e21d f340 7842 0c41
00000020: 00f6 1e41 88a9 3141 0f5d 4441 9610 5741
00000030: 1ec4 6941 a677 7c41 9695 8741 5aef 9041
00000040: 1e49 9a41 e2a2 a341 a6fc ac41 6956 b641
00000050: 2db0 bf41 f109 c941 b463 d241 78bd db41
00000060: 3c17 e541 0071 ee41 c4ca f741 4392 0042
00000070: 253f 0542 07ec 0942 e998 0e42 cb45 1342
00000080: adf2 1742 8f9f 1c42 714c 2142 53f9 2542
00000090: 35a6 2a42 1653 2f42 f8ff 3342 daac 3842
000000a0: bc59 3d42 9e06 4242 80b3 4642 6260 4b42
000000b0: 430d 5042 25ba 5442 0767 5942 e913 5e42
000000c0: cbc0 6242 ad6d 6742 8f1a 6c42 71c7 7042
000000d0: 5374 7542 3421 7a42 16ce 7e42 7cbd 8142
000000e0: ec13 8442 5d6a 8642 cec0 8842 3f17 8b42
000000f0: b06d 8d42 21c4 8f42 921a 9242 0371 9442
00000100: 74c7 9642 e51d 9942 5674 9b42 c7ca 9d42
00000110: 3821 a042 a977 a242 1ace a442 8b24 a742
00000120: fc7a a942 6cd1 ab42 dd27 ae42 4e7e b042
00000130: bfd4 b242 302b b542 a181 b742 12d8 b942
00000140: 832e bc42 f484 be42 65db c042 d631 c342
00000150: 4788 c542 b8de c742 2935 ca42 9a8b cc42
00000160: 0ae2 ce42 7b38 d142 ec8e d342 5de5 d542
00000170: ce3b d842 3f92 da42 b0e8 dc42 213f df42
00000180: 9295 e142 03ec e342 7442 e642 e598 e842
00000190: 56ef ea42 c745 ed42 389c ef42 a9f2 f142
000001a0: 1a49 f442 8a9f f642 fbf5 f842 6c4c fb42
000001b0: dda2 fd42 4ef9 ff42 e027 0143 1853 0243
000001c0: 507e 0343 89a9 0443 c1d4 0543 faff 0643
000001d0: 322b 0843 6b56 0943 a381 0a43 dcac 0b43
000001e0: 14d8 0c43 4d03 0e43 852e 0f43 be59 1043
000001f0: f684 1143 2fb0 1243 67db 1343 a006 1543
00000200: d831 1643 105d 1743 4988 1843 81b3 1943
00000210: bade 1a43 f209 1c43 2b35 1d43 6360 1e43
00000220: 9c8b 1f43 d4b6 2043 0de2 2143 450d 2343
00000230: 7e38 2443 b663 2543 ef8e 2643 27ba 2743
00000240: 60e5 2843 9810 2a43 d03b 2b43 0967 2c43
00000250: 4192 2d43 7abd 2e43 b2e8 2f43 eb13 3143
00000260: 233f 3243 5c6a 3343 9495 3443 cdc0 3543
00000270: 05ec 3643 3e17 3843 7642 3943 af6d 3a43
00000280: e798 3b43 1fc4 3c43 58ef 3d43 901a 3f43
00000290: c945 4043 0171 4143 3a9c 4243 72c7 4343
000002a0: abf2 4443 e31d 4643 1c49 4743 5474 4843
000002b0: 8d9f 4943 c5ca 4a43 fef5 4b43 3621 4d43
000002c0: 6e4c 4e43 a777 4f43 dfa2 5043 18ce 5143
000002d0: 50f9 5243 8924 5443 c14f 5543 fa7a 5643
000002e0: 32a6 5743 6bd1 5843 a3fc 5943 dc27 5b43
000002f0: 1453 5c43 4d7e 5d43 85a9 5e43 bed4 5f43
00000300: f6ff 6043 2e2b 6243 6756 6343 9f81 6443
00000310: d8ac 6543 10d8 6643 4903 6843 812e 6943
00000320: ba59 6a43 f284 6b43 2bb0 6c43 63db 6d43
00000330: 9c06 6f43 d431 7043 0d5d 7143 4588 7243
00000340: 7eb3 7343 b6de 7443 ee09 7643 2735 7743
00000350: 5f60 7843 988b 7943 d0b6 7a43 09e2 7b43
00000360: 410d 7d43 7a38 7e43 b263 7f43 7647 8043
00000370: 12dd 8043 ae72 8143 4a08 8243 e69d 8243
00000380: 8233 8343 1fc9 8343 bb5e 8443 57f4 8443
00000390: f389 8543 901f 8643 2cb5 8643 c84a 8743
000003a0: 64e0 8743 0176 8843 9d0b 8943 39a1 8943
000003b0: d536 8a43 72cc 8a43 0e62 8b43 aaf7 8b43
000003c0: 468d 8c43 e222 8d43 7fb8 8d43 1b4e 8e43
000003d0: b7e3 8e43 5379 8f43 f00e 9043 8ca4 9043
000003e0: 283a 9143 c4cf 9143 6165 9243 fdfa 9243
000003f0: 9990 9343 3526 9443 d2bb 9443
