output_ipstitch_ooc_rtlsim/intermediate_models/dataflow_parent.onnx (onnx, 4897 bytes, 2 tensors)

Mul_0_param0 f4 [1, 14]
000000 00 00 80 3f 00 00 80 3f 00 00 80 bf 00 00 80 bf
       1.0 1.0 -1.0 -1.0
000010 00 00 80 3f 00 00 80 3f 00 00 80 3f 00 00 80 3f
       1.0 1.0 1.0 1.0
000020 00 00 80 3f 00 00 80 3f 00 00 80 3f 00 00 80 3f
       1.0 1.0 1.0 1.0
000030 00 00 80 3f 00 00 80 3f
       1.0 1.0

MultiThreshold_0_param0 f4 [14, 63]
000000 02 c6 04 c3 d4 5d ff c2 a6 2f f5 c2 76 01 eb c2
       -132.77347 -127.68326 -122.59306 -117.50285
000010 46 d3 e0 c2 17 a5 d6 c2 e8 76 cc c2 b9 48 c2 c2
       -112.41264 -107.32244 -102.23224 -97.14204
000020 89 1a b8 c2 59 ec ad c2 2b be a3 c2 fb 8f 99 c2
       -92.05183 -86.96162 -81.87142 -76.78121
000030 cc 61 8f c2 9c 33 85 c2 d9 0a 76 c2 79 ae 61 c2
       -71.69101 -66.6008 -61.510593 -56.420383
000040 1c 52 4d c2 bc f5 38 c2 5f 99 24 c2 fe 3c 10 c2
       -51.330185 -46.239975 -41.149776 -36.059563
000050 42 c1 f7 c1 82 08 cf c1 c3 4f a6 c1 11 2e 7b c1
       -30.969364 -25.879154 -20.788946 -15.698747
000060 92 bc 29 c1 25 96 b0 c0 b1 33 db be c3 2f 95 40
       -10.608538 -5.518328 -0.42812875 4.6620803
000070 61 09 1c 41 d6 7a 6d 41 2a 76 9f 41 e5 2e c8 41
       9.75229 14.842489 19.932697 25.022898
000080 a4 e7 f0 41 32 d0 0c 42 91 2c 21 42 ec 88 35 42
       30.113106 35.203316 40.29352 45.383713
000090 4c e5 49 42 ab 41 5e 42 0b 9e 72 42 35 7d 83 42
       50.473923 55.56413 60.65434 65.744545
0000a0 63 ab 8d 42 93 d9 97 42 c3 07 a2 42 f2 35 ac 42
       70.83474 75.92495 81.01516 86.10536
0000b0 22 64 b6 42 52 92 c0 42 80 c0 ca 42 af ee d4 42
       91.19557 96.28578 101.37598 106.46618
0000c0 df 1c df 42 0f 4b e9 42 3f 79 f3 42 6c a7 fd 42
       111.55639 116.6466 121.73681 126.826996
0000d0 ce ea 03 43 e6 01 09 43 fe 18 0e 43 16 30 13 43
       131.9172 137.00742 142.09763 147.18784
0000e0 2e 47 18 43 45 5e 1d 43 5d 75 22 43 75 8c 27 43
       152.27805 157.36824 162.45845 167.54866
0000f0 8d a3 2c 43 a5 ba 31 43 bc d1 36 43 bd cb e9 c2
       172.63887 177.72908 182.81927 -116.89793
000100 88 39 e1 c2 54 a7 d8 c2 1f 15 d0 c2 ea 82 c7 c2
       -112.612366 -108.32681 -104.04125 -99.75569
000110 b7 f0 be c2 82 5e b6 c2 4e cc ad c2 19 3a a5 c2
       -95.470146 -91.184586 -86.89903 -82.61347
000120 e4 a7 9c c2 b0 15 94 c2 7b 83 8b c2 47 f1 82 c2
       -78.32791 -74.04236 -69.7568 -65.471245
000130 25 be 74 c2 bb 99 63 c2 51 75 52 c2 ea 50 41 c2
       -61.185688 -56.900127 -52.614567 -48.329018
000140 80 2c 30 c2 18 08 1f c2 ae e3 0d c2 8d 7e f9 c1
       -44.043457 -39.757904 -35.472343 -31.186792
000150 ba 35 d7 c1 e6 ec b4 c1 17 a4 92 c1 86 b6 60 c1
       -26.901234 -22.615673 -18.330122 -14.044561
000160 df 24 1c c1 80 26 af c0 c4 0c 98 bf 3b 40 46 40
       -9.759002 -5.4734497 -1.1878896 3.0976703
000170 5b 43 ec 40 55 b3 3a 41 f4 44 7f 41 4d eb a1 41
       7.383222 11.668782 15.954334 20.239893
000180 21 34 c4 41 f5 7c e6 41 e0 62 04 42 4a 87 15 42
       24.525454 28.811014 33.096558 37.38212
000190 b4 ab 26 42 1d d0 37 42 87 f4 48 42 ed 18 5a 42
       41.66768 45.953236 50.238796 54.52434
0001a0 57 3d 6b 42 c0 61 7c 42 15 c3 86 42 4a 55 8f 42
       58.809902 63.09546 67.38102 71.66658
0001b0 7f e7 97 42 b2 79 a0 42 e7 0b a9 42 1c 9e b1 42
       75.95214 80.237686 84.52325 88.80881
0001c0 50 30 ba 42 85 c2 c2 42 b8 54 cb 42 ed e6 d3 42
       93.09436 97.37992 101.66547 105.95103
0001d0 22 79 dc 42 57 0b e5 42 8c 9d ed 42 c1 2f f6 42
       110.23659 114.52215 118.80771 123.09327
0001e0 f4 c1 fe 42 14 aa 03 43 2f f3 07 43 49 3c 0c 43
       127.378815 131.66437 135.94994 140.23549
0001f0 64 85 10 43 7d ce 14 43 06 1d 07 c4 32 d5 02 c4
       144.52106 148.8066 -540.4535 -523.3312
000200 bc 1a fd c3 14 8b f4 c3 6c fb eb c3 c5 6b e3 c3
       -506.20886 -489.08655 -471.96423 -454.84195
000210 1c dc da c3 75 4c d2 c3 cd bc c9 c3 24 2d c1 c3
       -437.7196 -420.59732 -403.475 -386.35266
000220 7d 9d b8 c3 d5 0d b0 c3 2e 7e a7 c3 85 ee 9e c3
       -369.23038 -352.10806 -334.98578 -317.86343
000230 dd 5e 96 c3 35 cf 8d c3 8e 3f 85 c3 cc 5f 79 c3
       -300.74112 -283.6188 -266.49652 -249.3742
000240 7d 40 68 c3 2d 21 57 c3 de 01 46 c3 8d e2 34 c3
       -232.2519 -215.1296 -198.0073 -180.88496
000250 3d c3 23 c3 ee a3 12 c3 9d 84 01 c3 99 ca e0 c2
       -163.76265 -146.64035 -129.51802 -112.3957
000260 fc 8b be c2 5b 4d 9c c2 75 1d 74 c2 3b a0 2f c2
       -95.27341 -78.151085 -61.028767 -43.906475
000270 f2 45 d6 c1 fc 96 1a c1 1b bc ee 40 8b a9 c4 41
       -26.784153 -9.661861 7.460462 24.582785
000280 08 d2 26 42 3a 4f 6b 42 3f e6 97 42 e0 24 ba 42
       41.70511 58.82737 75.9497 93.07202
000290 81 63 dc 42 22 a2 fe 42 5d 70 10 43 ad 8f 21 43
       110.19434 127.316666 144.43892 161.56123
0002a0 fe ae 32 43 4f ce 43 43 9f ed 54 43 f0 0c 66 43
       178.68356 195.8059 212.9282 230.05054
0002b0 3c 2c 77 43 c6 25 84 43 6f b5 8c 43 18 45 95 43
       247.17279 264.2951 281.41745 298.5398
0002c0 c0 d4 9d 43 66 64 a6 43 0e f4 ae 43 b7 83 b7 43
       315.6621 332.78436 349.90668 367.02902
0002d0 5f 13 c0 43 07 a3 c8 43 af 32 d1 43 56 c2 d9 43
       384.15134 401.27365 418.39597 435.51825
0002e0 fe 51 e2 43 a6 e1 ea 43 4f 71 f3 43 f7 00 fc 43
       452.64056 469.76288 486.88522 504.00754
0002f0 4f 48 02 44 14 5f 12 c6 96 bb 0d c6 19 18 09 c6
       521.1298 -9367.77 -9070.896 -8774.024
000300 9c 74 04 c6 3c a2 ff c5 42 5b f6 c5 47 14 ed c5
       -8477.152 -8180.2793 -7883.407 -7586.5347
000310 4d cd e3 c5 51 86 da c5 56 3f d1 c5 5c f8 c7 c5
       -7289.6626 -6992.7896 -6695.917 -6399.045
000320 61 b1 be c5 67 6a b5 c5 6c 23 ac c5 70 dc a2 c5
       -6102.1724 -5805.3003 -5508.4277 -5211.5547
000330 75 95 99 c5 7b 4e 90 c5 80 07 87 c5 0b 81 7b c5
       -4914.682 -4617.81 -4320.9375 -4024.0652
000340 15 f3 68 c5 21 65 56 c5 2a d7 43 c5 34 49 31 c5
       -3727.1926 -3430.3206 -3133.4478 -2836.5752
000350 40 bb 1e c5 4a 2d 0c c5 a7 3e f3 c4 be 22 ce c4
       -2539.7031 -2242.8306 -1945.9579 -1649.0857
000360 d1 06 a9 c4 e4 ea 83 c4 f7 9d 3d c4 3c cc e6 c3
       -1352.213 -1055.3403 -758.4682 -461.59558
000370 35 b9 24 c3 33 26 04 43 cd 82 d6 43 41 79 35 44
       -164.72346 132.14922 429.02188 725.8946
000380 08 b1 7f 44 71 f4 a4 44 5e 10 ca 44 4a 2c ef 44
       1022.7661 1319.6388 1616.5115 1913.384
000390 1c 24 0a 45 0e b2 1c 45 05 40 2f 45 fb cd 41 45
       2210.2568 2507.1284 2804.0012 3100.8738
0003a0 f2 5b 54 45 e8 e9 66 45 de 77 79 45 e8 02 86 45
       3397.7466 3694.6191 3991.4917 4288.3633
0003b0 e3 49 8f 45 df 90 98 45 da d7 a1 45 d5 1e ab 45
       4585.236 4882.109 5178.9814 5475.854
0003c0 ce 65 b4 45 c9 ac bd 45 c5 f3 c6 45 c0 3a d0 45
       5772.7256 6069.598 6366.471 6663.3438
0003d0 bb 81 d9 45 b6 c8 e2 45 af 0f ec 45 aa 56 f5 45
       6960.2163 7257.089 7553.9604 7850.833
0003e0 a6 9d fe 45 50 f2 03 46 ce 95 08 46 4b 39 0d 46
       8147.706 8444.578 8741.451 9038.323
0003f0 e3 a0 72 c5 03 e0 6a c5 25 1f 63 c5 45 5e 5b c5
       -3882.0554 -3758.0007 -3633.9465 -3509.8918
