output_final/intermediate_models/12_step_make_pynq_driver.onnx (onnx, 23954 bytes, 9 tensors)

StreamingFCLayer_Batch_0_param0 f4 [14, 31]
00000000: 0000 00c0 0000 a040 0000 e040 0000 00c1
00000010: 0000 c040 0000 8040 0000 80c0 0000 4040
00000020: 0000 80bf 0000 80c0 0000 80c0 0000 5041
00000030: 0000 4041 0000 00c0 0000 10c1 0000 c0c0
00000040: 0000 80bf 0000 4040 0000 0080 0000 0080
00000050: 0000 c0c0 0000 0040 0000 c040 0000 0040
00000060: 0000 80bf 0000 80bf 0000 4040 0000 2041
00000070: 0000 803f 0000 c040 0000 803f 0000 3041
00000080: 0000 8040 0000 00c0 0000 803f 0000 1041
00000090: 0000 50c1 0000 40c0 0000 0000 0000 70c1
000000a0: 0000 80bf 0000 1041 0000 10c1 0000 e0c0
000000b0: 0000 8040 0000 0041 0000 c0c0 0000 4041
000000c0: 0000 80bf 0000 c040 0000 40c1 0000 e040
000000d0: 0000 0041 0000 c8c1 0000 80bf 0000 e8c1
000000e0: 0000 8040 0000 803f 0000 8040 0000 c0c0
000000f0: 0000 4040 0000 90c1 0000 c0c0 0000 7041
00000100: 0000 2041 0000 90c1 0000 3041 0000 803f
00000110: 0000 803f 0000 60c1 0000 88c1 0000 9841
00000120: 0000 20c1 0000 40c0 0000 80bf 0000 4041
00000130: 0000 0041 0000 70c1 0000 30c1 0000 40c0
00000140: 0000 80bf 0000 6041 0000 2041 0000 a040
00000150: 0000 6041 0000 8841 0000 0041 0000 0080
00000160: 0000 0000 0000 e040 0000 80c0 0000 00c0
00000170: 0000 1041 0000 a0c0 0000 00c0 0000 10c1
00000180: 0000 80c1 0000 0041 0000 70c1 0000 e0c0
00000190: 0000 a0c0 0000 a040 0000 50c1 0000 80c0
000001a0: 0000 40c0 0000 2041 0000 0040 0000 60c1
000001b0: 0000 a040 0000 a0c0 0000 80bf 0000 20c1
000001c0: 0000 4041 0000 1041 0000 00c1 0000 00c0
000001d0: 0000 00c1 0000 7041 0000 40c0 0000 80c0
000001e0: 0000 00c1 0000 c040 0000 00c1 0000 00c0
000001f0: 0000 a0c0 0000 80bf 0000 1041 0000 80c0
00000200: 0000 40c0 0000 e0c0 0000 1041 0000 3041
00000210: 0000 60c1 0000 0080 0000 0080 0000 00c1
00000220: 0000 8040 0000 0040 0000 00c0 0000 30c1
00000230: 0000 40c1 0000 20c1 0000 10c1 0000 20c1
00000240: 0000 a040 0000 4040 0000 40c1 0000 e0c0
00000250: 0000 c0c0 0000 5041 0000 4040 0000 4041
00000260: 0000 6041 0000 2041 0000 40c0 0000 a0c1
00000270: 0000 c040 0000 0041 0000 803f 0000 3041
00000280: 0000 40c1 0000 7041 0000 a0c1 0000 80c1
00000290: 0000 80c1 0000 0041 0000 803f 0000 c0c0
000002a0: 0000 70c1 0000 e040 0000 a0c0 0000 00c0
000002b0: 0000 c8c1 0000 6041 0000 9041 0000 3041
000002c0: 0000 4040 0000 2041 0000 40c0 0000 e0c0
000002d0: 0000 e040 0000 20c1 0000 30c1 0000 50c1
000002e0: 0000 e040 0000 803f 0000 803f 0000 8040
000002f0: 0000 20c1 0000 a040 0000 4040 0000 80bf
00000300: 0000 4040 0000 c040 0000 a040 0000 40c0
00000310: 0000 4040 0000 9841 0000 4041 0000 0040
00000320: 0000 803f 0000 00c0 0000 00c0 0000 40c1
00000330: 0000 e0c0 0000 c040 0000 803f 0000 e0c0
00000340: 0000 1041 0000 0040 0000 80bf 0000 00c1
00000350: 0000 0040 0000 e0c0 0000 8040 0000 00c1
00000360: 0000 0000 0000 80c0 0000 98c1 0000 20c1
00000370: 0000 20c1 0000 0040 0000 803f 0000 2041
00000380: 0000 30c1 0000 0040 0000 4040 0000 803f
00000390: 0000 8841 0000 00c0 0000 c040 0000 e040
000003a0: 0000 c0c0 0000 0040 0000 80c0 0000 40c0
000003b0: 0000 30c1 0000 a040 0000 50c1 0000 80bf
000003c0: 0000 0041 0000 e040 0000 10c1 0000 a040
000003d0: 0000 e0c0 0000 0000 0000 1041 0000 8040
000003e0: 0000 a0c0 0000 4040 0000 e0c0 0000 6041
000003f0: 0000 40c0 0000 c0c0 0000 1041 0000 0000
-2.0 5.0 7.0 -8.0 6.0 4.0 -4.0 3.0
-1.0 -4.0 -4.0 13.0 12.0 -2.0 -9.0 -6.0
-1.0 3.0 -0.0 -0.0 -6.0 2.0 6.0 2.0
-1.0 -1.0 3.0 10.0 1.0 6.0 1.0 11.0
4.0 -2.0 1.0 9.0 -13.0 -3.0 0.0 -15.0
-1.0 9.0 -9.0 -7.0 4.0 8.0 -6.0 12.0
-1.0 6.0 -12.0 7.0 8.0 -25.0 -1.0 -29.0
4.0 1.0 4.0 -6.0 3.0 -18.0 -6.0 15.0
10.0 -18.0 11.0 1.0 1.0 -14.0 -17.0 19.0
-10.0 -3.0 -1.0 12.0 8.0 -15.0 -11.0 -3.0
-1.0 14.0 10.0 5.0 14.0 17.0 8.0 -0.0
0.0 7.0 -4.0 -2.0 9.0 -5.0 -2.0 -9.0
-16.0 8.0 -15.0 -7.0 -5.0 5.0 -13.0 -4.0
-3.0 10.0 2.0 -14.0 5.0 -5.0 -1.0 -10.0
12.0 9.0 -8.0 -2.0 -8.0 15.0 -3.0 -4.0
-8.0 6.0 -8.0 -2.0 -5.0 -1.0 9.0 -4.0
-3.0 -7.0 9.0 11.0 -14.0 -0.0 -0.0 -8.0
4.0 2.0 -2.0 -11.0 -12.0 -10.0 -9.0 -10.0
5.0 3.0 -12.0 -7.0 -6.0 13.0 3.0 12.0
14.0 10.0 -3.0 -20.0 6.0 8.0 1.0 11.0
-12.0 15.0 -20.0 -16.0 -16.0 8.0 1.0 -6.0
-15.0 7.0 -5.0 -2.0 -25.0 14.0 18.0 11.0
3.0 10.0 -3.0 -7.0 7.0 -10.0 -11.0 -13.0
7.0 1.0 1.0 4.0 -10.0 5.0 3.0 -1.0
3.0 6.0 5.0 -3.0 3.0 19.0 12.0 2.0
1.0 -2.0 -2.0 -12.0 -7.0 6.0 1.0 -7.0
9.0 2.0 -1.0 -8.0 2.0 -7.0 4.0 -8.0
0.0 -4.0 -19.0 -10.0 -10.0 2.0 1.0 10.0
-11.0 2.0 3.0 1.0 17.0 -2.0 6.0 7.0
-6.0 2.0 -4.0 -3.0 -11.0 5.0 -13.0 -1.0
8.0 7.0 -9.0 5.0 -7.0 0.0 9.0 4.0
-5.0 3.0 -7.0 14.0 -3.0 -6.0 9.0 0.0

StreamingFCLayer_Batch_1_param0 f4 [31, 11]
00000000: 0000 803f 0000 4041 0000 00c0 0000 e040
00000010: 0000 c0c0 0000 80c0 0000 0041 0000 40c1
00000020: 0000 5041 0000 40c0 0000 60c1 0000 80bf
00000030: 0000 40c1 0000 10c1 0000 e040 0000 e0c0
00000040: 0000 6041 0000 803f 0000 00c0 0000 e040
00000050: 0000 4040 0000 a0c0 0000 1041 0000 e040
00000060: 0000 6041 0000 c0c0 0000 60c1 0000 0040
00000070: 0000 a0c0 0000 30c1 0000 00c0 0000 a0c1
00000080: 0000 4041 0000 8841 0000 80c0 0000 3041
00000090: 0000 00c0 0000 2041 0000 c040 0000 00c0
000000a0: 0000 40c1 0000 8041 0000 a0c0 0000 e0c0
000000b0: 0000 a040 0000 e0c0 0000 b041 0000 d0c1
000000c0: 0000 80c0 0000 40c1 0000 2041 0000 4041
000000d0: 0000 a841 0000 70c1 0000 a0c1 0000 c040
000000e0: 0000 2041 0000 a0c0 0000 8040 0000 9841
000000f0: 0000 0041 0000 a841 0000 e0c0 0000 4040
00000100: 0000 30c1 0000 80bf 0000 00c0 0000 803f
00000110: 0000 a0c1 0000 00c1 0000 0080 0000 5041
00000120: 0000 40c1 0000 803f 0000 a040 0000 e040
00000130: 0000 4041 0000 80c0 0000 e041 0000 c040
00000140: 0000 30c1 0000 98c1 0000 e0c0 0000 10c1
00000150: 0000 00c0 0000 5041 0000 80c1 0000 e0c1
00000160: 0000 4041 0000 60c1 0000 70c1 0000 c040
00000170: 0000 8041 0000 80c1 0000 b841 0000 803f
00000180: 0000 0041 0000 60c1 0000 a040 0000 c040
00000190: 0000 30c1 0000 6041 0000 6041 0000 a040
000001a0: 0000 60c1 0000 8841 0000 8041 0000 c0c0
000001b0: 0000 0080 0000 803f 0000 80c1 0000 00c1
000001c0: 0000 30c1 0000 8040 0000 40c1 0000 0000
000001d0: 0000 00c0 0000 8041 0000 80bf 0000 0041
000001e0: 0000 4040 0000 c0c0 0000 3041 0000 3041
000001f0: 0000 30c1 0000 30c1 0000 3041 0000 c0c0
00000200: 0000 a040 0000 50c1 0000 0000 0000 50c1
00000210: 0000 0041 0000 50c1 0000 0040 0000 4041
00000220: 0000 c0c0 0000 80c0 0000 80bf 0000 9041
00000230: 0000 c040 0000 e040 0000 803f 0000 8841
00000240: 0000 10c1 0000 5041 0000 803f 0000 0080
00000250: 0000 0041 0000 1041 0000 20c1 0000 10c1
00000260: 0000 4041 0000 0000 0000 80c0 0000 30c1
00000270: 0000 80bf 0000 88c1 0000 6041 0000 80bf
00000280: 0000 20c1 0000 4041 0000 88c1 0000 40c1
00000290: 0000 1041 0000 3041 0000 9841 0000 0080
000002a0: 0000 30c1 0000 d0c1 0000 0040 0000 803f
000002b0: 0000 50c1 0000 0041 0000 c8c1 0000 10c1
000002c0: 0000 1041 0000 80bf 0000 8841 0000 f0c1
000002d0: 0000 e8c1 0000 d0c1 0000 9841 0000 a0c0
000002e0: 0000 2041 0000 b8c1 0000 60c1 0000 a0c0
000002f0: 0000 5041 0000 1041 0000 50c1 0000 98c1
00000300: 0000 a0c1 0000 88c1 0000 a0c0 0000 e041
00000310: 0000 80c0 0000 e0c1 0000 b041 0000 b0c1
00000320: 0000 a841 0000 c0c0 0000 80bf 0000 5041
00000330: 0000 a041 0000 00c1 0000 8841 0000 20c1
00000340: 0000 a0c0 0000 c0c0 0000 70c1 0000 2041
00000350: 0000 40c1 0000 4041 0000 e040 0000 a040
00000360: 0000 8040 0000 88c1 0000 80c0 0000 a040
00000370: 0000 0041 0000 20c1 0000 40c0 0000 70c1
00000380: 0000 60c1 0000 80c0 0000 3041 0000 6041
00000390: 0000 80c0 0000 c0c0 0000 2041 0000 4041
000003a0: 0000 e0c0 0000 e0c0 0000 8040 0000 5041
000003b0: 0000 c040 0000 70c1 0000 00c0 0000 c0c0
000003c0: 0000 7041 0000 a040 0000 8041 0000 00c0
000003d0: 0000 10c1 0000 40c0 0000 60c1 0000 8040
000003e0: 0000 5041 0000 a040 0000 e040 0000 0040
000003f0: 0000 8040 0000 40c0 0000 0040 0000 a040
1.0 12.0 -2.0 7.0 -6.0 -4.0 8.0 -12.0
13.0 -3.0 -14.0 -1.0 -12.0 -9.0 7.0 -7.0
14.0 1.0 -2.0 7.0 3.0 -5.0 9.0 7.0
14.0 -6.0 -14.0 2.0 -5.0 -11.0 -2.0 -20.0
12.0 17.0 -4.0 11.0 -2.0 10.0 6.0 -2.0
-12.0 16.0 -5.0 -7.0 5.0 -7.0 22.0 -26.0
-4.0 -12.0 10.0 12.0 21.0 -15.0 -20.0 6.0
10.0 -5.0 4.0 19.0 8.0 21.0 -7.0 3.0
-11.0 -1.0 -2.0 1.0 -20.0 -8.0 -0.0 13.0
-12.0 1.0 5.0 7.0 12.0 -4.0 28.0 6.0
-11.0 -19.0 -7.0 -9.0 -2.0 13.0 -16.0 -28.0
12.0 -14.0 -15.0 6.0 16.0 -16.0 23.0 1.0
8.0 -14.0 5.0 6.0 -11.0 14.0 14.0 5.0
-14.0 17.0 16.0 -6.0 -0.0 1.0 -16.0 -8.0
-11.0 4.0 -12.0 0.0 -2.0 16.0 -1.0 8.0
3.0 -6.0 11.0 11.0 -11.0 -11.0 11.0 -6.0
5.0 -13.0 0.0 -13.0 8.0 -13.0 2.0 12.0
-6.0 -4.0 -1.0 18.0 6.0 7.0 1.0 17.0
-9.0 13.0 1.0 -0.0 8.0 9.0 -10.0 -9.0
12.0 0.0 -4.0 -11.0 -1.0 -17.0 14.0 -1.0
-10.0 12.0 -17.0 -12.0 9.0 11.0 19.0 -0.0
-11.0 -26.0 2.0 1.0 -13.0 8.0 -25.0 -9.0
9.0 -1.0 17.0 -30.0 -29.0 -26.0 19.0 -5.0
10.0 -23.0 -14.0 -5.0 13.0 9.0 -13.0 -19.0
-20.0 -17.0 -5.0 28.0 -4.0 -28.0 22.0 -22.0
21.0 -6.0 -1.0 13.0 20.0 -8.0 17.0 -10.0
-5.0 -6.0 -15.0 10.0 -12.0 12.0 7.0 5.0
4.0 -17.0 -4.0 5.0 8.0 -10.0 -3.0 -15.0
-14.0 -4.0 11.0 14.0 -4.0 -6.0 10.0 12.0
-7.0 -7.0 4.0 13.0 6.0 -15.0 -2.0 -6.0
15.0 5.0 16.0 -2.0 -9.0 -3.0 -14.0 4.0
13.0 5.0 7.0 2.0 4.0 -3.0 2.0 5.0

StreamingFCLayer_Batch_2_param0 f4 [11, 3]
00000000: 0000 2041 0000 a0c1 0000 f8c1 0000 70c1
00000010: 0000 a8c1 0000 40c0 0000 c0c0 0000 e040
00000020: 0000 f8c1 0000 803f 0000 f841 0000 b0c1
00000030: 0000 9841 0000 e040 0000 70c1 0000 0040
00000040: 0000 c040 0000 80bf 0000 60c1 0000 f8c1
00000050: 0000 f8c1 0000 a041 0000 60c1 0000 0040
00000060: 0000 20c1 0000 e8c1 0000 a0c1 0000 f041
00000070: 0000 3041 0000 60c1 0000 0041 0000 80bf
00000080: 0000 1041
10.0 -20.0 -31.0 -15.0 -21.0 -3.0 -6.0 7.0
-31.0 1.0 31.0 -22.0 19.0 7.0 -15.0 2.0
6.0 -1.0 -14.0 -31.0 -31.0 20.0 -14.0 2.0
-10.0 -29.0 -20.0 30.0 11.0 -14.0 8.0 -1.0
9.0

StreamingFCLayer_Batch_3_param0 f4 [3, 1]
00000000: 0000 a040 0000 f041 0000 f841
5.0 30.0 31.0

StreamingFCLayer_Batch_0_param1 f4 [31, 63]
00000000: 0060 2b45 0020 2c45 00d0 2c45 0080 2d45
00000010: 0040 2e45 00f0 2e45 00a0 2f45 0060 3045
00000020: 0010 3145 00d0 3145 0080 3245 0030 3345
00000030: 00f0 3345 00a0 3445 0050 3545 0010 3645
00000040: 00c0 3645 0070 3745 0030 3845 00e0 3845
00000050: 0090 3945 0050 3a45 0000 3b45 00c0 3b45
00000060: 0070 3c45 0020 3d45 00e0 3d45 0090 3e45
00000070: 0040 3f45 0000 4045 00b0 4045 0060 4145
00000080: 0020 4245 00d0 4245 0080 4345 0040 4445
00000090: 00f0 4445 00b0 4545 0060 4645 0010 4745
000000a0: 00d0 4745 0080 4845 0030 4945 00f0 4945
000000b0: 00a0 4a45 0050 4b45 0010 4c45 00c0 4c45
000000c0: 0070 4d45 0030 4e45 00e0 4e45 00a0 4f45
000000d0: 0050 5045 0000 5145 00c0 5145 0070 5245
000000e0: 0020 5345 00e0 5345 0090 5445 0040 5545
000000f0: 0000 5645 00b0 5645 0060 5745 0030 4945
00000100: 00f0 4945 00b0 4a45 0060 4b45 0020 4c45
00000110: 00e0 4c45 00a0 4d45 0050 4e45 0010 4f45
00000120: 00d0 4f45 0080 5045 0040 5145 0000 5245
00000130: 00c0 5245 0070 5345 0030 5445 00f0 5445
00000140: 00a0 5545 0060 5645 0020 5745 00e0 5745
00000150: 0090 5845 0050 5945 0010 5a45 00c0 5a45
00000160: 0080 5b45 0040 5c45 0000 5d45 00b0 5d45
00000170: 0070 5e45 0030 5f45 00e0 5f45 00a0 6045
00000180: 0060 6145 0020 6245 00d0 6245 0090 6345
00000190: 0050 6445 0000 6545 00c0 6545 0080 6645
000001a0: 0040 6745 00f0 6745 00b0 6845 0070 6945
000001b0: 0020 6a45 00e0 6a45 00a0 6b45 0050 6c45
000001c0: 0010 6d45 00d0 6d45 0090 6e45 0040 6f45
000001d0: 0000 7045 00c0 7045 0070 7145 0030 7245
000001e0: 00f0 7245 00b0 7345 0060 7445 0020 7545
000001f0: 00e0 7545 0090 7645 0070 5345 00a0 5445
00000200: 00e0 5545 0010 5745 0040 5845 0070 5945
00000210: 00a0 5a45 00e0 5b45 0010 5d45 0040 5e45
00000220: 0070 5f45 00a0 6045 00d0 6145 0010 6345
00000230: 0040 6445 0070 6545 00a0 6645 00d0 6745
00000240: 0010 6945 0040 6a45 0070 6b45 00a0 6c45
00000250: 00d0 6d45 0000 6f45 0040 7045 0070 7145
00000260: 00a0 7245 00d0 7345 0000 7545 0040 7645
00000270: 0070 7745 00a0 7845 00d0 7945 0000 7b45
00000280: 0040 7c45 0070 7d45 00a0 7e45 00d0 7f45
00000290: 0080 8045 0018 8145 00b8 8145 0050 8245
000002a0: 00e8 8245 0080 8345 0018 8445 00b8 8445
000002b0: 0050 8545 00e8 8545 0080 8645 0018 8745
000002c0: 00b0 8745 0050 8845 00e8 8845 0080 8945
000002d0: 0018 8a45 00b0 8a45 0050 8b45 00e8 8b45
000002e0: 0080 8c45 0018 8d45 00b0 8d45 0050 8e45
000002f0: 00e8 8e45 00c0 bb44 0040 bf44 00e0 c244
00000300: 0060 c644 00e0 c944 0060 cd44 00e0 d044
00000310: 0060 d444 00e0 d744 0060 db44 00e0 de44
00000320: 0060 e244 0000 e644 0080 e944 0000 ed44
00000330: 0080 f044 0000 f444 0080 f744 0000 fb44
00000340: 0080 fe44 0000 0145 00c0 0245 0080 0445
00000350: 0050 0645 0010 0845 00d0 0945 0090 0b45
00000360: 0050 0d45 0010 0f45 00d0 1045 0090 1245
00000370: 0050 1445 0010 1645 00d0 1745 00a0 1945
00000380: 0060 1b45 0020 1d45 00e0 1e45 00a0 2045
00000390: 0060 2245 0020 2445 00e0 2545 00a0 2745
000003a0: 0060 2945 0030 2b45 00f0 2c45 00b0 2e45
000003b0: 0070 3045 0030 3245 00f0 3345 00b0 3545
000003c0: 0070 3745 0030 3945 00f0 3a45 00b0 3c45
000003d0: 0080 3e45 0040 4045 0000 4245 00c0 4345
000003e0: 0080 4545 0040 4745 0000 4945 00c0 4a45
000003f0: 0080 84c4 00e0 81c4 0040 7ec4 00c0 78c4
2742.0 2754.0 2765.0 2776.0 2788.0 2799.0 2810.0 2822.0
2833.0 2845.0 2856.0 2867.0 2879.0 2890.0 2901.0 2913.0
2924.0 2935.0 2947.0 2958.0 2969.0 2981.0 2992.0 3004.0
3015.0 3026.0 3038.0 3049.0 3060.0 3072.0 3083.0 3094.0
3106.0 3117.0 3128.0 3140.0 3151.0 3163.0 3174.0 3185.0
3197.0 3208.0 3219.0 3231.0 3242.0 3253.0 3265.0 3276.0
3287.0 3299.0 3310.0 3322.0 3333.0 3344.0 3356.0 3367.0
3378.0 3390.0 3401.0 3412.0 3424.0 3435.0 3446.0 3219.0
3231.0 3243.0 3254.0 3266.0 3278.0 3290.0 3301.0 3313.0
3325.0 3336.0 3348.0 3360.0 3372.0 3383.0 3395.0 3407.0
3418.0 3430.0 3442.0 3454.0 3465.0 3477.0 3489.0 3500.0
3512.0 3524.0 3536.0 3547.0 3559.0 3571.0 3582.0 3594.0
3606.0 3618.0 3629.0 3641.0 3653.0 3664.0 3676.0 3688.0
3700.0 3711.0 3723.0 3735.0 3746.0 3758.0 3770.0 3781.0
3793.0 3805.0 3817.0 3828.0 3840.0 3852.0 3863.0 3875.0
3887.0 3899.0 3910.0 3922.0 3934.0 3945.0 3383.0 3402.0
3422.0 3441.0 3460.0 3479.0 3498.0 3518.0 3537.0 3556.0
3575.0 3594.0 3613.0 3633.0 3652.0 3671.0 3690.0 3709.0
3729.0 3748.0 3767.0 3786.0 3805.0 3824.0 3844.0 3863.0
3882.0 3901.0 3920.0 3940.0 3959.0 3978.0 3997.0 4016.0
4036.0 4055.0 4074.0 4093.0 4112.0 4131.0 4151.0 4170.0
4189.0 4208.0 4227.0 4247.0 4266.0 4285.0 4304.0 4323.0
4342.0 4362.0 4381.0 4400.0 4419.0 4438.0 4458.0 4477.0
4496.0 4515.0 4534.0 4554.0 4573.0 1502.0 1530.0 1559.0
1587.0 1615.0 1643.0 1671.0 1699.0 1727.0 1755.0 1783.0
1811.0 1840.0 1868.0 1896.0 1924.0 1952.0 1980.0 2008.0
2036.0 2064.0 2092.0 2120.0 2149.0 2177.0 2205.0 2233.0
2261.0 2289.0 2317.0 2345.0 2373.0 2401.0 2429.0 2458.0
2486.0 2514.0 2542.0 2570.0 2598.0 2626.0 2654.0 2682.0
2710.0 2739.0 2767.0 2795.0 2823.0 2851.0 2879.0 2907.0
2935.0 2963.0 2991.0 3019.0 3048.0 3076.0 3104.0 3132.0
3160.0 3188.0 3216.0 3244.0 -1060.0 -1039.0 -1017.0 -995.0

StreamingFCLayer_Batch_1_param1 f4 [11, 63]
00000000: 009c 5546 005c 5646 0018 5746 00d8 5746
00000010: 0098 5846 0058 5946 0018 5a46 00d4 5a46
00000020: 0094 5b46 0054 5c46 0014 5d46 00d4 5d46
00000030: 0090 5e46 0050 5f46 0010 6046 00d0 6046
00000040: 0090 6146 0050 6246 000c 6346 00cc 6346
00000050: 008c 6446 004c 6546 000c 6646 00c8 6646
00000060: 0088 6746 0048 6846 0008 6946 00c8 6946
00000070: 0084 6a46 0044 6b46 0004 6c46 00c4 6c46
00000080: 0084 6d46 0044 6e46 0000 6f46 00c0 6f46
00000090: 0080 7046 0040 7146 0000 7246 00bc 7246
000000a0: 007c 7346 003c 7446 00fc 7446 00bc 7546
000000b0: 0078 7646 0038 7746 00f8 7746 00b8 7846
000000c0: 0078 7946 0034 7a46 00f4 7a46 00b4 7b46
000000d0: 0074 7c46 0034 7d46 00f4 7d46 00b0 7e46
000000e0: 0070 7f46 0018 8046 0078 8046 00d8 8046
000000f0: 0036 8146 0096 8146 00f6 8146 00fc 4fc6
00000100: 00b0 4dc6 0068 4bc6 001c 49c6 00d4 46c6
00000110: 0088 44c6 003c 42c6 00f4 3fc6 00a8 3dc6
00000120: 0060 3bc6 0014 39c6 00c8 36c6 0080 34c6
00000130: 0034 32c6 00ec 2fc6 00a0 2dc6 0058 2bc6
00000140: 000c 29c6 00c0 26c6 0078 24c6 002c 22c6
00000150: 00e4 1fc6 0098 1dc6 004c 1bc6 0004 19c6
00000160: 00b8 16c6 0070 14c6 0024 12c6 00d8 0fc6
00000170: 0090 0dc6 0044 0bc6 00fc 08c6 00b0 06c6
00000180: 0064 04c6 001c 02c6 00a0 ffc5 0010 fbc5
00000190: 0078 f6c5 00e0 f1c5 0050 edc5 00b8 e8c5
000001a0: 0028 e4c5 0090 dfc5 0000 dbc5 0068 d6c5
000001b0: 00d0 d1c5 0040 cdc5 00a8 c8c5 0018 c4c5
000001c0: 0080 bfc5 00e8 bac5 0058 b6c5 00c0 b1c5
000001d0: 0030 adc5 0098 a8c5 0000 a4c5 0070 9fc5
000001e0: 00d8 9ac5 0048 96c5 00b0 91c5 0018 8dc5
000001f0: 0088 88c5 00f0 83c5 0062 a2c6 0008 a2c6
00000200: 00ae a1c6 0054 a1c6 00fa a0c6 00a0 a0c6
00000210: 0046 a0c6 00ec 9fc6 0092 9fc6 0038 9fc6
00000220: 00de 9ec6 0082 9ec6 0028 9ec6 00ce 9dc6
00000230: 0074 9dc6 001a 9dc6 00c0 9cc6 0066 9cc6
00000240: 000c 9cc6 00b2 9bc6 0058 9bc6 00fe 9ac6
00000250: 00a4 9ac6 004a 9ac6 00ee 99c6 0094 99c6
00000260: 003a 99c6 00e0 98c6 0086 98c6 002c 98c6
00000270: 00d2 97c6 0078 97c6 001e 97c6 00c4 96c6
00000280: 006a 96c6 0010 96c6 00b6 95c6 005a 95c6
00000290: 0000 95c6 00a6 94c6 004c 94c6 00f2 93c6
000002a0: 0098 93c6 003e 93c6 00e4 92c6 008a 92c6
000002b0: 0030 92c6 00d6 91c6 007c 91c6 0020 91c6
000002c0: 00c6 90c6 006c 90c6 0012 90c6 00b8 8fc6
000002d0: 005e 8fc6 0004 8fc6 00aa 8ec6 0050 8ec6
000002e0: 00f6 8dc6 009c 8dc6 0042 8dc6 00e8 8cc6
000002f0: 008c 8cc6 00b8 2046 0070 2446 002c 2846
00000300: 00e8 2b46 00a0 2f46 005c 3346 0014 3746
00000310: 00d0 3a46 008c 3e46 0044 4246 0000 4646
00000320: 00b8 4946 0074 4d46 0030 5146 00e8 5446
00000330: 00a4 5846 005c 5c46 0018 6046 00d4 6346
00000340: 008c 6746 0048 6b46 0000 6f46 00bc 7246
00000350: 0078 7646 0030 7a46 00ec 7d46 00d2 8046
00000360: 00b0 8246 008c 8446 006a 8646 0048 8846
00000370: 0024 8a46 0002 8c46 00de 8d46 00bc 8f46
00000380: 009a 9146 0076 9346 0054 9546 0030 9746
00000390: 000e 9946 00ec 9a46 00c8 9c46 00a6 9e46
000003a0: 0082 a046 0060 a246 003e a446 001a a646
000003b0: 00f8 a746 00d4 a946 00b2 ab46 0090 ad46
000003c0: 006c af46 004a b146 0026 b346 0004 b546
000003d0: 00e2 b646 00be b846 009c ba46 0078 bc46
000003e0: 0056 be46 0034 c046 0010 c246 00ee c346
000003f0: 00c4 3546 00f4 3646 0020 3846 004c 3946
13671.0 13719.0 13766.0 13814.0 13862.0 13910.0 13958.0 14005.0
14053.0 14101.0 14149.0 14197.0 14244.0 14292.0 14340.0 14388.0
14436.0 14484.0 14531.0 14579.0 14627.0 14675.0 14723.0 14770.0
14818.0 14866.0 14914.0 14962.0 15009.0 15057.0 15105.0 15153.0
15201.0 15249.0 15296.0 15344.0 15392.0 15440.0 15488.0 15535.0
15583.0 15631.0 15679.0 15727.0 15774.0 15822.0 15870.0 15918.0
15966.0 16013.0 16061.0 16109.0 16157.0 16205.0 16253.0 16300.0
16348.0 16396.0 16444.0 16492.0 16539.0 16587.0 16635.0 -13311.0
-13164.0 -13018.0 -12871.0 -12725.0 -12578.0 -12431.0 -12285.0 -12138.0
-11992.0 -11845.0 -11698.0 -11552.0 -11405.0 -11259.0 -11112.0 -10966.0
-10819.0 -10672.0 -10526.0 -10379.0 -10233.0 -10086.0 -9939.0 -9793.0
-9646.0 -9500.0 -9353.0 -9206.0 -9060.0 -8913.0 -8767.0 -8620.0
-8473.0 -8327.0 -8180.0 -8034.0 -7887.0 -7740.0 -7594.0 -7447.0
-7301.0 -7154.0 -7008.0 -6861.0 -6714.0 -6568.0 -6421.0 -6275.0
-6128.0 -5981.0 -5835.0 -5688.0 -5542.0 -5395.0 -5248.0 -5102.0
-4955.0 -4809.0 -4662.0 -4515.0 -4369.0 -4222.0 -20785.0 -20740.0
-20695.0 -20650.0 -20605.0 -20560.0 -20515.0 -20470.0 -20425.0 -20380.0
-20335.0 -20289.0 -20244.0 -20199.0 -20154.0 -20109.0 -20064.0 -20019.0
-19974.0 -19929.0 -19884.0 -19839.0 -19794.0 -19749.0 -19703.0 -19658.0
-19613.0 -19568.0 -19523.0 -19478.0 -19433.0 -19388.0 -19343.0 -19298.0
-19253.0 -19208.0 -19163.0 -19117.0 -19072.0 -19027.0 -18982.0 -18937.0
-18892.0 -18847.0 -18802.0 -18757.0 -18712.0 -18667.0 -18622.0 -18576.0
-18531.0 -18486.0 -18441.0 -18396.0 -18351.0 -18306.0 -18261.0 -18216.0
-18171.0 -18126.0 -18081.0 -18036.0 -17990.0 10286.0 10524.0 10763.0
11002.0 11240.0 11479.0 11717.0 11956.0 12195.0 12433.0 12672.0
12910.0 13149.0 13388.0 13626.0 13865.0 14103.0 14342.0 14581.0
14819.0 15058.0 15296.0 15535.0 15774.0 16012.0 16251.0 16489.0
16728.0 16966.0 17205.0 17444.0 17682.0 17921.0 18159.0 18398.0
18637.0 18875.0 19114.0 19352.0 19591.0 19830.0 20068.0 20307.0
20545.0 20784.0 21023.0 21261.0 21500.0 21738.0 21977.0 22216.0
22454.0 22693.0 22931.0 23170.0 23409.0 23647.0 23886.0 24124.0
24363.0 24602.0 24840.0 25079.0 11633.0 11709.0 11784.0 11859.0

StreamingFCLayer_Batch_2_param1 f4 [3, 63]
00000000: 0098 e345 00e8 e445 0030 e645 0078 e745
00000010: 00c0 e845 0008 ea45 0050 eb45 0098 ec45
00000020: 00e0 ed45 0028 ef45 0070 f045 00b8 f145
00000030: 0008 f345 0050 f445 0098 f545 00e0 f645
00000040: 0028 f845 0070 f945 00b8 fa45 0000 fc45
00000050: 0048 fd45 0090 fe45 00d8 ff45 0090 0046
00000060: 0038 0146 00dc 0146 0080 0246 0024 0346
00000070: 00c8 0346 006c 0446 0010 0546 00b4 0546
00000080: 0058 0646 00fc 0646 00a0 0746 0048 0846
00000090: 00ec 0846 0090 0946 0034 0a46 00d8 0a46
000000a0: 007c 0b46 0020 0c46 00c4 0c46 0068 0d46
000000b0: 000c 0e46 00b0 0e46 0058 0f46 00fc 0f46
000000c0: 00a0 1046 0044 1146 00e8 1146 008c 1246
000000d0: 0030 1346 00d4 1346 0078 1446 001c 1546
000000e0: 00c0 1546 0068 1646 000c 1746 00b0 1746
000000f0: 0054 1846 00f8 1846 009c 1946 0058 ff45
00000100: 0060 0046 0014 0146 00c8 0146 007c 0246
00000110: 0030 0346 00e0 0346 0094 0446 0048 0546
00000120: 00fc 0546 00b0 0646 0064 0746 0018 0846
00000130: 00cc 0846 0080 0946 0034 0a46 00e8 0a46
00000140: 0098 0b46 004c 0c46 0000 0d46 00b4 0d46
00000150: 0068 0e46 001c 0f46 00d0 0f46 0084 1046
00000160: 0038 1146 00ec 1146 00a0 1246 0050 1346
00000170: 0004 1446 00b8 1446 006c 1546 0020 1646
00000180: 00d4 1646 0088 1746 003c 1846 00f0 1846
00000190: 00a4 1946 0058 1a46 0008 1b46 00bc 1b46
000001a0: 0070 1c46 0024 1d46 00d8 1d46 008c 1e46
000001b0: 0040 1f46 00f4 1f46 00a8 2046 005c 2146
000001c0: 0010 2246 00c4 2246 0074 2346 0028 2446
000001d0: 00dc 2446 0090 2546 0044 2646 00f8 2646
000001e0: 00ac 2746 0060 2846 0014 2946 00c8 2946
000001f0: 007c 2a46 002c 2b46 001a 9bc6 00d8 9ac6
00000200: 0096 9ac6 0054 9ac6 0010 9ac6 00ce 99c6
00000210: 008c 99c6 004a 99c6 0008 99c6 00c6 98c6
00000220: 0084 98c6 0042 98c6 00fe 97c6 00bc 97c6
00000230: 007a 97c6 0038 97c6 00f6 96c6 00b4 96c6
00000240: 0072 96c6 002e 96c6 00ec 95c6 00aa 95c6
00000250: 0068 95c6 0026 95c6 00e4 94c6 00a2 94c6
00000260: 005e 94c6 001c 94c6 00da 93c6 0098 93c6
00000270: 0056 93c6 0014 93c6 00d2 92c6 0090 92c6
00000280: 004c 92c6 000a 92c6 00c8 91c6 0086 91c6
00000290: 0044 91c6 0002 91c6 00c0 90c6 007c 90c6
000002a0: 003a 90c6 00f8 8fc6 00b6 8fc6 0074 8fc6
000002b0: 0032 8fc6 00f0 8ec6 00ae 8ec6 006a 8ec6
000002c0: 0028 8ec6 00e6 8dc6 00a4 8dc6 0062 8dc6
000002d0: 0020 8dc6 00de 8cc6 009a 8cc6 0058 8cc6
000002e0: 0016 8cc6 00d4 8bc6 0092 8bc6 0050 8bc6
000002f0: 000e 8bc6
7283.0 7325.0 7366.0 7407.0 7448.0 7489.0 7530.0 7571.0
7612.0 7653.0 7694.0 7735.0 7777.0 7818.0 7859.0 7900.0
7941.0 7982.0 8023.0 8064.0 8105.0 8146.0 8187.0 8228.0
8270.0 8311.0 8352.0 8393.0 8434.0 8475.0 8516.0 8557.0
8598.0 8639.0 8680.0 8722.0 8763.0 8804.0 8845.0 8886.0
8927.0 8968.0 9009.0 9050.0 9091.0 9132.0 9174.0 9215.0
9256.0 9297.0 9338.0 9379.0 9420.0 9461.0 9502.0 9543.0
9584.0 9626.0 9667.0 9708.0 9749.0 9790.0 9831.0 8171.0
8216.0 8261.0 8306.0 8351.0 8396.0 8440.0 8485.0 8530.0
8575.0 8620.0 8665.0 8710.0 8755.0 8800.0 8845.0 8890.0
8934.0 8979.0 9024.0 9069.0 9114.0 9159.0 9204.0 9249.0
9294.0 9339.0 9384.0 9428.0 9473.0 9518.0 9563.0 9608.0
9653.0 9698.0 9743.0 9788.0 9833.0 9878.0 9922.0 9967.0
10012.0 10057.0 10102.0 10147.0 10192.0 10237.0 10282.0 10327.0
10372.0 10417.0 10461.0 10506.0 10551.0 10596.0 10641.0 10686.0
10731.0 10776.0 10821.0 10866.0 10911.0 10955.0 -19853.0 -19820.0
-19787.0 -19754.0 -19720.0 -19687.0 -19654.0 -19621.0 -19588.0 -19555.0
-19522.0 -19489.0 -19455.0 -19422.0 -19389.0 -19356.0 -19323.0 -19290.0
-19257.0 -19223.0 -19190.0 -19157.0 -19124.0 -19091.0 -19058.0 -19025.0
-18991.0 -18958.0 -18925.0 -18892.0 -18859.0 -18826.0 -18793.0 -18760.0
-18726.0 -18693.0 -18660.0 -18627.0 -18594.0 -18561.0 -18528.0 -18494.0
-18461.0 -18428.0 -18395.0 -18362.0 -18329.0 -18296.0 -18263.0 -18229.0
-18196.0 -18163.0 -18130.0 -18097.0 -18064.0 -18031.0 -17997.0 -17964.0
-17931.0 -17898.0 -17865.0 -17832.0 -17799.0

Thresholding_Batch_0_param0 f4 [1, 63]
00000000: 0000 0000 0000 0000 0000 0000 0000 0000
00000010: 0000 0000 0000 0000 0000 0000 0000 0000
00000020: 0000 0000 0000 0000 0000 0000 0000 0000
00000030: 0000 0000 0000 0000 0000 0000 0000 0000
00000040: 0000 0000 0000 0000 0000 0000 0000 0000
00000050: 0000 0000 0000 0000 0000 0000 0000 0000
00000060: 0000 0000 0000 0000 0000 0000 0000 0000
00000070: 0000 0000 0000 0000 0000 0000 0000 0000
00000080: 0000 0040 0000 8040 0000 c040 0000 0041
00000090: 0000 2041 0000 4041 0000 6041 0000 8041
000000a0: 0000 9041 0000 a041 0000 b041 0000 c041
000000b0: 0000 d041 0000 e041 0000 f041 0000 0042
000000c0: 0000 0842 0000 1042 0000 1842 0000 2042
000000d0: 0000 2842 0000 3042 0000 3842 0000 4042
000000e0: 0000 4842 0000 5042 0000 5842 0000 6042
000000f0: 0000 6842 0000 7042 0000 7842
0.0 0.0 0.0 0.0 0.0 0.0 0.0 0.0
0.0 0.0 0.0 0.0 0.0 0.0 0.0 0.0
0.0 0.0 0.0 0.0 0.0 0.0 0.0 0.0
0.0 0.0 0.0 0.0 0.0 0.0 0.0 0.0
2.0 4.0 6.0 8.0 10.0 12.0 14.0 16.0
18.0 20.0 22.0 24.0 26.0 28.0 30.0 32.0
34.0 36.0 38.0 40.0 42.0 44.0 46.0 48.0
50.0 52.0 54.0 56.0 58.0 60.0 62.0

StreamingFCLayer_Batch_3_param1 f4 [1, 63]
00000000: 0000 0000 0000 0000 0000 0000 0000 0000
00000010: 0000 0000 0000 0000 0000 0000 0000 0000
00000020: 0000 0000 0000 0000 0000 0000 0000 0000
00000030: 0000 0000 0000 0000 0000 0000 0000 0000
00000040: 0000 0000 0000 0000 0000 0000 0000 0000
00000050: 0000 0000 0000 0000 0000 0000 0000 0000
00000060: 0000 0000 0000 0000 0000 0000 0000 0000
00000070: 0000 0000 0000 0000 0000 0000 0000 0000
00000080: 0000 0000 0000 0000 0000 0000 0000 0000
00000090: 0000 0000 0000 0000 0000 0000 0000 0000
000000a0: 0000 0000 0000 0000 0000 0000 0000 0000
000000b0: 0000 0000 0000 0000 0000 0000 0000 0000
000000c0: 0000 0000 0000 0000 0000 0000 0000 0000
000000d0: 0000 0000 0000 0000 0000 0000 0000 0000
000000e0: 0000 0000 0000 0000 0000 0000 0000 0000
000000f0: 0000 0000 0000 0000 0000 0000
0.0 0.0 0.0 0.0 0.0 0.0 0.0 0.0
0.0 0.0 0.0 0.0 0.0 0.0 0.0 0.0
0.0 0.0 0.0 0.0 0.0 0.0 0.0 0.0
0.0 0.0 0.0 0.0 0.0 0.0 0.0 0.0
0.0 0.0 0.0 0.0 0.0 0.0 0.0 0.0
0.0 0.0 0.0 0.0 0.0 0.0 0.0 0.0
0.0 0.0 0.0 0.0 0.0 0.0 0.0 0.0
0.0 0.0 0.0 0.0 0.0 0.0 0.0
