output_final/intermediate_models/2_step_streamline.onnx (onnx, 11058 bytes, 11 tensors)

MatMul_0_param0 f4 [14, 31]
00000000: 0000 803f 0000 00c0 0000 0000 0000 80bf
00000010: 0000 0000 0000 8040 0000 80bf 0000 0080
00000020: 0000 80bf 0000 803f 0000 803f 0000 0080
00000030: 0000 80bf 0000 0000 0000 40c0 0000 80bf
00000040: 0000 0080 0000 803f 0000 0000 0000 0080
00000050: 0000 803f 0000 80bf 0000 0000 0000 0080
00000060: 0000 80bf 0000 803f 0000 803f 0000 0000
00000070: 0000 0000 0000 0000 0000 0080 0000 00c0
00000080: 0000 0000 0000 803f 0000 803f 0000 0040
00000090: 0000 0000 0000 80bf 0000 0040 0000 80bf
000000a0: 0000 0000 0000 40c0 0000 00c0 0000 4040
000000b0: 0000 0080 0000 0000 0000 803f 0000 0040
000000c0: 0000 803f 0000 0080 0000 0000 0000 80bf
000000d0: 0000 803f 0000 0080 0000 0040 0000 0080
000000e0: 0000 a0c0 0000 0080 0000 00c0 0000 0000
000000f0: 0000 803f 0000 80c0 0000 80c0 0000 803f
00000100: 0000 8040 0000 4040 0000 0040 0000 80bf
00000110: 0000 c0c0 0000 4040 0000 c0c0 0000 4040
00000120: 0000 c0c0 0000 4040 0000 c0c0 0000 803f
00000130: 0000 c0c0 0000 80bf 0000 c0c0 0000 0080
00000140: 0000 80c0 0000 40c0 0000 0000 0000 0080
00000150: 0000 0040 0000 0080 0000 80bf 0000 e0c0
00000160: 0000 803f 0000 0000 0000 80bf 0000 803f
00000170: 0000 a0c0 0000 0080 0000 80bf 0000 e040
00000180: 0000 80bf 0000 4040 0000 80bf 0000 80bf
00000190: 0000 8040 0000 803f 0000 0080 0000 0080
000001a0: 0000 80bf 0000 80bf 0000 0000 0000 00c0
000001b0: 0000 0000 0000 803f 0000 0040 0000 0040
000001c0: 0000 0000 0000 0080 0000 0080 0000 80bf
000001d0: 0000 0000 0000 0080 0000 0000 0000 80bf
000001e0: 0000 a040 0000 803f 0000 e0c0 0000 0080
000001f0: 0000 40c0 0000 0080 0000 803f 0000 80bf
00000200: 0000 803f 0000 803f 0000 80bf 0000 0080
00000210: 0000 803f 0000 4040 0000 0080 0000 803f
00000220: 0000 80bf 0000 0080 0000 803f 0000 803f
00000230: 0000 803f 0000 0000 0000 0080 0000 80bf
00000240: 0000 80bf 0000 0080 0000 0080 0000 803f
00000250: 0000 80bf 0000 0000 0000 80bf 0000 80bf
00000260: 0000 0000 0000 803f 0000 0040 0000 80bf
00000270: 0000 80bf 0000 40c0 0000 a040 0000 a040
00000280: 0000 0080 0000 4040 0000 a040 0000 40c0
00000290: 0000 40c0 0000 80bf 0000 80bf 0000 40c0
000002a0: 0000 0000 0000 0000 0000 803f 0000 00c0
000002b0: 0000 80bf 0000 e0c0 0000 0040 0000 c0c0
000002c0: 0000 a040 0000 a0c0 0000 0000 0000 c040
000002d0: 0000 0080 0000 80c0 0000 c040 0000 80bf
000002e0: 0000 80c0 0000 80bf 0000 0080 0000 00c0
000002f0: 0000 0080 0000 803f 0000 0080 0000 00c0
00000300: 0000 803f 0000 803f 0000 80bf 0000 0080
00000310: 0000 803f 0000 0080 0000 0000 0000 80bf
00000320: 0000 803f 0000 0080 0000 80bf 0000 0000
00000330: 0000 0080 0000 803f 0000 0040 0000 803f
00000340: 0000 803f 0000 80bf 0000 0000 0000 4040
00000350: 0000 803f 0000 0040 0000 0080 0000 0040
00000360: 0000 80bf 0000 80bf 0000 0000 0000 0080
00000370: 0000 0080 0000 0000 0000 00c0 0000 803f
00000380: 0000 80bf 0000 0080 0000 0080 0000 80bf
00000390: 0000 80bf 0000 803f 0000 80bf 0000 0040
000003a0: 0000 0080 0000 0000 0000 80bf 0000 803f
000003b0: 0000 803f 0000 803f 0000 4040 0000 0040
000003c0: 0000 80bf 0000 0000 0000 0040 0000 803f
000003d0: 0000 803f 0000 80bf 0000 803f 0000 0000
000003e0: 0000 80bf 0000 00c0 0000 803f 0000 0040
000003f0: 0000 0000 0000 00c0 0000 0000 0000 803f
1.0 -2.0 0.0 -1.0 0.0 4.0 -1.0 -0.0
-1.0 1.0 1.0 -0.0 -1.0 0.0 -3.0 -1.0
-0.0 1.0 0.0 -0.0 1.0 -1.0 0.0 -0.0
-1.0 1.0 1.0 0.0 0.0 0.0 -0.0 -2.0
0.0 1.0 1.0 2.0 0.0 -1.0 2.0 -1.0
0.0 -3.0 -2.0 3.0 -0.0 0.0 1.0 2.0
1.0 -0.0 0.0 -1.0 1.0 -0.0 2.0 -0.0
-5.0 -0.0 -2.0 0.0 1.0 -4.0 -4.0 1.0
4.0 3.0 2.0 -1.0 -6.0 3.0 -6.0 3.0
-6.0 3.0 -6.0 1.0 -6.0 -1.0 -6.0 -0.0
-4.0 -3.0 0.0 -0.0 2.0 -0.0 -1.0 -7.0
1.0 0.0 -1.0 1.0 -5.0 -0.0 -1.0 7.0
-1.0 3.0 -1.0 -1.0 4.0 1.0 -0.0 -0.0
-1.0 -1.0 0.0 -2.0 0.0 1.0 2.0 2.0
0.0 -0.0 -0.0 -1.0 0.0 -0.0 0.0 -1.0
5.0 1.0 -7.0 -0.0 -3.0 -0.0 1.0 -1.0
1.0 1.0 -1.0 -0.0 1.0 3.0 -0.0 1.0
-1.0 -0.0 1.0 1.0 1.0 0.0 -0.0 -1.0
-1.0 -0.0 -0.0 1.0 -1.0 0.0 -1.0 -1.0
0.0 1.0 2.0 -1.0 -1.0 -3.0 5.0 5.0
-0.0 3.0 5.0 -3.0 -3.0 -1.0 -1.0 -3.0
0.0 0.0 1.0 -2.0 -1.0 -7.0 2.0 -6.0
5.0 -5.0 0.0 6.0 -0.0 -4.0 6.0 -1.0
-4.0 -1.0 -0.0 -2.0 -0.0 1.0 -0.0 -2.0
1.0 1.0 -1.0 -0.0 1.0 -0.0 0.0 -1.0
1.0 -0.0 -1.0 0.0 -0.0 1.0 2.0 1.0
1.0 -1.0 0.0 3.0 1.0 2.0 -0.0 2.0
-1.0 -1.0 0.0 -0.0 -0.0 0.0 -2.0 1.0
-1.0 -0.0 -0.0 -1.0 -1.0 1.0 -1.0 2.0
-0.0 0.0 -1.0 1.0 1.0 1.0 3.0 2.0
-1.0 0.0 2.0 1.0 1.0 -1.0 1.0 0.0
-1.0 -2.0 1.0 2.0 0.0 -2.0 0.0 1.0

MatMul_1_param0 f4 [31, 11]
00000000: 0000 0040 0000 0000 0000 40c0 0000 80bf
00000010: 0000 80bf 0000 00c0 0000 40c0 0000 80c0
00000020: 0000 c040 0000 803f 0000 0040 0000 80bf
00000030: 0000 803f 0000 0000 0000 80bf 0000 0080
00000040: 0000 0080 0000 0080 0000 0080 0000 80bf
00000050: 0000 0000 0000 803f 0000 80bf 0000 0040
00000060: 0000 e040 0000 80c0 0000 40c0 0000 0040
00000070: 0000 00c0 0000 80c0 0000 8040 0000 00c0
00000080: 0000 0080 0000 0000 0000 00c0 0000 0040
00000090: 0000 0000 0000 c0c0 0000 803f 0000 803f
000000a0: 0000 803f 0000 8040 0000 80bf 0000 00c0
000000b0: 0000 803f 0000 803f 0000 0080 0000 80bf
000000c0: 0000 80c0 0000 0080 0000 0080 0000 0000
000000d0: 0000 803f 0000 4040 0000 00c0 0000 0080
000000e0: 0000 80bf 0000 0080 0000 0000 0000 0000
000000f0: 0000 80bf 0000 80bf 0000 0080 0000 00c0
00000100: 0000 0000 0000 0000 0000 803f 0000 80bf
00000110: 0000 00c0 0000 40c0 0000 c040 0000 00c0
00000120: 0000 80bf 0000 8040 0000 0040 0000 8040
00000130: 0000 0000 0000 80bf 0000 803f 0000 00c0
00000140: 0000 4040 0000 e0c0 0000 80bf 0000 803f
00000150: 0000 0080 0000 0080 0000 803f 0000 80bf
00000160: 0000 80bf 0000 80bf 0000 e0c0 0000 80bf
00000170: 0000 0040 0000 80c0 0000 00c0 0000 40c0
00000180: 0000 8040 0000 803f 0000 803f 0000 0000
00000190: 0000 a040 0000 0000 0000 803f 0000 80bf
000001a0: 0000 0040 0000 0080 0000 803f 0000 80bf
000001b0: 0000 80bf 0000 00c0 0000 803f 0000 a0c0
000001c0: 0000 40c0 0000 00c0 0000 8040 0000 00c0
000001d0: 0000 80bf 0000 80bf 0000 803f 0000 00c0
000001e0: 0000 803f 0000 803f 0000 a040 0000 4040
000001f0: 0000 0080 0000 00c0 0000 80bf 0000 80bf
00000200: 0000 40c0 0000 e040 0000 0040 0000 803f
00000210: 0000 00c0 0000 c0c0 0000 80c0 0000 0080
00000220: 0000 803f 0000 a0c0 0000 80bf 0000 803f
00000230: 0000 4040 0000 803f 0000 803f 0000 0080
00000240: 0000 803f 0000 80bf 0000 80bf 0000 0000
00000250: 0000 803f 0000 80bf 0000 0000 0000 0000
00000260: 0000 803f 0000 803f 0000 80bf 0000 a0c0
00000270: 0000 80bf 0000 803f 0000 803f 0000 80bf
00000280: 0000 80bf 0000 0080 0000 a040 0000 0080
00000290: 0000 803f 0000 00c0 0000 0080 0000 0000
000002a0: 0000 0000 0000 0080 0000 803f 0000 80bf
000002b0: 0000 0040 0000 80bf 0000 00c0 0000 80bf
000002c0: 0000 80bf 0000 80c0 0000 c0c0 0000 803f
000002d0: 0000 803f 0000 c0c0 0000 00c0 0000 0080
000002e0: 0000 c040 0000 0000 0000 803f 0000 803f
000002f0: 0000 0080 0000 00c0 0000 0000 0000 0080
00000300: 0000 0000 0000 80bf 0000 0000 0000 80bf
00000310: 0000 803f 0000 0080 0000 0080 0000 0040
00000320: 0000 4040 0000 80c0 0000 c040 0000 0040
00000330: 0000 803f 0000 00c0 0000 00c0 0000 a0c0
00000340: 0000 0000 0000 803f 0000 803f 0000 c0c0
00000350: 0000 803f 0000 803f 0000 00c0 0000 00c0
00000360: 0000 80bf 0000 4040 0000 0080 0000 0040
00000370: 0000 80bf 0000 0040 0000 4040 0000 80bf
00000380: 0000 00c0 0000 4040 0000 0080 0000 00c0
00000390: 0000 80bf 0000 80c0 0000 a0c0 0000 803f
000003a0: 0000 803f 0000 a0c0 0000 803f 0000 80c0
000003b0: 0000 00c0 0000 0080 0000 803f 0000 a040
000003c0: 0000 80bf 0000 803f 0000 0000 0000 a040
000003d0: 0000 8040 0000 0000 0000 40c0 0000 4040
000003e0: 0000 0040 0000 80c0 0000 80bf 0000 c0c0
000003f0: 0000 a0c0 0000 0080 0000 8040 0000 a0c0
2.0 0.0 -3.0 -1.0 -1.0 -2.0 -3.0 -4.0
6.0 1.0 2.0 -1.0 1.0 0.0 -1.0 -0.0
-0.0 -0.0 -0.0 -1.0 0.0 1.0 -1.0 2.0
7.0 -4.0 -3.0 2.0 -2.0 -4.0 4.0 -2.0
-0.0 0.0 -2.0 2.0 0.0 -6.0 1.0 1.0
1.0 4.0 -1.0 -2.0 1.0 1.0 -0.0 -1.0
-4.0 -0.0 -0.0 0.0 1.0 3.0 -2.0 -0.0
-1.0 -0.0 0.0 0.0 -1.0 -1.0 -0.0 -2.0
0.0 0.0 1.0 -1.0 -2.0 -3.0 6.0 -2.0
-1.0 4.0 2.0 4.0 0.0 -1.0 1.0 -2.0
3.0 -7.0 -1.0 1.0 -0.0 -0.0 1.0 -1.0
-1.0 -1.0 -7.0 -1.0 2.0 -4.0 -2.0 -3.0
4.0 1.0 1.0 0.0 5.0 0.0 1.0 -1.0
2.0 -0.0 1.0 -1.0 -1.0 -2.0 1.0 -5.0
-3.0 -2.0 4.0 -2.0 -1.0 -1.0 1.0 -2.0
1.0 1.0 5.0 3.0 -0.0 -2.0 -1.0 -1.0
-3.0 7.0 2.0 1.0 -2.0 -6.0 -4.0 -0.0
1.0 -5.0 -1.0 1.0 3.0 1.0 1.0 -0.0
1.0 -1.0 -1.0 0.0 1.0 -1.0 0.0 0.0
1.0 1.0 -1.0 -5.0 -1.0 1.0 1.0 -1.0
-1.0 -0.0 5.0 -0.0 1.0 -2.0 -0.0 0.0
0.0 -0.0 1.0 -1.0 2.0 -1.0 -2.0 -1.0
-1.0 -4.0 -6.0 1.0 1.0 -6.0 -2.0 -0.0
6.0 0.0 1.0 1.0 -0.0 -2.0 0.0 -0.0
0.0 -1.0 0.0 -1.0 1.0 -0.0 -0.0 2.0
3.0 -4.0 6.0 2.0 1.0 -2.0 -2.0 -5.0
0.0 1.0 1.0 -6.0 1.0 1.0 -2.0 -2.0
-1.0 3.0 -0.0 2.0 -1.0 2.0 3.0 -1.0
-2.0 3.0 -0.0 -2.0 -1.0 -4.0 -5.0 1.0
1.0 -5.0 1.0 -4.0 -2.0 -0.0 1.0 5.0
-1.0 1.0 0.0 5.0 4.0 0.0 -3.0 3.0
2.0 -4.0 -1.0 -6.0 -5.0 -0.0 4.0 -5.0

MatMul_2_param0 f4 [11, 3]
00000000: 0000 0080 0000 803f 0000 0080 0000 0000
00000010: 0000 0080 0000 8040 0000 e0c0 0000 40c0
00000020: 0000 c040 0000 0000 0000 803f 0000 40c0
00000030: 0000 80bf 0000 80bf 0000 a0c0 0000 80bf
00000040: 0000 80c0 0000 4040 0000 0080 0000 0000
00000050: 0000 0000 0000 803f 0000 803f 0000 40c0
00000060: 0000 c040 0000 0040 0000 803f 0000 803f
00000070: 0000 803f 0000 0040 0000 0000 0000 0040
00000080: 0000 0080
-0.0 1.0 -0.0 0.0 -0.0 4.0 -7.0 -3.0
6.0 0.0 1.0 -3.0 -1.0 -1.0 -5.0 -1.0
-4.0 3.0 -0.0 0.0 0.0 1.0 1.0 -3.0
6.0 2.0 1.0 1.0 1.0 2.0 0.0 2.0
-0.0

MatMul_3_param0 f4 [3, 1]
00000000: 0000 40c0 0000 0000 0000 e040
-3.0 0.0 7.0

Mul_0_param0 f4 [1, 14]
00000000: 0000 80bf 0000 803f 0000 803f 0000 803f
00000010: 0000 803f 0000 80bf 0000 803f 0000 803f
00000020: 0000 803f 0000 803f 0000 803f 0000 803f
00000030: 0000 803f 0000 803f
-1.0 1.0 1.0 1.0 1.0 -1.0 1.0 1.0
1.0 1.0 1.0 1.0 1.0 1.0

MultiThreshold_0_param0 f4 [14, 15]
00000000: dbda d9c1 5fb1 c3c1 e487 adc1 695e 97c1
00000010: ee34 81c1 e416 56c1 edc3 29c1 eee1 fac0
00000020: 003c a2c0 222c 13c0 a5fd f03e 8c6b 4f40
00000030: b85b c040 d280 0c41 c8d3 3841 e1e6 cbc0
00000040: d98b a3c0 a861 76c0 9bab 25c0 1eeb a9bf
00000050: 6bf0 87bd 14ed 983f 942c 1d40 a1e2 6d40
00000060: 574c 9f40 5ca7 c740 6102 f040 b52e 0c41
00000070: 375c 2041 ba89 3441 41c5 24bf c67e d7be
00000080: 1ae6 4abe fa8a c93c d548 7d3e 25b0 f03e
00000090: f15d 313f cd63 6a3f d6b4 913f c537 ae3f
000000a0: b3ba ca3f a13d e73f 49e0 0140 bf21 1040
000000b0: 3763 1e40 e214 11c0 5655 78bf a151 a73e
000000c0: 81d3 cf3f 4ce9 3a40 6bf4 8640 3274 b040
000000d0: f6f3 d940 deb9 0141 c179 1641 a439 2b41
000000e0: 86f9 3f41 6ab9 5441 4c79 6941 2f39 7e41
000000f0: 1103 02c3 e24a dfc2 a48f bac2 65d4 95c2
00000100: 4c32 62c2 cfbb 18c2 a08a 9ec1 7eda b9bf
00000110: 554f 8741 291e 0d42 a594 5642 9005 9042
00000120: d1c0 b442 0f7c d942 4d37 fe42 820d 7ac0
00000130: 00b4 67c0 7e5a 55c0 fa00 43c0 78a7 30c0
00000140: f64d 1ec0 73f4 0bc0 e235 f3bf dd82 cebf
00000150: d7cf a9bf d31c 85bf 9dd3 40bf 1fdb eebe
00000160: 1b1e 38be 0df4 da3d cbaf 3fc0 ebc3 28c0
00000170: 0dd8 11c0 5dd8 f5bf 9f00 c8bf e228 9abf
00000180: 48a2 58bf 9ee5 f9be 4d0d 05be a3b0 693e
00000190: a11b 163f 1acb 713f 4dbd a63f 0995 d43f
000001a0: 6236 0140 0dac 5ac0 179c 45c0 218c 30c0
000001b0: 2a7c 1bc0 346c 06c0 7bb8 e2bf 8d98 b8bf
000001c0: a178 8ebf 66b1 48bf 16e3 e8be cbc6 00be
000001d0: 9738 503e 044e 083f dd8d 5c3f da66 983f
000001e0: 0810 ddbf 8af4 acbf 1cb2 79bf 1f7b 19bf
000001f0: 9310 65be 56cb 1b3e d229 073f cb60 673f
00000200: e3cb a33f 62e7 d33f 6f01 0240 2d0f 1a40
00000210: ed1c 3240 ab2a 4a40 6938 6240 28bf f53d
00000220: 651f ec3e 7d67 4d3f a55f 923f 8b0b be3f
00000230: 72b7 e93f acb1 0a40 9f87 2040 925d 3640
00000240: 8633 4c40 7809 6240 6bdf 7740 b0da 8640
00000250: a9c5 9140 a2b0 9c40 2983 43bf 4c65 eabe
00000260: 9888 1bbe 73b9 1d3e bc7d eb3e 5f0f 443f
00000270: f12f 893f 3158 b03f 7380 d73f b4a8 fe3f
00000280: 7ae8 1240 9a7c 2640 bb10 3a40 dca4 4d40
00000290: fb38 6140 a561 fdbf b5ce bbbf 9077 74bf
000002a0: 63a3 e2be 5aa1 8e3d 08fa 143f f30f 8c3f
000002b0: e0a2 cd3f e89a 0740 6064 2840 d62d 4940
000002c0: 4df7 6940 6360 8540 1ec5 9540 d929 a640
000002d0: 7958 1cc0 1311 fcbf 3671 bfbf 56d1 82bf
000002e0: f062 0cbf 9619 99bd 1939 cc3e 475c 5f3f
000002f0: 034e ac3f e3ed e83f e0c6 1240 cf16 3140
00000300: c066 4f40 aeb6 6d40 4e03 8640 fc99 05c0
00000310: c58d e2bf 94e7 b9bf 6141 91bf 5e36 51bf
00000320: f5d3 ffbe 5476 3abe 35bb 0a3e 65f6 e73e
00000330: 9747 453f fd49 8b3f 2ef0 b33f 6296 dc3f
00000340: 4a9e 0240 62f1 1640
-27.231863 -24.461607 -21.691353 -18.921099 -16.150845 -13.380589 -10.610333 -7.8400793
-5.069824 -2.2995687 0.47068515 3.2409391 6.011196 8.78145 11.551704 -6.3719335
-5.1108212 -3.8497105 -2.588599 -1.3274877 -0.06637653 1.194735 2.4558458 3.7169573
4.978069 6.2391796 7.5002904 8.761403 10.022513 11.283625 -0.64363486 -0.42088908
-0.1981434 0.024602402 0.24734814 0.47009388 0.6928397 0.91558534 1.1383312 1.361077
1.5838226 1.8065683 2.0293143 2.2520597 2.4748056 -2.2668996 -0.9700521 0.32679465
1.6236421 2.9204893 4.217336 5.514184 6.8110304 8.107878 9.404725 10.701572
11.998419 13.295267 14.5921135 15.888961 -130.01198 -111.646255 -93.28055 -74.91483
-56.549118 -38.183407 -19.817688 -1.4519804 16.913736 35.279453 53.64516 72.010864
90.376595 108.7423 127.10801 -3.9070745 -3.6203613 -3.3336482 -3.0469346 -2.7602215
-2.4735084 -2.186795 -1.9000819 -1.6133686 -1.3266553 -1.0399421 -0.75322896 -0.4665155
-0.17980234 0.1069108 -2.9951046 -2.636958 -2.2788117 -1.9206654 -1.562519 -1.2043726
-0.8462262 -0.48807997 -0.12993355 0.22821288 0.5863591 0.94450533 1.302652 1.6607982
2.0189443 -3.4167511 -3.087652 -2.7585528 -2.4294534 -2.1003542 -1.7712549 -1.4421555
-1.1130563 -0.7839569 -0.45485753 -0.12575833 0.20334087 0.5324404 0.86153966 1.1906388
-1.7270517 -1.3512127 -0.975374 -0.5995349 -0.22369604 0.15214285 0.5279819 0.9038207
1.2796596 1.6554987 2.0313375 2.4071763 2.7830155 3.1588542 3.534693 0.11999351
0.46117702 0.80236036 1.1435438 1.4847273 1.8259108 2.1670942 2.5082777 2.849461
3.1906447 3.531828 3.8730114 4.2141953 4.5553784 4.8965616 -0.7637201 -0.45780408
-0.15188825 0.15402775 0.45994365 0.76585954 1.0717756 1.3776914 1.6836075 1.9895234
2.2954392 2.601355 2.9072711 3.2131872 3.5191028 -1.9795424 -1.4672457 -0.9549494
-0.4426528 0.06964369 0.5819402 1.0942367 1.606533 2.1188297 2.6311264 3.1434226
3.655719 4.168016 4.680312 5.1926084 -2.4429 -1.9692711 -1.4956424 -1.0220134
-0.54838467 -0.07475583 0.39887312 0.8725018 1.3461307 1.8197597 2.2933884 2.7670171
3.2406464 3.714275 4.1879034 -2.0875235 -1.7699515 -1.4523797 -1.1348077 -0.8172358
-0.49966398 -0.18209201 0.13547976 0.45305172 0.7706236 1.0881954 1.4057672 1.7233393
2.0409112 2.3584828

MultiThreshold_1_param0 f4 [31, 15]
00000000: 0000 4042 0000 4c42 0000 5c42 0000 6c42
00000010: 0000 7c42 0000 8442 0000 8c42 0000 9442
00000020: 0000 9a42 0000 a242 0000 aa42 0000 b242
00000030: 0000 b842 0000 c042 0000 c842 0000 0e43
00000040: 0000 8143 0000 bb43 0000 f543 0040 1744
00000050: 0040 3444 0040 5144 0040 6e44 0080 8544
00000060: 0000 9444 0080 a244 0000 b144 0080 bf44
00000070: 00e0 cd44 0060 dc44 0000 a040 0000 1041
00000080: 0000 5041 0000 9041 0000 b041 0000 d041
00000090: 0000 f041 0000 0c42 0000 1c42 0000 2c42
000000a0: 0000 4042 0000 5042 0000 6042 0000 7042
000000b0: 0000 8242 0000 9841 0000 d041 0000 0442
000000c0: 0000 2042 0000 3c42 0000 5c42 0000 7842
000000d0: 0000 8a42 0000 9842 0000 a642 0000 b642
000000e0: 0000 c442 0000 d242 0000 e042 0000 ee42
000000f0: 0000 8041 0000 0842 0000 5042 0000 8e42
00000100: 0000 b242 0000 d842 0000 fc42 0000 1143
00000110: 0000 2343 0000 3643 0000 4843 0000 5a43
00000120: 0000 6d43 0000 7f43 0000 8943 0000 1042
00000130: 0000 5c42 0000 9442 0000 ba42 0000 e242
00000140: 0000 0443 0000 1743 0000 2b43 0000 3e43
00000150: 0000 5143 0000 6443 0000 7843 0080 8543
00000160: 0000 8f43 0000 9943 0000 0040 0000 e040
00000170: 0000 5041 0000 9841 0000 c041 0000 f041
00000180: 0000 0c42 0000 2442 0000 3842 0000 5042
00000190: 0000 6442 0000 7c42 0000 8842 0000 9442
000001a0: 0000 9e42 0000 b8c1 0000 88c1 0000 30c1
000001b0: 0000 80c0 0000 0040 0000 0041 0000 6041
000001c0: 0000 a041 0000 d041 0000 0442 0000 1c42
000001d0: 0000 3442 0000 4c42 0000 6442 0000 7c42
000001e0: 0000 6842 0000 7c42 0000 8642 0000 8e42
000001f0: 0000 9842 0000 a042 0000 aa42 0000 b242
00000200: 0000 bc42 0000 c442 0000 cc42 0000 d642
00000210: 0000 de42 0000 e842 0000 f042 0000 8ec2
00000220: 0000 40c2 0000 c8c1 0000 40c0 0000 a041
00000230: 0000 2c42 0000 8442 0000 b042 0000 de42
00000240: 0000 0643 0000 1d43 0000 3343 0000 4a43
00000250: 0000 6143 0000 7743 0000 c040 0000 1041
00000260: 0000 4041 0000 7041 0000 9841 0000 b041
00000270: 0000 c841 0000 e041 0000 f841 0000 0842
00000280: 0000 1442 0000 2442 0000 3042 0000 3c42
00000290: 0000 4842 0000 3842 0000 4442 0000 5442
000002a0: 0000 6042 0000 7042 0000 7c42 0000 8642
000002b0: 0000 8c42 0000 9242 0000 9a42 0000 a042
000002c0: 0000 a842 0000 ae42 0000 b642 0000 bc42
000002d0: 0000 8e42 0000 9642 0000 a042 0000 a842
000002e0: 0000 b242 0000 ba42 0000 c242 0000 cc42
000002f0: 0000 d442 0000 dc42 0000 e642 0000 ee42
00000300: 0000 f842 0000 0043 0000 0443 0000 1843
00000310: 0080 8943 0080 c743 0080 0244 0040 2144
00000320: 0040 4044 0000 5f44 00c0 7d44 0060 8e44
00000330: 00c0 9d44 0020 ad44 00a0 bc44 0000 cc44
00000340: 0080 db44 00e0 ea44 0000 6042 0000 8042
00000350: 0000 9042 0000 a042 0000 b042 0000 c042
00000360: 0000 d042 0000 e042 0000 f042 0000 0043
00000370: 0000 0843 0000 1043 0000 1843 0000 2043
00000380: 0000 2843 0000 a242 0000 0c43 0000 4843
00000390: 0000 8243 0000 a043 0000 be43 0000 dc43
000003a0: 0000 fa43 00c0 0b44 00c0 1a44 00c0 2944
000003b0: 00c0 3844 00c0 4744 00c0 5644 00c0 6544
000003c0: 0000 b242 0000 b842 0000 be42 0000 c442
000003d0: 0000 ca42 0000 d242 0000 d842 0000 de42
000003e0: 0000 e442 0000 ea42 0000 f042 0000 f842
000003f0: 0000 fe42 0000 0243 0000 0543 0000 3842
48.0 51.0 55.0 59.0 63.0 66.0 70.0 74.0
77.0 81.0 85.0 89.0 92.0 96.0 100.0 142.0
258.0 374.0 490.0 605.0 721.0 837.0 953.0 1068.0
1184.0 1300.0 1416.0 1532.0 1647.0 1763.0 5.0 9.0
13.0 18.0 22.0 26.0 30.0 35.0 39.0 43.0
48.0 52.0 56.0 60.0 65.0 19.0 26.0 33.0
40.0 47.0 55.0 62.0 69.0 76.0 83.0 91.0
98.0 105.0 112.0 119.0 16.0 34.0 52.0 71.0
89.0 108.0 126.0 145.0 163.0 182.0 200.0 218.0
237.0 255.0 274.0 36.0 55.0 74.0 93.0 113.0
132.0 151.0 171.0 190.0 209.0 228.0 248.0 267.0
286.0 306.0 2.0 7.0 13.0 19.0 24.0 30.0
35.0 41.0 46.0 52.0 57.0 63.0 68.0 74.0
79.0 -23.0 -17.0 -11.0 -4.0 2.0 8.0 14.0
20.0 26.0 33.0 39.0 45.0 51.0 57.0 63.0
58.0 63.0 67.0 71.0 76.0 80.0 85.0 89.0
94.0 98.0 102.0 107.0 111.0 116.0 120.0 -71.0
-48.0 -25.0 -3.0 20.0 43.0 66.0 88.0 111.0
134.0 157.0 179.0 202.0 225.0 247.0 6.0 9.0
12.0 15.0 19.0 22.0 25.0 28.0 31.0 34.0
37.0 41.0 44.0 47.0 50.0 46.0 49.0 53.0
56.0 60.0 63.0 67.0 70.0 73.0 77.0 80.0
84.0 87.0 91.0 94.0 71.0 75.0 80.0 84.0
89.0 93.0 97.0 102.0 106.0 110.0 115.0 119.0
124.0 128.0 132.0 152.0 275.0 399.0 522.0 645.0
769.0 892.0 1015.0 1139.0 1262.0 1385.0 1509.0 1632.0
1756.0 1879.0 56.0 64.0 72.0 80.0 88.0 96.0
104.0 112.0 120.0 128.0 136.0 144.0 152.0 160.0
168.0 81.0 140.0 200.0 260.0 320.0 380.0 440.0
500.0 559.0 619.0 679.0 739.0 799.0 859.0 919.0
89.0 92.0 95.0 98.0 101.0 105.0 108.0 111.0
114.0 117.0 120.0 124.0 127.0 130.0 133.0 46.0

MultiThreshold_2_param0 f4 [11, 15]
00000000: 0000 ec42 0000 3d43 0080 8143 0080 a443
00000010: 0000 c843 0000 eb43 0000 0744 00c0 1844
00000020: 0040 2a44 00c0 3b44 0080 4d44 0000 5f44
00000030: 0080 7044 0020 8144 00e0 8944 0000 4842
00000040: 0000 8042 0000 9e42 0000 ba42 0000 d842
00000050: 0000 f442 0000 0943 0000 1743 0000 2643
00000060: 0000 3543 0000 4343 0000 5243 0000 6043
00000070: 0000 6f43 0000 7d43 0000 24c2 0000 c8c1
00000080: 0000 00c1 0000 0041 0000 c041 0000 2442
00000090: 0000 6442 0000 9442 0000 b442 0000 d442
000000a0: 0000 f642 0000 0b43 0000 1b43 0000 2c43
000000b0: 0000 3c43 0000 b8c2 0000 90c2 0000 50c2
000000c0: 0000 00c2 0000 40c1 0000 0041 0000 e041
000000d0: 0000 4042 0000 8842 0000 b042 0000 d842
000000e0: 0000 0043 0000 1443 0000 2843 0000 3c43
000000f0: 0000 8842 0000 b042 0000 d642 0000 fe42
00000100: 0000 1343 0000 2643 0000 3a43 0000 4e43
00000110: 0000 6143 0000 7543 0080 8443 0080 8e43
00000120: 0000 9843 0000 a243 0000 ac43 0000 d8c2
00000130: 0000 b6c2 0000 96c2 0000 6cc2 0000 28c2
00000140: 0000 d0c1 0000 10c1 0000 e040 0000 b841
00000150: 0000 2042 0000 6042 0000 9242 0000 b242
00000160: 0000 d242 0000 f442 0000 7e43 0000 e943
00000170: 0080 2944 0080 5e44 00e0 8944 0060 a444
00000180: 00e0 be44 0060 d944 00e0 f344 0030 0745
00000190: 0070 1445 00c0 2145 0000 2f45 0040 3c45
000001a0: 0080 4945 0000 38c3 0000 0ec3 0000 cac2
000001b0: 0000 70c2 0000 90c1 0000 b841 0000 8242
000001c0: 0000 d442 0000 1443 0000 3d43 0000 6643
000001d0: 0000 8843 0080 9c43 0080 b143 0000 c643
000001e0: 0000 fe42 0000 0f43 0000 1e43 0000 2d43
000001f0: 0000 3d43 0000 4c43 0000 5b43 0000 6b43
00000200: 0000 7a43 0000 8543 0080 8c43 0000 9443
00000210: 0000 9c43 0080 a343 0000 ab43 0000 68c2
00000220: 0000 70c1 0000 e841 0000 9042 0000 e642
00000230: 0000 1e43 0000 4a43 0000 7543 0000 9043
00000240: 0080 a543 0080 bb43 0000 d143 0080 e643
00000250: 0000 fc43 00c0 0844 0000 3041 0000 3c42
00000260: 0000 a642 0000 ee42 0000 1a43 0000 3e43
00000270: 0000 6243 0000 8343 0000 9543 0000 a743
00000280: 0000 b943 0000 cb43 0080 dc43 0080 ee43
00000290: 0040 0044
118.0 189.0 259.0 329.0 400.0 470.0 540.0 611.0
681.0 751.0 822.0 892.0 962.0 1033.0 1103.0 50.0
64.0 79.0 93.0 108.0 122.0 137.0 151.0 166.0
181.0 195.0 210.0 224.0 239.0 253.0 -41.0 -25.0
-8.0 8.0 24.0 41.0 57.0 74.0 90.0 106.0
123.0 139.0 155.0 172.0 188.0 -92.0 -72.0 -52.0
-32.0 -12.0 8.0 28.0 48.0 68.0 88.0 108.0
128.0 148.0 168.0 188.0 68.0 88.0 107.0 127.0
147.0 166.0 186.0 206.0 225.0 245.0 265.0 285.0
304.0 324.0 344.0 -108.0 -91.0 -75.0 -59.0 -42.0
-26.0 -9.0 7.0 23.0 40.0 56.0 73.0 89.0
105.0 122.0 254.0 466.0 678.0 890.0 1103.0 1315.0
1527.0 1739.0 1951.0 2163.0 2375.0 2588.0 2800.0 3012.0
3224.0 -184.0 -142.0 -101.0 -60.0 -18.0 23.0 65.0
106.0 148.0 189.0 230.0 272.0 313.0 355.0 396.0
127.0 143.0 158.0 173.0 189.0 204.0 219.0 235.0
250.0 266.0 281.0 296.0 312.0 327.0 342.0 -58.0
-15.0 29.0 72.0 115.0 158.0 202.0 245.0 288.0
331.0 375.0 418.0 461.0 504.0 547.0 11.0 47.0
83.0 119.0 154.0 190.0 226.0 262.0 298.0 334.0
370.0 406.0 441.0 477.0 513.0

MultiThreshold_3_param0 f4 [3, 15]
00000000: 0000 e8c1 0000 c8c1 0000 a0c1 0000 80c1
00000010: 0000 40c1 0000 e0c0 0000 40c0 0000 803f
00000020: 0000 c040 0000 2041 0000 6041 0000 9041
00000030: 0000 b841 0000 d841 0000 f841 0000 ac42
00000040: 0000 c442 0000 dc42 0000 f442 0000 0643
00000050: 0000 1243 0000 1e43 0000 2a43 0000 3743
00000060: 0000 4343 0000 4f43 0000 5b43 0000 6743
00000070: 0000 7343 0000 7f43 0000 3442 0000 5842
00000080: 0000 8042 0000 9242 0000 a642 0000 b842
00000090: 0000 cc42 0000 de42 0000 f042 0000 0243
000000a0: 0000 0b43 0000 1543 0000 1e43 0000 2843
000000b0: 0000 3143
-29.0 -25.0 -20.0 -16.0 -12.0 -7.0 -3.0 1.0
6.0 10.0 14.0 18.0 23.0 27.0 31.0 86.0
98.0 110.0 122.0 134.0 146.0 158.0 170.0 183.0
195.0 207.0 219.0 231.0 243.0 255.0 45.0 54.0
64.0 73.0 83.0 92.0 102.0 111.0 120.0 130.0
139.0 149.0 158.0 168.0 177.0

MultiThreshold_4_param0 f4 [1, 15]
00000000: 0000 5cc2 0000 30c2 0000 08c2 0000 b8c1
00000010: 0000 50c1 0000 00c0 0000 1041 0000 9841
00000020: 0000 f041 0000 2442 0000 4c42 0000 7842
00000030: 0000 9242 0000 a642 0000 bc42
-55.0 -44.0 -34.0 -23.0 -13.0 -2.0 9.0 19.0
30.0 41.0 51.0 62.0 73.0 83.0 94.0

MultiThreshold_5_param0 f4 [1, 15]
00000000: 0000 0000 0000 0000 0000 0000 0000 0000
00000010: 0000 0000 0000 0000 0000 0000 0000 0000
00000020: 0000 0040 0000 8040 0000 c040 0000 0041
00000030: 0000 2041 0000 4041 0000 6041
0.0 0.0 0.0 0.0 0.0 0.0 0.0 0.0
2.0 4.0 6.0 8.0 10.0 12.0 14.0
