output_final/intermediate_models/4_step_create_dataflow_partition.onnx (onnx, 19140 bytes, 9 tensors)

MatMul_0_param0 f4 [14, 31]
4.0 0.0 1.0 -0.0 -2.0 -0.0 0.0 -2.0
-1.0 1.0 1.0 2.0 1.0 -1.0 3.0 -2.0
-4.0 1.0 -2.0 2.0 0.0 4.0 -1.0 0.0
0.0 1.0 -2.0 0.0 1.0 -0.0 -3.0 -1.0
-2.0 1.0 -1.0 -8.0 -1.0 4.0 0.0 -4.0
1.0 -0.0 1.0 -0.0 1.0 5.0 -2.0 1.0
-1.0 -1.0 3.0 0.0 1.0 -6.0 1.0 -4.0
-2.0 1.0 -1.0 2.0 -2.0 -9.0 -12.0 0.0
-31.0 -2.0 -31.0 -31.0 6.0 1.0 12.0 -31.0
-31.0 -0.0 -31.0 -31.0 9.0 2.0 7.0 -31.0
-11.0 3.0 -12.0 -31.0 30.0 -31.0 -31.0 -31.0
-9.0 2.0 -31.0 1.0 -29.0 1.0 -1.0 0.0
-2.0 7.0 0.0 0.0 -1.0 0.0 -0.0 0.0
0.0 -0.0 -0.0 1.0 -2.0 -1.0 -0.0 -1.0
0.0 1.0 0.0 0.0 1.0 0.0 0.0 -3.0
-0.0 -0.0 -0.0 3.0 2.0 -3.0 0.0 -2.0
-1.0 0.0 1.0 -3.0 -0.0 -0.0 -0.0 0.0
0.0 -1.0 1.0 0.0 -0.0 0.0 0.0 0.0
0.0 1.0 -0.0 0.0 0.0 1.0 -1.0 0.0
-0.0 -3.0 -2.0 -31.0 -1.0 1.0 -1.0 -3.0
2.0 -31.0 -1.0 13.0 -0.0 1.0 31.0 2.0
1.0 1.0 -2.0 14.0 1.0 -7.0 -2.0 31.0
-0.0 -31.0 0.0 -31.0 0.0 -3.0 -4.0 0.0
-1.0 -2.0 0.0 -3.0 4.0 -1.0 3.0 -0.0
-2.0 -2.0 -2.0 5.0 -4.0 3.0 1.0 5.0
-2.0 -1.0 8.0 11.0 4.0 -4.0 1.0 -2.0
-24.0 8.0 1.0 5.0 3.0 -1.0 -6.0 0.0
6.0 -4.0 -2.0 2.0 -0.0 -13.0 5.0 -4.0
1.0 -9.0 10.0 5.0 4.0 1.0 5.0 16.0
2.0 -11.0 8.0 3.0 0.0 6.0 -1.0 -28.0
6.0 2.0 5.0 -2.0 -4.0 8.0 -1.0 -6.0
-2.0 1.0 15.0 -2.0 -4.0 -8.0 -16.0 -3.0
00000000: 0000 8040 0000 0000 0000 803f 0000 0080
00000010: 0000 00c0 0000 0080 0000 0000 0000 00c0
00000020: 0000 80bf 0000 803f 0000 803f 0000 0040
00000030: 0000 803f 0000 80bf 0000 4040 0000 00c0
00000040: 0000 80c0 0000 803f 0000 00c0 0000 0040
00000050: 0000 0000 0000 8040 0000 80bf 0000 0000
00000060: 0000 0000 0000 803f 0000 00c0 0000 0000
00000070: 0000 803f 0000 0080 0000 40c0 0000 80bf
00000080: 0000 00c0 0000 803f 0000 80bf 0000 00c1
00000090: 0000 80bf 0000 8040 0000 0000 0000 80c0
000000a0: 0000 803f 0000 0080 0000 803f 0000 0080
000000b0: 0000 803f 0000 a040 0000 00c0 0000 803f
000000c0: 0000 80bf 0000 80bf 0000 4040 0000 0000
000000d0: 0000 803f 0000 c0c0 0000 803f 0000 80c0
000000e0: 0000 00c0 0000 803f 0000 80bf 0000 0040
000000f0: 0000 00c0 0000 10c1 0000 40c1 0000 0000
00000100: 0000 f8c1 0000 00c0 0000 f8c1 0000 f8c1
00000110: 0000 c040 0000 803f 0000 4041 0000 f8c1
00000120: 0000 f8c1 0000 0080 0000 f8c1 0000 f8c1
00000130: 0000 1041 0000 0040 0000 e040 0000 f8c1
00000140: 0000 30c1 0000 4040 0000 40c1 0000 f8c1
00000150: 0000 f041 0000 f8c1 0000 f8c1 0000 f8c1
00000160: 0000 10c1 0000 0040 0000 f8c1 0000 803f
00000170: 0000 e8c1 0000 803f 0000 80bf 0000 0000
00000180: 0000 00c0 0000 e040 0000 0000 0000 0000
00000190: 0000 80bf 0000 0000 0000 0080 0000 0000
000001a0: 0000 0000 0000 0080 0000 0080 0000 803f
000001b0: 0000 00c0 0000 80bf 0000 0080 0000 80bf
000001c0: 0000 0000 0000 803f 0000 0000 0000 0000
000001d0: 0000 803f 0000 0000 0000 0000 0000 40c0
000001e0: 0000 0080 0000 0080 0000 0080 0000 4040
000001f0: 0000 0040 0000 40c0 0000 0000 0000 00c0
00000200: 0000 80bf 0000 0000 0000 803f 0000 40c0
00000210: 0000 0080 0000 0080 0000 0080 0000 0000
00000220: 0000 0000 0000 80bf 0000 803f 0000 0000
00000230: 0000 0080 0000 0000 0000 0000 0000 0000
00000240: 0000 0000 0000 803f 0000 0080 0000 0000
00000250: 0000 0000 0000 803f 0000 80bf 0000 0000
00000260: 0000 0080 0000 40c0 0000 00c0 0000 f8c1
00000270: 0000 80bf 0000 803f 0000 80bf 0000 40c0
00000280: 0000 0040 0000 f8c1 0000 80bf 0000 5041
00000290: 0000 0080 0000 803f 0000 f841 0000 0040
000002a0: 0000 803f 0000 803f 0000 00c0 0000 6041
000002b0: 0000 803f 0000 e0c0 0000 00c0 0000 f841
000002c0: 0000 0080 0000 f8c1 0000 0000 0000 f8c1
000002d0: 0000 0000 0000 40c0 0000 80c0 0000 0000
000002e0: 0000 80bf 0000 00c0 0000 0000 0000 40c0
000002f0: 0000 8040 0000 80bf 0000 4040 0000 0080
00000300: 0000 00c0 0000 00c0 0000 00c0 0000 a040
00000310: 0000 80c0 0000 4040 0000 803f 0000 a040
00000320: 0000 00c0 0000 80bf 0000 0041 0000 3041
00000330: 0000 8040 0000 80c0 0000 803f 0000 00c0
00000340: 0000 c0c1 0000 0041 0000 803f 0000 a040
00000350: 0000 4040 0000 80bf 0000 c0c0 0000 0000
00000360: 0000 c040 0000 80c0 0000 00c0 0000 0040
00000370: 0000 0080 0000 50c1 0000 a040 0000 80c0
00000380: 0000 803f 0000 10c1 0000 2041 0000 a040
00000390: 0000 8040 0000 803f 0000 a040 0000 8041
000003a0: 0000 0040 0000 30c1 0000 0041 0000 4040
000003b0: 0000 0000 0000 c040 0000 80bf 0000 e0c1
000003c0: 0000 c040 0000 0040 0000 a040 0000 00c0
000003d0: 0000 80c0 0000 0041 0000 80bf 0000 c0c0
000003e0: 0000 00c0 0000 803f 0000 7041 0000 00c0
000003f0: 0000 80c0 0000 00c1 0000 80c1 0000 40c0

MatMul_1_param0 f4 [31, 11]
-3.0 -1.0 -12.0 4.0 -1.0 15.0 0.0 15.0
7.0 5.0 -6.0 2.0 0.0 1.0 2.0 1.0
3.0 2.0 -2.0 -2.0 -3.0 3.0 -9.0 -3.0
-16.0 30.0 0.0 25.0 26.0 28.0 14.0 26.0
-10.0 2.0 -2.0 -2.0 -2.0 -1.0 -3.0 1.0
1.0 3.0 3.0 2.0 -26.0 -13.0 -18.0 21.0
-2.0 26.0 25.0 24.0 16.0 17.0 -14.0 -24.0
-9.0 -15.0 27.0 -3.0 28.0 31.0 26.0 30.0
20.0 -12.0 4.0 0.0 -11.0 -27.0 -3.0 0.0
-4.0 -7.0 -11.0 9.0 -7.0 -0.0 1.0 -3.0
0.0 -4.0 -1.0 2.0 1.0 0.0 -1.0 -1.0
1.0 2.0 5.0 -22.0 -1.0 1.0 6.0 -14.0
-20.0 -6.0 10.0 -26.0 -12.0 -21.0 16.0 -2.0
23.0 22.0 28.0 16.0 28.0 -11.0 -7.0 -8.0
-5.0 29.0 0.0 27.0 27.0 30.0 28.0 22.0
-18.0 3.0 1.0 9.0 -29.0 -6.0 -28.0 -22.0
-9.0 -20.0 -26.0 7.0 -23.0 -12.0 -8.0 22.0
0.0 27.0 25.0 27.0 21.0 22.0 -14.0 -26.0
0.0 -8.0 21.0 -3.0 20.0 24.0 28.0 15.0
24.0 -14.0 -4.0 -15.0 -31.0 -9.0 -1.0 -19.0
-31.0 -30.0 4.0 -21.0 -2.0 3.0 -1.0 3.0
2.0 -2.0 -3.0 3.0 -3.0 -2.0 3.0 2.0
2.0 -1.0 4.0 -3.0 -3.0 9.0 -5.0 -6.0
-14.0 8.0 8.0 -21.0 -4.0 -6.0 15.0 -4.0
28.0 26.0 19.0 10.0 14.0 -2.0 -4.0 -5.0
-9.0 -3.0 -4.0 1.0 6.0 1.0 2.0 3.0
-1.0 -15.0 -19.0 -27.0 16.0 -3.0 -20.0 -1.0
-13.0 14.0 3.0 -5.0 6.0 -2.0 9.0 -20.0
-6.0 -28.0 -12.0 0.0 -20.0 -20.0 7.0 -12.0
-8.0 -4.0 26.0 0.0 20.0 25.0 29.0 30.0
20.0 -11.0 2.0 -18.0 -8.0 -31.0 -2.0 -23.0
-27.0 -25.0 -16.0 -28.0 -11.0 -8.0 -7.0 -13.0
00000000: 0000 40c0 0000 80bf 0000 40c1 0000 8040
00000010: 0000 80bf 0000 7041 0000 0000 0000 7041
00000020: 0000 e040 0000 a040 0000 c0c0 0000 0040
00000030: 0000 0000 0000 803f 0000 0040 0000 803f
00000040: 0000 4040 0000 0040 0000 00c0 0000 00c0
00000050: 0000 40c0 0000 4040 0000 10c1 0000 40c0
00000060: 0000 80c1 0000 f041 0000 0000 0000 c841
00000070: 0000 d041 0000 e041 0000 6041 0000 d041
00000080: 0000 20c1 0000 0040 0000 00c0 0000 00c0
00000090: 0000 00c0 0000 80bf 0000 40c0 0000 803f
000000a0: 0000 803f 0000 4040 0000 4040 0000 0040
000000b0: 0000 d0c1 0000 50c1 0000 90c1 0000 a841
000000c0: 0000 00c0 0000 d041 0000 c841 0000 c041
000000d0: 0000 8041 0000 8841 0000 60c1 0000 c0c1
000000e0: 0000 10c1 0000 70c1 0000 d841 0000 40c0
000000f0: 0000 e041 0000 f841 0000 d041 0000 f041
00000100: 0000 a041 0000 40c1 0000 8040 0000 0000
00000110: 0000 30c1 0000 d8c1 0000 40c0 0000 0000
00000120: 0000 80c0 0000 e0c0 0000 30c1 0000 1041
00000130: 0000 e0c0 0000 0080 0000 803f 0000 40c0
00000140: 0000 0000 0000 80c0 0000 80bf 0000 0040
00000150: 0000 803f 0000 0000 0000 80bf 0000 80bf
00000160: 0000 803f 0000 0040 0000 a040 0000 b0c1
00000170: 0000 80bf 0000 803f 0000 c040 0000 60c1
00000180: 0000 a0c1 0000 c0c0 0000 2041 0000 d0c1
00000190: 0000 40c1 0000 a8c1 0000 8041 0000 00c0
000001a0: 0000 b841 0000 b041 0000 e041 0000 8041
000001b0: 0000 e041 0000 30c1 0000 e0c0 0000 00c1
000001c0: 0000 a0c0 0000 e841 0000 0000 0000 d841
000001d0: 0000 d841 0000 f041 0000 e041 0000 b041
000001e0: 0000 90c1 0000 4040 0000 803f 0000 1041
000001f0: 0000 e8c1 0000 c0c0 0000 e0c1 0000 b0c1
00000200: 0000 10c1 0000 a0c1 0000 d0c1 0000 e040
00000210: 0000 b8c1 0000 40c1 0000 00c1 0000 b041
00000220: 0000 0000 0000 d841 0000 c841 0000 d841
00000230: 0000 a841 0000 b041 0000 60c1 0000 d0c1
00000240: 0000 0000 0000 00c1 0000 a841 0000 40c0
00000250: 0000 a041 0000 c041 0000 e041 0000 7041
00000260: 0000 c041 0000 60c1 0000 80c0 0000 70c1
00000270: 0000 f8c1 0000 10c1 0000 80bf 0000 98c1
00000280: 0000 f8c1 0000 f0c1 0000 8040 0000 a8c1
00000290: 0000 00c0 0000 4040 0000 80bf 0000 4040
000002a0: 0000 0040 0000 00c0 0000 40c0 0000 4040
000002b0: 0000 40c0 0000 00c0 0000 4040 0000 0040
000002c0: 0000 0040 0000 80bf 0000 8040 0000 40c0
000002d0: 0000 40c0 0000 1041 0000 a0c0 0000 c0c0
000002e0: 0000 60c1 0000 0041 0000 0041 0000 a8c1
000002f0: 0000 80c0 0000 c0c0 0000 7041 0000 80c0
00000300: 0000 e041 0000 d041 0000 9841 0000 2041
00000310: 0000 6041 0000 00c0 0000 80c0 0000 a0c0
00000320: 0000 10c1 0000 40c0 0000 80c0 0000 803f
00000330: 0000 c040 0000 803f 0000 0040 0000 4040
00000340: 0000 80bf 0000 70c1 0000 98c1 0000 d8c1
00000350: 0000 8041 0000 40c0 0000 a0c1 0000 80bf
00000360: 0000 50c1 0000 6041 0000 4040 0000 a0c0
00000370: 0000 c040 0000 00c0 0000 1041 0000 a0c1
00000380: 0000 c0c0 0000 e0c1 0000 40c1 0000 0000
00000390: 0000 a0c1 0000 a0c1 0000 e040 0000 40c1
000003a0: 0000 00c1 0000 80c0 0000 d041 0000 0000
000003b0: 0000 a041 0000 c841 0000 e841 0000 f041
000003c0: 0000 a041 0000 30c1 0000 0040 0000 90c1
000003d0: 0000 00c1 0000 f8c1 0000 00c0 0000 b8c1
000003e0: 0000 d8c1 0000 c8c1 0000 80c1 0000 e0c1
000003f0: 0000 30c1 0000 00c1 0000 e0c0 0000 50c1

MatMul_2_param0 f4 [11, 3]
-19.0 31.0 16.0 7.0 10.0 -2.0 -21.0 -1.0
22.0 20.0 -5.0 -21.0 -6.0 -12.0 12.0 17.0
13.0 1.0 3.0 4.0 -26.0 30.0 -7.0 -14.0
19.0 -10.0 -25.0 8.0 -22.0 -20.0 -20.0 14.0
24.0
00000000: 0000 98c1 0000 f841 0000 8041 0000 e040
00000010: 0000 2041 0000 00c0 0000 a8c1 0000 80bf
00000020: 0000 b041 0000 a041 0000 a0c0 0000 a8c1
00000030: 0000 c0c0 0000 40c1 0000 4041 0000 8841
00000040: 0000 5041 0000 803f 0000 4040 0000 8040
00000050: 0000 d0c1 0000 f041 0000 e0c0 0000 60c1
00000060: 0000 9841 0000 20c1 0000 c8c1 0000 0041
00000070: 0000 b0c1 0000 a0c1 0000 a0c1 0000 6041
00000080: 0000 c041

MatMul_3_param0 f4 [3, 1]
-7.0 31.0 31.0
00000000: 0000 e0c0 0000 f841 0000 f841

MultiThreshold_0_param0 f4 [31, 63]
-61.0 -54.0 -46.0 -39.0 -32.0 -24.0 -17.0 -10.0
-2.0 5.0 12.0 20.0 27.0 35.0 42.0 49.0
57.0 64.0 71.0 79.0 86.0 94.0 101.0 108.0
116.0 123.0 130.0 138.0 145.0 152.0 160.0 167.0
175.0 182.0 189.0 197.0 204.0 211.0 219.0 226.0
233.0 241.0 248.0 256.0 263.0 270.0 278.0 285.0
292.0 300.0 307.0 314.0 322.0 329.0 337.0 344.0
351.0 359.0 366.0 373.0 381.0 388.0 395.0 7.0
14.0 22.0 29.0 36.0 44.0 51.0 59.0 66.0
73.0 81.0 88.0 95.0 103.0 110.0 117.0 125.0
132.0 140.0 147.0 154.0 162.0 169.0 176.0 184.0
191.0 198.0 206.0 213.0 221.0 228.0 235.0 243.0
250.0 257.0 265.0 272.0 279.0 287.0 294.0 302.0
309.0 316.0 324.0 331.0 338.0 346.0 353.0 360.0
368.0 375.0 383.0 390.0 397.0 405.0 412.0 419.0
427.0 434.0 442.0 449.0 456.0 464.0 -76.0 -69.0
-61.0 -54.0 -47.0 -39.0 -32.0 -24.0 -17.0 -10.0
-2.0 5.0 12.0 20.0 27.0 34.0 42.0 49.0
57.0 64.0 71.0 79.0 86.0 93.0 101.0 108.0
115.0 123.0 130.0 138.0 145.0 152.0 160.0 167.0
174.0 182.0 189.0 196.0 204.0 211.0 219.0 226.0
233.0 241.0 248.0 255.0 263.0 270.0 277.0 285.0
292.0 300.0 307.0 314.0 322.0 329.0 336.0 344.0
351.0 359.0 366.0 373.0 381.0 5.0 12.0 20.0
27.0 34.0 42.0 49.0 56.0 64.0 71.0 79.0
86.0 93.0 101.0 108.0 115.0 123.0 130.0 137.0
145.0 152.0 160.0 167.0 174.0 182.0 189.0 196.0
204.0 211.0 218.0 226.0 233.0 241.0 248.0 255.0
263.0 270.0 277.0 285.0 292.0 299.0 307.0 314.0
322.0 329.0 336.0 344.0 351.0 358.0 366.0 373.0
381.0 388.0 395.0 403.0 410.0 417.0 425.0 432.0
439.0 447.0 454.0 462.0 -2.0 5.0 13.0 20.0
00000000: 0000 74c2 0000 58c2 0000 38c2 0000 1cc2
00000010: 0000 00c2 0000 c0c1 0000 88c1 0000 20c1
00000020: 0000 00c0 0000 a040 0000 4041 0000 a041
00000030: 0000 d841 0000 0c42 0000 2842 0000 4442
00000040: 0000 6442 0000 8042 0000 8e42 0000 9e42
00000050: 0000 ac42 0000 bc42 0000 ca42 0000 d842
00000060: 0000 e842 0000 f642 0000 0243 0000 0a43
00000070: 0000 1143 0000 1843 0000 2043 0000 2743
00000080: 0000 2f43 0000 3643 0000 3d43 0000 4543
00000090: 0000 4c43 0000 5343 0000 5b43 0000 6243
000000a0: 0000 6943 0000 7143 0000 7843 0000 8043
000000b0: 0080 8343 0000 8743 0000 8b43 0080 8e43
000000c0: 0000 9243 0000 9643 0080 9943 0000 9d43
000000d0: 0000 a143 0080 a443 0080 a843 0000 ac43
000000e0: 0080 af43 0080 b343 0000 b743 0080 ba43
000000f0: 0080 be43 0000 c243 0080 c543 0000 e040
00000100: 0000 6041 0000 b041 0000 e841 0000 1042
00000110: 0000 3042 0000 4c42 0000 6c42 0000 8442
00000120: 0000 9242 0000 a242 0000 b042 0000 be42
00000130: 0000 ce42 0000 dc42 0000 ea42 0000 fa42
00000140: 0000 0443 0000 0c43 0000 1343 0000 1a43
00000150: 0000 2243 0000 2943 0000 3043 0000 3843
00000160: 0000 3f43 0000 4643 0000 4e43 0000 5543
00000170: 0000 5d43 0000 6443 0000 6b43 0000 7343
00000180: 0000 7a43 0080 8043 0080 8443 0000 8843
00000190: 0080 8b43 0080 8f43 0000 9343 0000 9743
000001a0: 0080 9a43 0000 9e43 0000 a243 0080 a543
000001b0: 0000 a943 0000 ad43 0080 b043 0000 b443
000001c0: 0000 b843 0080 bb43 0080 bf43 0000 c343
000001d0: 0080 c643 0080 ca43 0000 ce43 0080 d143
000001e0: 0080 d543 0000 d943 0000 dd43 0080 e043
000001f0: 0000 e443 0000 e843 0000 98c2 0000 8ac2
00000200: 0000 74c2 0000 58c2 0000 3cc2 0000 1cc2
00000210: 0000 00c2 0000 c0c1 0000 88c1 0000 20c1
00000220: 0000 00c0 0000 a040 0000 4041 0000 a041
00000230: 0000 d841 0000 0842 0000 2842 0000 4442
00000240: 0000 6442 0000 8042 0000 8e42 0000 9e42
00000250: 0000 ac42 0000 ba42 0000 ca42 0000 d842
00000260: 0000 e642 0000 f642 0000 0243 0000 0a43
00000270: 0000 1143 0000 1843 0000 2043 0000 2743
00000280: 0000 2e43 0000 3643 0000 3d43 0000 4443
00000290: 0000 4c43 0000 5343 0000 5b43 0000 6243
000002a0: 0000 6943 0000 7143 0000 7843 0000 7f43
000002b0: 0080 8343 0000 8743 0080 8a43 0080 8e43
000002c0: 0000 9243 0000 9643 0080 9943 0000 9d43
000002d0: 0000 a143 0080 a443 0000 a843 0000 ac43
000002e0: 0080 af43 0080 b343 0000 b743 0080 ba43
000002f0: 0080 be43 0000 a040 0000 4041 0000 a041
00000300: 0000 d841 0000 0842 0000 2842 0000 4442
00000310: 0000 6042 0000 8042 0000 8e42 0000 9e42
00000320: 0000 ac42 0000 ba42 0000 ca42 0000 d842
00000330: 0000 e642 0000 f642 0000 0243 0000 0943
00000340: 0000 1143 0000 1843 0000 2043 0000 2743
00000350: 0000 2e43 0000 3643 0000 3d43 0000 4443
00000360: 0000 4c43 0000 5343 0000 5a43 0000 6243
00000370: 0000 6943 0000 7143 0000 7843 0000 7f43
00000380: 0080 8343 0000 8743 0080 8a43 0080 8e43
00000390: 0000 9243 0080 9543 0080 9943 0000 9d43
000003a0: 0000 a143 0080 a443 0000 a843 0000 ac43
000003b0: 0080 af43 0000 b343 0000 b743 0080 ba43
000003c0: 0080 be43 0000 c243 0080 c543 0080 c943
000003d0: 0000 cd43 0080 d043 0080 d443 0000 d843
000003e0: 0080 db43 0080 df43 0000 e343 0000 e743
000003f0: 0000 00c0 0000 a040 0000 5041 0000 a041

MultiThreshold_1_param0 f4 [11, 63]
48.0 62.0 77.0 91.0 106.0 120.0 135.0 149.0
164.0 178.0 193.0 207.0 222.0 236.0 251.0 265.0
280.0 294.0 309.0 324.0 338.0 353.0 367.0 382.0
396.0 411.0 425.0 440.0 454.0 469.0 483.0 498.0
512.0 527.0 541.0 556.0 570.0 585.0 599.0 614.0
628.0 643.0 657.0 672.0 686.0 701.0 715.0 730.0
745.0 759.0 774.0 788.0 803.0 817.0 832.0 846.0
861.0 875.0 890.0 904.0 919.0 933.0 948.0 79.0
93.0 108.0 122.0 137.0 152.0 166.0 181.0 195.0
210.0 224.0 239.0 253.0 268.0 282.0 297.0 311.0
326.0 340.0 355.0 369.0 384.0 398.0 413.0 427.0
442.0 456.0 471.0 485.0 500.0 514.0 529.0 543.0
558.0 573.0 587.0 602.0 616.0 631.0 645.0 660.0
674.0 689.0 703.0 718.0 732.0 747.0 761.0 776.0
790.0 805.0 819.0 834.0 848.0 863.0 877.0 892.0
906.0 921.0 935.0 950.0 964.0 979.0 260.0 274.0
289.0 303.0 318.0 333.0 347.0 362.0 376.0 391.0
405.0 420.0 434.0 449.0 463.0 478.0 492.0 507.0
521.0 536.0 550.0 565.0 579.0 594.0 608.0 623.0
637.0 652.0 666.0 681.0 695.0 710.0 724.0 739.0
754.0 768.0 783.0 797.0 812.0 826.0 841.0 855.0
870.0 884.0 899.0 913.0 928.0 942.0 957.0 971.0
986.0 1000.0 1015.0 1029.0 1044.0 1058.0 1073.0 1087.0
1102.0 1116.0 1131.0 1145.0 1160.0 -50.0 -35.0 -21.0
-6.0 8.0 23.0 37.0 52.0 66.0 81.0 95.0
110.0 124.0 139.0 153.0 168.0 182.0 197.0 211.0
226.0 241.0 255.0 270.0 284.0 299.0 313.0 328.0
342.0 357.0 371.0 386.0 400.0 415.0 429.0 444.0
458.0 473.0 487.0 502.0 516.0 531.0 545.0 560.0
574.0 589.0 603.0 618.0 632.0 647.0 662.0 676.0
691.0 705.0 720.0 734.0 749.0 763.0 778.0 792.0
807.0 821.0 836.0 850.0 15.0 30.0 44.0 59.0
00000000: 0000 4042 0000 7842 0000 9a42 0000 b642
00000010: 0000 d442 0000 f042 0000 0743 0000 1543
00000020: 0000 2443 0000 3243 0000 4143 0000 4f43
00000030: 0000 5e43 0000 6c43 0000 7b43 0080 8443
00000040: 0000 8c43 0000 9343 0080 9a43 0000 a243
00000050: 0000 a943 0080 b043 0080 b743 0000 bf43
00000060: 0000 c643 0080 cd43 0080 d443 0000 dc43
00000070: 0000 e343 0080 ea43 0080 f143 0000 f943
00000080: 0000 0044 00c0 0344 0040 0744 0000 0b44
00000090: 0080 0e44 0040 1244 00c0 1544 0080 1944
000000a0: 0000 1d44 00c0 2044 0040 2444 0000 2844
000000b0: 0080 2b44 0040 2f44 00c0 3244 0080 3644
000000c0: 0040 3a44 00c0 3d44 0080 4144 0000 4544
000000d0: 00c0 4844 0040 4c44 0000 5044 0080 5344
000000e0: 0040 5744 00c0 5a44 0080 5e44 0000 6244
000000f0: 00c0 6544 0040 6944 0000 6d44 0000 9e42
00000100: 0000 ba42 0000 d842 0000 f442 0000 0943
00000110: 0000 1843 0000 2643 0000 3543 0000 4343
00000120: 0000 5243 0000 6043 0000 6f43 0000 7d43
00000130: 0000 8643 0000 8d43 0080 9443 0080 9b43
00000140: 0000 a343 0000 aa43 0080 b143 0080 b843
00000150: 0000 c043 0000 c743 0080 ce43 0080 d543
00000160: 0000 dd43 0000 e443 0080 eb43 0080 f243
00000170: 0000 fa43 0080 0044 0040 0444 00c0 0744
00000180: 0080 0b44 0040 0f44 00c0 1244 0080 1644
00000190: 0000 1a44 00c0 1d44 0040 2144 0000 2544
000001a0: 0080 2844 0040 2c44 00c0 2f44 0080 3344
000001b0: 0000 3744 00c0 3a44 0040 3e44 0000 4244
000001c0: 0080 4544 0040 4944 00c0 4c44 0080 5044
000001d0: 0000 5444 00c0 5744 0040 5b44 0000 5f44
000001e0: 0080 6244 0040 6644 00c0 6944 0080 6d44
000001f0: 0000 7144 00c0 7444 0000 8243 0000 8943
00000200: 0080 9043 0080 9743 0000 9f43 0080 a643
00000210: 0080 ad43 0000 b543 0000 bc43 0080 c343
00000220: 0080 ca43 0000 d243 0000 d943 0080 e043
00000230: 0080 e743 0000 ef43 0000 f643 0080 fd43
00000240: 0040 0244 0000 0644 0080 0944 0040 0d44
00000250: 00c0 1044 0080 1444 0000 1844 00c0 1b44
00000260: 0040 1f44 0000 2344 0080 2644 0040 2a44
00000270: 00c0 2d44 0080 3144 0000 3544 00c0 3844
00000280: 0080 3c44 0000 4044 00c0 4344 0040 4744
00000290: 0000 4b44 0080 4e44 0040 5244 00c0 5544
000002a0: 0080 5944 0000 5d44 00c0 6044 0040 6444
000002b0: 0000 6844 0080 6b44 0040 6f44 00c0 7244
000002c0: 0080 7644 0000 7a44 00c0 7d44 00a0 8044
000002d0: 0080 8244 0040 8444 0020 8644 00e0 8744
000002e0: 00c0 8944 0080 8b44 0060 8d44 0020 8f44
000002f0: 0000 9144 0000 48c2 0000 0cc2 0000 a8c1
00000300: 0000 c0c0 0000 0041 0000 b841 0000 1442
00000310: 0000 5042 0000 8442 0000 a242 0000 be42
00000320: 0000 dc42 0000 f842 0000 0b43 0000 1943
00000330: 0000 2843 0000 3643 0000 4543 0000 5343
00000340: 0000 6243 0000 7143 0000 7f43 0000 8743
00000350: 0000 8e43 0080 9543 0080 9c43 0000 a443
00000360: 0000 ab43 0080 b243 0080 b943 0000 c143
00000370: 0000 c843 0080 cf43 0080 d643 0000 de43
00000380: 0000 e543 0080 ec43 0080 f343 0000 fb43
00000390: 0000 0144 00c0 0444 0040 0844 0000 0c44
000003a0: 0080 0f44 0040 1344 00c0 1644 0080 1a44
000003b0: 0000 1e44 00c0 2144 0080 2544 0000 2944
000003c0: 00c0 2c44 0040 3044 0000 3444 0080 3744
000003d0: 0040 3b44 00c0 3e44 0080 4244 0000 4644
000003e0: 00c0 4944 0040 4d44 0000 5144 0080 5444
000003f0: 0000 7041 0000 f041 0000 3042 0000 6c42

MultiThreshold_2_param0 f4 [3, 63]
1171.0 1211.0 1250.0 1290.0 1330.0 1370.0 1409.0 1449.0
1489.0 1529.0 1568.0 1608.0 1648.0 1688.0 1727.0 1767.0
1807.0 1846.0 1886.0 1926.0 1966.0 2005.0 2045.0 2085.0
2125.0 2164.0 2204.0 2244.0 2284.0 2323.0 2363.0 2403.0
2443.0 2482.0 2522.0 2562.0 2601.0 2641.0 2681.0 2721.0
2760.0 2800.0 2840.0 2880.0 2919.0 2959.0 2999.0 3039.0
3078.0 3118.0 3158.0 3197.0 3237.0 3277.0 3317.0 3356.0
3396.0 3436.0 3476.0 3515.0 3555.0 3595.0 3635.0 -437.0
-397.0 -357.0 -317.0 -278.0 -238.0 -198.0 -158.0 -119.0
-79.0 -39.0 -0.0 40.0 80.0 120.0 159.0 199.0
239.0 279.0 318.0 358.0 398.0 438.0 477.0 517.0
557.0 596.0 636.0 676.0 716.0 755.0 795.0 835.0
875.0 914.0 954.0 994.0 1034.0 1073.0 1113.0 1153.0
1193.0 1232.0 1272.0 1312.0 1351.0 1391.0 1431.0 1471.0
1510.0 1550.0 1590.0 1630.0 1669.0 1709.0 1749.0 1789.0
1828.0 1868.0 1908.0 1948.0 1987.0 2027.0 -54.0 -14.0
26.0 65.0 105.0 145.0 185.0 224.0 264.0 304.0
344.0 383.0 423.0 463.0 503.0 542.0 582.0 622.0
662.0 701.0 741.0 781.0 820.0 860.0 900.0 940.0
979.0 1019.0 1059.0 1099.0 1138.0 1178.0 1218.0 1258.0
1297.0 1337.0 1377.0 1417.0 1456.0 1496.0 1536.0 1575.0
1615.0 1655.0 1695.0 1734.0 1774.0 1814.0 1854.0 1893.0
1933.0 1973.0 2013.0 2052.0 2092.0 2132.0 2171.0 2211.0
2251.0 2291.0 2330.0 2370.0 2410.0
00000000: 0060 9244 0060 9744 0040 9c44 0040 a144
00000010: 0040 a644 0040 ab44 0020 b044 0020 b544
00000020: 0020 ba44 0020 bf44 0000 c444 0000 c944
00000030: 0000 ce44 0000 d344 00e0 d744 00e0 dc44
00000040: 00e0 e144 00c0 e644 00c0 eb44 00c0 f044
00000050: 00c0 f544 00a0 fa44 00a0 ff44 0050 0245
00000060: 00d0 0445 0040 0745 00c0 0945 0040 0c45
00000070: 00c0 0e45 0030 1145 00b0 1345 0030 1645
00000080: 00b0 1845 0020 1b45 00a0 1d45 0020 2045
00000090: 0090 2245 0010 2545 0090 2745 0010 2a45
000000a0: 0080 2c45 0000 2f45 0080 3145 0000 3445
000000b0: 0070 3645 00f0 3845 0070 3b45 00f0 3d45
000000c0: 0060 4045 00e0 4245 0060 4545 00d0 4745
000000d0: 0050 4a45 00d0 4c45 0050 4f45 00c0 5145
000000e0: 0040 5445 00c0 5645 0040 5945 00b0 5b45
000000f0: 0030 5e45 00b0 6045 0030 6345 0080 dac3
00000100: 0080 c6c3 0080 b2c3 0080 9ec3 0000 8bc3
00000110: 0000 6ec3 0000 46c3 0000 1ec3 0000 eec2
00000120: 0000 9ec2 0000 1cc2 0000 0080 0000 2042
00000130: 0000 a042 0000 f042 0000 1f43 0000 4743
00000140: 0000 6f43 0080 8b43 0000 9f43 0000 b343
00000150: 0000 c743 0000 db43 0080 ee43 0040 0144
00000160: 0040 0b44 0000 1544 0000 1f44 0000 2944
00000170: 0000 3344 00c0 3c44 00c0 4644 00c0 5044
00000180: 00c0 5a44 0080 6444 0080 6e44 0080 7844
00000190: 0040 8144 0020 8644 0020 8b44 0020 9044
000001a0: 0020 9544 0000 9a44 0000 9f44 0000 a444
000001b0: 00e0 a844 00e0 ad44 00e0 b244 00e0 b744
000001c0: 00c0 bc44 00c0 c144 00c0 c644 00c0 cb44
000001d0: 00a0 d044 00a0 d544 00a0 da44 00a0 df44
000001e0: 0080 e444 0080 e944 0080 ee44 0080 f344
000001f0: 0060 f844 0060 fd44 0000 58c2 0000 60c1
00000200: 0000 d041 0000 8242 0000 d242 0000 1143
00000210: 0000 3943 0000 6043 0000 8443 0000 9843
00000220: 0000 ac43 0080 bf43 0080 d343 0080 e743
00000230: 0080 fb43 0080 0744 0080 1144 0080 1b44
00000240: 0080 2544 0040 2f44 0040 3944 0040 4344
00000250: 0000 4d44 0000 5744 0000 6144 0000 6b44
00000260: 00c0 7444 00c0 7e44 0060 8444 0060 8944
00000270: 0040 8e44 0040 9344 0040 9844 0040 9d44
00000280: 0020 a244 0020 a744 0020 ac44 0020 b144
00000290: 0000 b644 0000 bb44 0000 c044 00e0 c444
000002a0: 00e0 c944 00e0 ce44 00e0 d344 00c0 d844
000002b0: 00c0 dd44 00c0 e244 00c0 e744 00a0 ec44
000002c0: 00a0 f144 00a0 f644 00a0 fb44 0040 0045
000002d0: 00c0 0245 0040 0545 00b0 0745 0030 0a45
000002e0: 00b0 0c45 0030 0f45 00a0 1145 0020 1445
000002f0: 00a0 1645

MultiThreshold_3_param0 f4 [1, 63]
-484.0 -415.0 -346.0 -277.0 -209.0 -140.0 -71.0 -2.0
67.0 135.0 204.0 273.0 342.0 411.0 479.0 548.0
617.0 686.0 755.0 824.0 892.0 961.0 1030.0 1099.0
1168.0 1236.0 1305.0 1374.0 1443.0 1512.0 1580.0 1649.0
1718.0 1787.0 1856.0 1925.0 1993.0 2062.0 2131.0 2200.0
2269.0 2337.0 2406.0 2475.0 2544.0 2613.0 2682.0 2750.0
2819.0 2888.0 2957.0 3026.0 3094.0 3163.0 3232.0 3301.0
3370.0 3438.0 3507.0 3576.0 3645.0 3714.0 3783.0
00000000: 0000 f2c3 0080 cfc3 0000 adc3 0080 8ac3
00000010: 0000 51c3 0000 0cc3 0000 8ec2 0000 00c0
00000020: 0000 8642 0000 0743 0000 4c43 0080 8843
00000030: 0000 ab43 0080 cd43 0080 ef43 0000 0944
00000040: 0040 1a44 0080 2b44 00c0 3c44 0000 4e44
00000050: 0000 5f44 0040 7044 00c0 8044 0060 8944
00000060: 0000 9244 0080 9a44 0020 a344 00c0 ab44
00000070: 0060 b444 0000 bd44 0080 c544 0020 ce44
00000080: 00c0 d644 0060 df44 0000 e844 00a0 f044
00000090: 0020 f944 00e0 0045 0030 0545 0080 0945
000000a0: 00d0 0d45 0010 1245 0060 1645 00b0 1a45
000000b0: 0000 1f45 0050 2345 00a0 2745 00e0 2b45
000000c0: 0030 3045 0080 3445 00d0 3845 0020 3d45
000000d0: 0060 4145 00b0 4545 0000 4a45 0050 4e45
000000e0: 00a0 5245 00e0 5645 0030 5b45 0080 5f45
000000f0: 00d0 6345 0020 6845 0070 6c45

MultiThreshold_4_param0 f4 [1, 63]
0.0 0.0 0.0 0.0 0.0 0.0 0.0 0.0
0.0 0.0 0.0 0.0 0.0 0.0 0.0 0.0
0.0 0.0 0.0 0.0 0.0 0.0 0.0 0.0
0.0 0.0 0.0 0.0 0.0 0.0 0.0 0.0
2.0 4.0 6.0 8.0 10.0 12.0 14.0 16.0
18.0 20.0 22.0 24.0 26.0 28.0 30.0 32.0
34.0 36.0 38.0 40.0 42.0 44.0 46.0 48.0
50.0 52.0 54.0 56.0 58.0 60.0 62.0
00000000: 0000 0000 0000 0000 0000 0000 0000 0000
00000010: 0000 0000 0000 0000 0000 0000 0000 0000
00000020: 0000 0000 0000 0000 0000 0000 0000 0000
00000030: 0000 0000 0000 0000 0000 0000 0000 0000
00000040: 0000 0000 0000 0000 0000 0000 0000 0000
00000050: 0000 0000 0000 0000 0000 0000 0000 0000
00000060: 0000 0000 0000 0000 0000 0000 0000 0000
00000070: 0000 0000 0000 0000 0000 0000 0000 0000
00000080: 0000 0040 0000 8040 0000 c040 0000 0041
00000090: 0000 2041 0000 4041 0000 6041 0000 8041
000000a0: 0000 9041 0000 a041 0000 b041 0000 c041
000000b0: 0000 d041 0000 e041 0000 f041 0000 0042
000000c0: 0000 0842 0000 1042 0000 1842 0000 2042
000000d0: 0000 2842 0000 3042 0000 3842 0000 4042
000000e0: 0000 4842 0000 5042 0000 5842 0000 6042
000000f0: 0000 6842 0000 7042 0000 7842
