output_final/intermediate_models/6_step_apply_folding_config.onnx (onnx, 19338 bytes, 9 tensors)

MatMul_1_param0 f4 [31, 11]
-1.0 -5.0 5.0 -14.0 1.0 17.0 5.0 6.0
4.0 21.0 11.0 1.0 14.0 2.0 -6.0 1.0
-8.0 -1.0 9.0 6.0 3.0 3.0 -16.0 -5.0
2.0 4.0 -2.0 9.0 -5.0 6.0 -2.0 5.0
7.0 16.0 14.0 -11.0 -1.0 -16.0 30.0 6.0
6.0 6.0 9.0 18.0 -7.0 -9.0 3.0 16.0
-20.0 -8.0 -3.0 2.0 -13.0 9.0 13.0 -1.0
-6.0 5.0 -0.0 13.0 -3.0 -4.0 -13.0 -2.0
-10.0 5.0 27.0 27.0 13.0 4.0 -16.0 23.0
0.0 27.0 7.0 11.0 -14.0 -11.0 4.0 5.0
-1.0 3.0 18.0 2.0 -5.0 -1.0 5.0 2.0
19.0 25.0 -3.0 1.0 -6.0 11.0 -12.0 23.0
16.0 2.0 19.0 -1.0 -4.0 7.0 25.0 26.0
-6.0 -6.0 10.0 -17.0 10.0 5.0 -4.0 3.0
-5.0 -4.0 -11.0 -5.0 -9.0 -2.0 8.0 7.0
7.0 6.0 8.0 15.0 10.0 -17.0 30.0 -3.0
4.0 2.0 15.0 4.0 -10.0 -16.0 -4.0 11.0
10.0 -2.0 -10.0 -8.0 -15.0 6.0 -2.0 -2.0
16.0 -1.0 -4.0 -7.0 -5.0 -7.0 3.0 8.0
5.0 -4.0 2.0 -8.0 -1.0 1.0 6.0 -1.0
-6.0 6.0 -4.0 3.0 0.0 -19.0 -10.0 10.0
0.0 13.0 14.0 -2.0 7.0 -11.0 -2.0 15.0
-25.0 -1.0 6.0 -14.0 -14.0 21.0 16.0 -31.0
-14.0 2.0 -8.0 -14.0 -5.0 6.0 14.0 9.0
-6.0 -1.0 -17.0 8.0 4.0 15.0 -21.0 2.0
9.0 17.0 -9.0 12.0 -0.0 0.0 2.0 2.0
4.0 1.0 -0.0 -3.0 -2.0 3.0 -8.0 -0.0
9.0 -2.0 -13.0 1.0 9.0 1.0 -5.0 -4.0
-7.0 -0.0 -22.0 8.0 7.0 10.0 -4.0 0.0
15.0 -3.0 2.0 3.0 8.0 -14.0 5.0 7.0
5.0 -8.0 -5.0 -9.0 -0.0 16.0 -13.0 5.0
-18.0 -31.0 -0.0 13.0 2.0 -7.0 -14.0 10.0
00000000: 0000 80bf 0000 a0c0 0000 a040 0000 60c1
00000010: 0000 803f 0000 8841 0000 a040 0000 c040
00000020: 0000 8040 0000 a841 0000 3041 0000 803f
00000030: 0000 6041 0000 0040 0000 c0c0 0000 803f
00000040: 0000 00c1 0000 80bf 0000 1041 0000 c040
00000050: 0000 4040 0000 4040 0000 80c1 0000 a0c0
00000060: 0000 0040 0000 8040 0000 00c0 0000 1041
00000070: 0000 a0c0 0000 c040 0000 00c0 0000 a040
00000080: 0000 e040 0000 8041 0000 6041 0000 30c1
00000090: 0000 80bf 0000 80c1 0000 f041 0000 c040
000000a0: 0000 c040 0000 c040 0000 1041 0000 9041
000000b0: 0000 e0c0 0000 10c1 0000 4040 0000 8041
000000c0: 0000 a0c1 0000 00c1 0000 40c0 0000 0040
000000d0: 0000 50c1 0000 1041 0000 5041 0000 80bf
000000e0: 0000 c0c0 0000 a040 0000 0080 0000 5041
000000f0: 0000 40c0 0000 80c0 0000 50c1 0000 00c0
00000100: 0000 20c1 0000 a040 0000 d841 0000 d841
00000110: 0000 5041 0000 8040 0000 80c1 0000 b841
00000120: 0000 0000 0000 d841 0000 e040 0000 3041
00000130: 0000 60c1 0000 30c1 0000 8040 0000 a040
00000140: 0000 80bf 0000 4040 0000 9041 0000 0040
00000150: 0000 a0c0 0000 80bf 0000 a040 0000 0040
00000160: 0000 9841 0000 c841 0000 40c0 0000 803f
00000170: 0000 c0c0 0000 3041 0000 40c1 0000 b841
00000180: 0000 8041 0000 0040 0000 9841 0000 80bf
00000190: 0000 80c0 0000 e040 0000 c841 0000 d041
000001a0: 0000 c0c0 0000 c0c0 0000 2041 0000 88c1
000001b0: 0000 2041 0000 a040 0000 80c0 0000 4040
000001c0: 0000 a0c0 0000 80c0 0000 30c1 0000 a0c0
000001d0: 0000 10c1 0000 00c0 0000 0041 0000 e040
000001e0: 0000 e040 0000 c040 0000 0041 0000 7041
000001f0: 0000 2041 0000 88c1 0000 f041 0000 40c0
00000200: 0000 8040 0000 0040 0000 7041 0000 8040
00000210: 0000 20c1 0000 80c1 0000 80c0 0000 3041
00000220: 0000 2041 0000 00c0 0000 20c1 0000 00c1
00000230: 0000 70c1 0000 c040 0000 00c0 0000 00c0
00000240: 0000 8041 0000 80bf 0000 80c0 0000 e0c0
00000250: 0000 a0c0 0000 e0c0 0000 4040 0000 0041
00000260: 0000 a040 0000 80c0 0000 0040 0000 00c1
00000270: 0000 80bf 0000 803f 0000 c040 0000 80bf
00000280: 0000 c0c0 0000 c040 0000 80c0 0000 4040
00000290: 0000 0000 0000 98c1 0000 20c1 0000 2041
000002a0: 0000 0000 0000 5041 0000 6041 0000 00c0
000002b0: 0000 e040 0000 30c1 0000 00c0 0000 7041
000002c0: 0000 c8c1 0000 80bf 0000 c040 0000 60c1
000002d0: 0000 60c1 0000 a841 0000 8041 0000 f8c1
000002e0: 0000 60c1 0000 0040 0000 00c1 0000 60c1
000002f0: 0000 a0c0 0000 c040 0000 6041 0000 1041
00000300: 0000 c0c0 0000 80bf 0000 88c1 0000 0041
00000310: 0000 8040 0000 7041 0000 a8c1 0000 0040
00000320: 0000 1041 0000 8841 0000 10c1 0000 4041
00000330: 0000 0080 0000 0000 0000 0040 0000 0040
00000340: 0000 8040 0000 803f 0000 0080 0000 40c0
00000350: 0000 00c0 0000 4040 0000 00c1 0000 0080
00000360: 0000 1041 0000 00c0 0000 50c1 0000 803f
00000370: 0000 1041 0000 803f 0000 a0c0 0000 80c0
00000380: 0000 e0c0 0000 0080 0000 b0c1 0000 0041
00000390: 0000 e040 0000 2041 0000 80c0 0000 0000
000003a0: 0000 7041 0000 40c0 0000 0040 0000 4040
000003b0: 0000 0041 0000 60c1 0000 a040 0000 e040
000003c0: 0000 a040 0000 00c1 0000 a0c0 0000 10c1
000003d0: 0000 0080 0000 8041 0000 50c1 0000 a040
000003e0: 0000 90c1 0000 f8c1 0000 0080 0000 5041
000003f0: 0000 0040 0000 e0c0 0000 60c1 0000 2041

MatMul_3_param0 f4 [3, 1]
31.0 9.0 10.0
00000000: 0000 f841 0000 1041 0000 2041

MatMul_0_param0 f4 [14, 31]
3.0 -0.0 4.0 5.0 8.0 2.0 1.0 -1.0
-1.0 2.0 3.0 5.0 -2.0 -2.0 -8.0 3.0
1.0 8.0 1.0 0.0 2.0 -3.0 1.0 9.0
2.0 -2.0 6.0 -4.0 1.0 -4.0 0.0 -29.0
18.0 5.0 -2.0 2.0 4.0 -2.0 5.0 -3.0
-1.0 4.0 -3.0 -4.0 -1.0 -8.0 4.0 -15.0
4.0 12.0 1.0 1.0 -2.0 -10.0 2.0 -3.0
-1.0 -2.0 1.0 5.0 6.0 2.0 3.0 -6.0
2.0 3.0 -19.0 -9.0 5.0 -2.0 2.0 -1.0
-2.0 2.0 -14.0 7.0 0.0 4.0 -22.0 -15.0
4.0 14.0 -4.0 5.0 -28.0 -16.0 -14.0 -14.0
-20.0 0.0 1.0 -9.0 6.0 1.0 0.0 -3.0
-31.0 1.0 -2.0 31.0 -1.0 -31.0 -0.0 -3.0
22.0 -8.0 0.0 -1.0 -1.0 0.0 -1.0 0.0
0.0 0.0 0.0 -0.0 2.0 1.0 1.0 1.0
5.0 -0.0 9.0 0.0 1.0 -2.0 -5.0 -1.0
-2.0 2.0 0.0 3.0 1.0 0.0 0.0 -1.0
-0.0 0.0 3.0 -3.0 -4.0 2.0 -0.0 -2.0
-0.0 -1.0 1.0 -3.0 -1.0 -1.0 -2.0 3.0
4.0 2.0 1.0 -12.0 5.0 -22.0 -1.0 4.0
-2.0 4.0 -21.0 9.0 3.0 -11.0 1.0 8.0
8.0 5.0 -28.0 -3.0 -5.0 -15.0 9.0 17.0
10.0 7.0 -1.0 -5.0 3.0 5.0 -3.0 -16.0
-7.0 14.0 -0.0 -2.0 4.0 2.0 -4.0 5.0
2.0 12.0 4.0 2.0 -5.0 1.0 9.0 -1.0
-4.0 -0.0 14.0 4.0 -7.0 3.0 -4.0 -3.0
-0.0 6.0 9.0 -10.0 -3.0 -6.0 -1.0 1.0
5.0 3.0 -7.0 3.0 -1.0 5.0 4.0 2.0
7.0 6.0 -2.0 -7.0 -6.0 4.0 -2.0 -2.0
1.0 5.0 8.0 2.0 1.0 -4.0 1.0 -1.0
5.0 7.0 -4.0 -5.0 -2.0 1.0 -0.0 4.0
-2.0 -4.0 -5.0 -2.0 -1.0 4.0 3.0 7.0
00000000: 0000 4040 0000 0080 0000 8040 0000 a040
00000010: 0000 0041 0000 0040 0000 803f 0000 80bf
00000020: 0000 80bf 0000 0040 0000 4040 0000 a040
00000030: 0000 00c0 0000 00c0 0000 00c1 0000 4040
00000040: 0000 803f 0000 0041 0000 803f 0000 0000
00000050: 0000 0040 0000 40c0 0000 803f 0000 1041
00000060: 0000 0040 0000 00c0 0000 c040 0000 80c0
00000070: 0000 803f 0000 80c0 0000 0000 0000 e8c1
00000080: 0000 9041 0000 a040 0000 00c0 0000 0040
00000090: 0000 8040 0000 00c0 0000 a040 0000 40c0
000000a0: 0000 80bf 0000 8040 0000 40c0 0000 80c0
000000b0: 0000 80bf 0000 00c1 0000 8040 0000 70c1
000000c0: 0000 8040 0000 4041 0000 803f 0000 803f
000000d0: 0000 00c0 0000 20c1 0000 0040 0000 40c0
000000e0: 0000 80bf 0000 00c0 0000 803f 0000 a040
000000f0: 0000 c040 0000 0040 0000 4040 0000 c0c0
00000100: 0000 0040 0000 4040 0000 98c1 0000 10c1
00000110: 0000 a040 0000 00c0 0000 0040 0000 80bf
00000120: 0000 00c0 0000 0040 0000 60c1 0000 e040
00000130: 0000 0000 0000 8040 0000 b0c1 0000 70c1
00000140: 0000 8040 0000 6041 0000 80c0 0000 a040
00000150: 0000 e0c1 0000 80c1 0000 60c1 0000 60c1
00000160: 0000 a0c1 0000 0000 0000 803f 0000 10c1
00000170: 0000 c040 0000 803f 0000 0000 0000 40c0
00000180: 0000 f8c1 0000 803f 0000 00c0 0000 f841
00000190: 0000 80bf 0000 f8c1 0000 0080 0000 40c0
000001a0: 0000 b041 0000 00c1 0000 0000 0000 80bf
000001b0: 0000 80bf 0000 0000 0000 80bf 0000 0000
000001c0: 0000 0000 0000 0000 0000 0000 0000 0080
000001d0: 0000 0040 0000 803f 0000 803f 0000 803f
000001e0: 0000 a040 0000 0080 0000 1041 0000 0000
000001f0: 0000 803f 0000 00c0 0000 a0c0 0000 80bf
00000200: 0000 00c0 0000 0040 0000 0000 0000 4040
00000210: 0000 803f 0000 0000 0000 0000 0000 80bf
00000220: 0000 0080 0000 0000 0000 4040 0000 40c0
00000230: 0000 80c0 0000 0040 0000 0080 0000 00c0
00000240: 0000 0080 0000 80bf 0000 803f 0000 40c0
00000250: 0000 80bf 0000 80bf 0000 00c0 0000 4040
00000260: 0000 8040 0000 0040 0000 803f 0000 40c1
00000270: 0000 a040 0000 b0c1 0000 80bf 0000 8040
00000280: 0000 00c0 0000 8040 0000 a8c1 0000 1041
00000290: 0000 4040 0000 30c1 0000 803f 0000 0041
000002a0: 0000 0041 0000 a040 0000 e0c1 0000 40c0
000002b0: 0000 a0c0 0000 70c1 0000 1041 0000 8841
000002c0: 0000 2041 0000 e040 0000 80bf 0000 a0c0
000002d0: 0000 4040 0000 a040 0000 40c0 0000 80c1
000002e0: 0000 e0c0 0000 6041 0000 0080 0000 00c0
000002f0: 0000 8040 0000 0040 0000 80c0 0000 a040
00000300: 0000 0040 0000 4041 0000 8040 0000 0040
00000310: 0000 a0c0 0000 803f 0000 1041 0000 80bf
00000320: 0000 80c0 0000 0080 0000 6041 0000 8040
00000330: 0000 e0c0 0000 4040 0000 80c0 0000 40c0
00000340: 0000 0080 0000 c040 0000 1041 0000 20c1
00000350: 0000 40c0 0000 c0c0 0000 80bf 0000 803f
00000360: 0000 a040 0000 4040 0000 e0c0 0000 4040
00000370: 0000 80bf 0000 a040 0000 8040 0000 0040
00000380: 0000 e040 0000 c040 0000 00c0 0000 e0c0
00000390: 0000 c0c0 0000 8040 0000 00c0 0000 00c0
000003a0: 0000 803f 0000 a040 0000 0041 0000 0040
000003b0: 0000 803f 0000 80c0 0000 803f 0000 80bf
000003c0: 0000 a040 0000 e040 0000 80c0 0000 a0c0
000003d0: 0000 00c0 0000 803f 0000 0080 0000 8040
000003e0: 0000 00c0 0000 80c0 0000 a0c0 0000 00c0
000003f0: 0000 80bf 0000 8040 0000 4040 0000 e040

MatMul_2_param0 f4 [11, 3]
17.0 10.0 -6.0 21.0 -9.0 -18.0 -4.0 -4.0
-13.0 -10.0 -0.0 -17.0 3.0 -2.0 -16.0 -0.0
6.0 -31.0 -5.0 2.0 1.0 23.0 -3.0 -18.0
8.0 14.0 6.0 -7.0 -1.0 -5.0 -4.0 -7.0
-13.0
00000000: 0000 8841 0000 2041 0000 c0c0 0000 a841
00000010: 0000 10c1 0000 90c1 0000 80c0 0000 80c0
00000020: 0000 50c1 0000 20c1 0000 0080 0000 88c1
00000030: 0000 4040 0000 00c0 0000 80c1 0000 0080
00000040: 0000 c040 0000 f8c1 0000 a0c0 0000 0040
00000050: 0000 803f 0000 b841 0000 40c0 0000 90c1
00000060: 0000 0041 0000 6041 0000 c040 0000 e0c0
00000070: 0000 80bf 0000 a0c0 0000 80c0 0000 e0c0
00000080: 0000 50c1

MultiThreshold_1_param0 f4 [31, 63]
319.0 329.0 338.0 348.0 358.0 368.0 377.0 387.0
397.0 406.0 416.0 426.0 436.0 445.0 455.0 465.0
474.0 484.0 494.0 504.0 513.0 523.0 533.0 542.0
552.0 562.0 572.0 581.0 591.0 601.0 610.0 620.0
630.0 640.0 649.0 659.0 669.0 678.0 688.0 698.0
708.0 717.0 727.0 737.0 746.0 756.0 766.0 776.0
785.0 795.0 805.0 814.0 824.0 834.0 844.0 853.0
863.0 873.0 882.0 892.0 902.0 912.0 921.0 293.0
311.0 328.0 346.0 364.0 382.0 400.0 417.0 435.0
453.0 471.0 489.0 507.0 524.0 542.0 560.0 578.0
596.0 613.0 631.0 649.0 667.0 685.0 703.0 720.0
738.0 756.0 774.0 792.0 809.0 827.0 845.0 863.0
881.0 899.0 916.0 934.0 952.0 970.0 988.0 1005.0
1023.0 1041.0 1059.0 1077.0 1095.0 1112.0 1130.0 1148.0
1166.0 1184.0 1201.0 1219.0 1237.0 1255.0 1273.0 1291.0
1308.0 1326.0 1344.0 1362.0 1380.0 1397.0 -114.0 -81.0
-48.0 -14.0 19.0 52.0 85.0 119.0 152.0 185.0
219.0 252.0 285.0 318.0 352.0 385.0 418.0 451.0
485.0 518.0 551.0 585.0 618.0 651.0 684.0 718.0
751.0 784.0 817.0 851.0 884.0 917.0 951.0 984.0
1017.0 1050.0 1084.0 1117.0 1150.0 1184.0 1217.0 1250.0
1283.0 1317.0 1350.0 1383.0 1416.0 1450.0 1483.0 1516.0
1550.0 1583.0 1616.0 1649.0 1683.0 1716.0 1749.0 1782.0
1816.0 1849.0 1882.0 1916.0 1949.0 218.0 242.0 265.0
288.0 311.0 335.0 358.0 381.0 404.0 428.0 451.0
474.0 497.0 521.0 544.0 567.0 590.0 614.0 637.0
660.0 683.0 707.0 730.0 753.0 776.0 800.0 823.0
846.0 869.0 893.0 916.0 939.0 962.0 986.0 1009.0
1032.0 1055.0 1079.0 1102.0 1125.0 1148.0 1172.0 1195.0
1218.0 1241.0 1265.0 1288.0 1311.0 1334.0 1358.0 1381.0
1404.0 1427.0 1451.0 1474.0 1497.0 1520.0 1544.0 1567.0
1590.0 1613.0 1637.0 1660.0 1046.0 1067.0 1088.0 1110.0
00000000: 0080 9f43 0080 a443 0000 a943 0000 ae43
00000010: 0000 b343 0000 b843 0080 bc43 0080 c143
00000020: 0080 c643 0000 cb43 0000 d043 0000 d543
00000030: 0000 da43 0080 de43 0080 e343 0080 e843
00000040: 0000 ed43 0000 f243 0000 f743 0000 fc43
00000050: 0040 0044 00c0 0244 0040 0544 0080 0744
00000060: 0000 0a44 0080 0c44 0000 0f44 0040 1144
00000070: 00c0 1344 0040 1644 0080 1844 0000 1b44
00000080: 0080 1d44 0000 2044 0040 2244 00c0 2444
00000090: 0040 2744 0080 2944 0000 2c44 0080 2e44
000000a0: 0000 3144 0040 3344 00c0 3544 0040 3844
000000b0: 0080 3a44 0000 3d44 0080 3f44 0000 4244
000000c0: 0040 4444 00c0 4644 0040 4944 0080 4b44
000000d0: 0000 4e44 0080 5044 0000 5344 0040 5544
000000e0: 00c0 5744 0040 5a44 0080 5c44 0000 5f44
000000f0: 0080 6144 0000 6444 0040 6644 0080 9243
00000100: 0080 9b43 0000 a443 0000 ad43 0000 b643
00000110: 0000 bf43 0000 c843 0080 d043 0080 d943
00000120: 0080 e243 0080 eb43 0080 f443 0080 fd43
00000130: 0000 0344 0080 0744 0000 0c44 0080 1044
00000140: 0000 1544 0040 1944 00c0 1d44 0040 2244
00000150: 00c0 2644 0040 2b44 00c0 2f44 0000 3444
00000160: 0080 3844 0000 3d44 0080 4144 0000 4644
00000170: 0040 4a44 00c0 4e44 0040 5344 00c0 5744
00000180: 0040 5c44 00c0 6044 0000 6544 0080 6944
00000190: 0000 6e44 0080 7244 0000 7744 0040 7b44
000001a0: 00c0 7f44 0020 8244 0060 8444 00a0 8644
000001b0: 00e0 8844 0000 8b44 0040 8d44 0080 8f44
000001c0: 00c0 9144 0000 9444 0020 9644 0060 9844
000001d0: 00a0 9a44 00e0 9c44 0020 9f44 0060 a144
000001e0: 0080 a344 00c0 a544 0000 a844 0040 aa44
000001f0: 0080 ac44 00a0 ae44 0000 e4c2 0000 a2c2
00000200: 0000 40c2 0000 60c1 0000 9841 0000 5042
00000210: 0000 aa42 0000 ee42 0000 1843 0000 3943
00000220: 0000 5b43 0000 7c43 0080 8e43 0000 9f43
00000230: 0000 b043 0080 c043 0000 d143 0080 e143
00000240: 0080 f243 0080 0144 00c0 0944 0040 1244
00000250: 0080 1a44 00c0 2244 0000 2b44 0080 3344
00000260: 00c0 3b44 0000 4444 0040 4c44 00c0 5444
00000270: 0000 5d44 0040 6544 00c0 6d44 0000 7644
00000280: 0040 7e44 0040 8344 0080 8744 00a0 8b44
00000290: 00c0 8f44 0000 9444 0020 9844 0040 9c44
000002a0: 0060 a044 00a0 a444 00c0 a844 00e0 ac44
000002b0: 0000 b144 0040 b544 0060 b944 0080 bd44
000002c0: 00c0 c144 00e0 c544 0000 ca44 0020 ce44
000002d0: 0060 d244 0080 d644 00a0 da44 00c0 de44
000002e0: 0000 e344 0020 e744 0040 eb44 0080 ef44
000002f0: 00a0 f344 0000 5a43 0000 7243 0080 8443
00000300: 0000 9043 0080 9b43 0080 a743 0000 b343
00000310: 0080 be43 0000 ca43 0000 d643 0080 e143
00000320: 0000 ed43 0080 f843 0040 0244 0000 0844
00000330: 00c0 0d44 0080 1344 0080 1944 0040 1f44
00000340: 0000 2544 00c0 2a44 00c0 3044 0080 3644
00000350: 0040 3c44 0000 4244 0000 4844 00c0 4d44
00000360: 0080 5344 0040 5944 0040 5f44 0000 6544
00000370: 00c0 6a44 0080 7044 0080 7644 0040 7c44
00000380: 0000 8144 00e0 8344 00e0 8644 00c0 8944
00000390: 00a0 8c44 0080 8f44 0080 9244 0060 9544
000003a0: 0040 9844 0020 9b44 0020 9e44 0000 a144
000003b0: 00e0 a344 00c0 a644 00c0 a944 00a0 ac44
000003c0: 0080 af44 0060 b244 0060 b544 0040 b844
000003d0: 0020 bb44 0000 be44 0000 c144 00e0 c344
000003e0: 00c0 c644 00a0 c944 00a0 cc44 0080 cf44
000003f0: 00c0 8244 0060 8544 0000 8844 00c0 8a44

MultiThreshold_2_param0 f4 [11, 63]
-512.0 -468.0 -425.0 -382.0 -338.0 -295.0 -251.0 -208.0
-164.0 -121.0 -77.0 -34.0 10.0 53.0 96.0 140.0
183.0 227.0 270.0 314.0 357.0 401.0 444.0 487.0
531.0 574.0 618.0 661.0 705.0 748.0 792.0 835.0
879.0 922.0 965.0 1009.0 1052.0 1096.0 1139.0 1183.0
1226.0 1270.0 1313.0 1356.0 1400.0 1443.0 1487.0 1530.0
1574.0 1617.0 1661.0 1704.0 1748.0 1791.0 1834.0 1878.0
1921.0 1965.0 2008.0 2052.0 2095.0 2139.0 2182.0 -203.0
-152.0 -102.0 -52.0 -2.0 48.0 98.0 148.0 198.0
248.0 299.0 349.0 399.0 449.0 499.0 549.0 599.0
649.0 699.0 750.0 800.0 850.0 900.0 950.0 1000.0
1050.0 1100.0 1151.0 1201.0 1251.0 1301.0 1351.0 1401.0
1451.0 1501.0 1551.0 1602.0 1652.0 1702.0 1752.0 1802.0
1852.0 1902.0 1952.0 2002.0 2053.0 2103.0 2153.0 2203.0
2253.0 2303.0 2353.0 2403.0 2453.0 2504.0 2554.0 2604.0
2654.0 2704.0 2754.0 2804.0 2854.0 2905.0 888.0 920.0
953.0 985.0 1017.0 1050.0 1082.0 1114.0 1146.0 1179.0
1211.0 1243.0 1276.0 1308.0 1340.0 1372.0 1405.0 1437.0
1469.0 1502.0 1534.0 1566.0 1598.0 1631.0 1663.0 1695.0
1728.0 1760.0 1792.0 1825.0 1857.0 1889.0 1921.0 1954.0
1986.0 2018.0 2051.0 2083.0 2115.0 2147.0 2180.0 2212.0
2244.0 2277.0 2309.0 2341.0 2373.0 2406.0 2438.0 2470.0
2503.0 2535.0 2567.0 2599.0 2632.0 2664.0 2696.0 2729.0
2761.0 2793.0 2825.0 2858.0 2890.0 1317.0 1355.0 1394.0
1432.0 1471.0 1509.0 1548.0 1586.0 1624.0 1663.0 1701.0
1740.0 1778.0 1817.0 1855.0 1894.0 1932.0 1970.0 2009.0
2047.0 2086.0 2124.0 2163.0 2201.0 2239.0 2278.0 2316.0
2355.0 2393.0 2432.0 2470.0 2509.0 2547.0 2585.0 2624.0
2662.0 2701.0 2739.0 2778.0 2816.0 2855.0 2893.0 2931.0
2970.0 3008.0 3047.0 3085.0 3124.0 3162.0 3200.0 3239.0
3277.0 3316.0 3354.0 3393.0 3431.0 3470.0 3508.0 3546.0
3585.0 3623.0 3662.0 3700.0 817.0 872.0 926.0 980.0
00000000: 0000 00c4 0000 eac3 0080 d4c3 0000 bfc3
00000010: 0000 a9c3 0080 93c3 0000 7bc3 0000 50c3
00000020: 0000 24c3 0000 f2c2 0000 9ac2 0000 08c2
00000030: 0000 2041 0000 5442 0000 c042 0000 0c43
00000040: 0000 3743 0000 6343 0000 8743 0000 9d43
00000050: 0080 b243 0080 c843 0000 de43 0080 f343
00000060: 00c0 0444 0080 0f44 0080 1a44 0040 2544
00000070: 0040 3044 0000 3b44 0000 4644 00c0 5044
00000080: 00c0 5b44 0080 6644 0040 7144 0040 7c44
00000090: 0080 8344 0000 8944 0060 8e44 00e0 9344
000000a0: 0040 9944 00c0 9e44 0020 a444 0080 a944
000000b0: 0000 af44 0060 b444 00e0 b944 0040 bf44
000000c0: 00c0 c444 0020 ca44 00a0 cf44 0000 d544
000000d0: 0080 da44 00e0 df44 0040 e544 00c0 ea44
000000e0: 0020 f044 00a0 f544 0000 fb44 0040 0045
000000f0: 00f0 0245 00b0 0545 0060 0845 0000 4bc3
00000100: 0000 18c3 0000 ccc2 0000 50c2 0000 00c0
00000110: 0000 4042 0000 c442 0000 1443 0000 4643
00000120: 0000 7843 0080 9543 0080 ae43 0080 c743
00000130: 0080 e043 0080 f943 0040 0944 00c0 1544
00000140: 0040 2244 00c0 2e44 0080 3b44 0000 4844
00000150: 0080 5444 0000 6144 0080 6d44 0000 7a44
00000160: 0040 8344 0080 8944 00e0 8f44 0020 9644
00000170: 0060 9c44 00a0 a244 00e0 a844 0020 af44
00000180: 0060 b544 00a0 bb44 00e0 c144 0040 c844
00000190: 0080 ce44 00c0 d444 0000 db44 0040 e144
000001a0: 0080 e744 00c0 ed44 0000 f444 0040 fa44
000001b0: 0050 0045 0070 0345 0090 0645 00b0 0945
000001c0: 00d0 0c45 00f0 0f45 0010 1345 0030 1645
000001d0: 0050 1945 0080 1c45 00a0 1f45 00c0 2245
000001e0: 00e0 2545 0000 2945 0020 2c45 0040 2f45
000001f0: 0060 3245 0090 3545 0000 5e44 0000 6644
00000200: 0040 6e44 0040 7644 0040 7e44 0040 8344
00000210: 0040 8744 0040 8b44 0040 8f44 0060 9344
00000220: 0060 9744 0060 9b44 0080 9f44 0080 a344
00000230: 0080 a744 0080 ab44 00a0 af44 00a0 b344
00000240: 00a0 b744 00c0 bb44 00c0 bf44 00c0 c344
00000250: 00c0 c744 00e0 cb44 00e0 cf44 00e0 d344
00000260: 0000 d844 0000 dc44 0000 e044 0020 e444
00000270: 0020 e844 0020 ec44 0020 f044 0040 f444
00000280: 0040 f844 0040 fc44 0030 0045 0030 0245
00000290: 0030 0445 0030 0645 0040 0845 0040 0a45
000002a0: 0040 0c45 0050 0e45 0050 1045 0050 1245
000002b0: 0050 1445 0060 1645 0060 1845 0060 1a45
000002c0: 0070 1c45 0070 1e45 0070 2045 0070 2245
000002d0: 0080 2445 0080 2645 0080 2845 0090 2a45
000002e0: 0090 2c45 0090 2e45 0090 3045 00a0 3245
000002f0: 00a0 3445 00a0 a444 0060 a944 0040 ae44
00000300: 0000 b344 00e0 b744 00a0 bc44 0080 c144
00000310: 0040 c644 0000 cb44 00e0 cf44 00a0 d444
00000320: 0080 d944 0040 de44 0020 e344 00e0 e744
00000330: 00c0 ec44 0080 f144 0040 f644 0020 fb44
00000340: 00e0 ff44 0060 0245 00c0 0445 0030 0745
00000350: 0090 0945 00f0 0b45 0060 0e45 00c0 1045
00000360: 0030 1345 0090 1545 0000 1845 0060 1a45
00000370: 00d0 1c45 0030 1f45 0090 2145 0000 2445
00000380: 0060 2645 00d0 2845 0030 2b45 00a0 2d45
00000390: 0000 3045 0070 3245 00d0 3445 0030 3745
000003a0: 00a0 3945 0000 3c45 0070 3e45 00d0 4045
000003b0: 0040 4345 00a0 4545 0000 4845 0070 4a45
000003c0: 00d0 4c45 0040 4f45 00a0 5145 0010 5445
000003d0: 0070 5645 00e0 5845 0040 5b45 00a0 5d45
000003e0: 0010 6045 0070 6245 00e0 6445 0040 6745
000003f0: 0040 4c44 0000 5a44 0080 6744 0000 7544

MultiThreshold_5_param0 f4 [1, 63]
0.0 0.0 0.0 0.0 0.0 0.0 0.0 0.0
0.0 0.0 0.0 0.0 0.0 0.0 0.0 0.0
0.0 0.0 0.0 0.0 0.0 0.0 0.0 0.0
0.0 0.0 0.0 0.0 0.0 0.0 0.0 0.0
2.0 4.0 6.0 8.0 10.0 12.0 14.0 16.0
18.0 20.0 22.0 24.0 26.0 28.0 30.0 32.0
34.0 36.0 38.0 40.0 42.0 44.0 46.0 48.0
50.0 52.0 54.0 56.0 58.0 60.0 63.0
00000000: 0000 0000 0000 0000 0000 0000 0000 0000
00000010: 0000 0000 0000 0000 0000 0000 0000 0000
00000020: 0000 0000 0000 0000 0000 0000 0000 0000
00000030: 0000 0000 0000 0000 0000 0000 0000 0000
00000040: 0000 0000 0000 0000 0000 0000 0000 0000
00000050: 0000 0000 0000 0000 0000 0000 0000 0000
00000060: 0000 0000 0000 0000 0000 0000 0000 0000
00000070: 0000 0000 0000 0000 0000 0000 0000 0000
00000080: 0000 0040 0000 8040 0000 c040 0000 0041
00000090: 0000 2041 0000 4041 0000 6041 0000 8041
000000a0: 0000 9041 0000 a041 0000 b041 0000 c041
000000b0: 0000 d041 0000 e041 0000 f041 0000 0042
000000c0: 0000 0842 0000 1042 0000 1842 0000 2042
000000d0: 0000 2842 0000 3042 0000 3842 0000 4042
000000e0: 0000 4842 0000 5042 0000 5842 0000 6042
000000f0: 0000 6842 0000 7042 0000 7c42

MultiThreshold_3_param0 f4 [3, 63]
-59.0 -12.0 36.0 83.0 131.0 179.0 226.0 274.0
322.0 369.0 417.0 465.0 512.0 560.0 608.0 655.0
703.0 751.0 798.0 846.0 894.0 941.0 989.0 1037.0
1084.0 1132.0 1179.0 1227.0 1275.0 1322.0 1370.0 1418.0
1465.0 1513.0 1561.0 1608.0 1656.0 1704.0 1751.0 1799.0
1847.0 1894.0 1942.0 1990.0 2037.0 2085.0 2133.0 2180.0
2228.0 2275.0 2323.0 2371.0 2418.0 2466.0 2514.0 2561.0
2609.0 2657.0 2704.0 2752.0 2800.0 2847.0 2895.0 1015.0
1359.0 1704.0 2049.0 2393.0 2738.0 3082.0 3427.0 3772.0
4116.0 4461.0 4806.0 5150.0 5495.0 5839.0 6184.0 6529.0
6873.0 7218.0 7563.0 7907.0 8252.0 8596.0 8941.0 9286.0
9630.0 9975.0 10319.0 10664.0 11009.0 11353.0 11698.0 12043.0
12387.0 12732.0 13076.0 13421.0 13766.0 14110.0 14455.0 14799.0
15144.0 15489.0 15833.0 15940.0 15940.0 15940.0 15940.0 15940.0
15940.0 15940.0 15940.0 15940.0 15940.0 15940.0 15940.0 15940.0
15940.0 15940.0 15940.0 15940.0 15940.0 15940.0 -476.0 -437.0
-398.0 -359.0 -320.0 -281.0 -242.0 -203.0 -164.0 -125.0
-86.0 -47.0 -8.0 31.0 70.0 109.0 148.0 187.0
226.0 265.0 304.0 343.0 382.0 421.0 460.0 499.0
538.0 577.0 616.0 655.0 694.0 733.0 772.0 811.0
850.0 889.0 928.0 967.0 1006.0 1045.0 1084.0 1123.0
1162.0 1201.0 1240.0 1279.0 1318.0 1357.0 1396.0 1435.0
1474.0 1513.0 1552.0 1591.0 1630.0 1669.0 1708.0 1747.0
1786.0 1825.0 1864.0 1903.0 1942.0
00000000: 0000 6cc2 0000 40c1 0000 1042 0000 a642
00000010: 0000 0343 0000 3343 0000 6243 0000 8943
00000020: 0000 a143 0080 b843 0080 d043 0080 e843
00000030: 0000 0044 0000 0c44 0000 1844 00c0 2344
00000040: 00c0 2f44 00c0 3b44 0080 4744 0080 5344
00000050: 0080 5f44 0040 6b44 0040 7744 00a0 8144
00000060: 0080 8744 0080 8d44 0060 9344 0060 9944
00000070: 0060 9f44 0040 a544 0040 ab44 0040 b144
00000080: 0020 b744 0020 bd44 0020 c344 0000 c944
00000090: 0000 cf44 0000 d544 00e0 da44 00e0 e044
000000a0: 00e0 e644 00c0 ec44 00c0 f244 00c0 f844
000000b0: 00a0 fe44 0050 0245 0050 0545 0040 0845
000000c0: 0040 0b45 0030 0e45 0030 1145 0030 1445
000000d0: 0020 1745 0020 1a45 0020 1d45 0010 2045
000000e0: 0010 2345 0010 2645 0000 2945 0000 2c45
000000f0: 0000 2f45 00f0 3145 00f0 3445 00c0 7d44
00000100: 00e0 a944 0000 d544 0010 0045 0090 1545
00000110: 0020 2b45 00a0 4045 0030 5645 00c0 6b45
00000120: 00a0 8045 0068 8b45 0030 9645 00f0 a045
00000130: 00b8 ab45 0078 b645 0040 c145 0008 cc45
00000140: 00c8 d645 0090 e145 0058 ec45 0018 f745
00000150: 00f0 0046 0050 0646 00b4 0b46 0018 1146
00000160: 0078 1646 00dc 1b46 003c 2146 00a0 2646
00000170: 0004 2c46 0064 3146 00c8 3646 002c 3c46
00000180: 008c 4146 00f0 4646 0050 4c46 00b4 5146
00000190: 0018 5746 0078 5c46 00dc 6146 003c 6746
000001a0: 00a0 6c46 0004 7246 0064 7746 0010 7946
000001b0: 0010 7946 0010 7946 0010 7946 0010 7946
000001c0: 0010 7946 0010 7946 0010 7946 0010 7946
000001d0: 0010 7946 0010 7946 0010 7946 0010 7946
000001e0: 0010 7946 0010 7946 0010 7946 0010 7946
000001f0: 0010 7946 0010 7946 0000 eec3 0080 dac3
00000200: 0000 c7c3 0080 b3c3 0000 a0c3 0080 8cc3
00000210: 0000 72c3 0000 4bc3 0000 24c3 0000 fac2
00000220: 0000 acc2 0000 3cc2 0000 00c1 0000 f841
00000230: 0000 8c42 0000 da42 0000 1443 0000 3b43
00000240: 0000 6243 0080 8443 0000 9843 0080 ab43
00000250: 0000 bf43 0080 d243 0000 e643 0080 f943
00000260: 0080 0644 0040 1044 0000 1a44 00c0 2344
00000270: 0080 2d44 0040 3744 0000 4144 00c0 4a44
00000280: 0080 5444 0040 5e44 0000 6844 00c0 7144
00000290: 0080 7b44 00a0 8244 0080 8744 0060 8c44
000002a0: 0040 9144 0020 9644 0000 9b44 00e0 9f44
000002b0: 00c0 a444 00a0 a944 0080 ae44 0060 b344
000002c0: 0040 b844 0020 bd44 0000 c244 00e0 c644
000002d0: 00c0 cb44 00a0 d044 0080 d544 0060 da44
000002e0: 0040 df44 0020 e444 0000 e944 00e0 ed44
000002f0: 00c0 f244

MultiThreshold_4_param0 f4 [1, 63]
0.0 0.0 30.0 61.0 93.0 124.0 156.0 187.0
219.0 250.0 282.0 313.0 345.0 376.0 408.0 439.0
471.0 502.0 534.0 565.0 597.0 628.0 660.0 691.0
723.0 755.0 786.0 818.0 849.0 881.0 912.0 944.0
975.0 1007.0 1038.0 1070.0 1101.0 1133.0 1164.0 1196.0
1227.0 1259.0 1290.0 1322.0 1353.0 1385.0 1416.0 1448.0
1479.0 1511.0 1542.0 1574.0 1605.0 1637.0 1668.0 1700.0
1731.0 1763.0 1794.0 1826.0 1857.0 1889.0 1920.0
00000000: 0000 0000 0000 0000 0000 f041 0000 7442
00000010: 0000 ba42 0000 f842 0000 1c43 0000 3b43
00000020: 0000 5b43 0000 7a43 0000 8d43 0080 9c43
00000030: 0080 ac43 0000 bc43 0000 cc43 0080 db43
00000040: 0080 eb43 0000 fb43 0080 0544 0040 0d44
00000050: 0040 1544 0000 1d44 0000 2544 00c0 2c44
00000060: 00c0 3444 00c0 3c44 0080 4444 0080 4c44
00000070: 0040 5444 0040 5c44 0000 6444 0000 6c44
00000080: 00c0 7344 00c0 7b44 00c0 8144 00c0 8544
00000090: 00a0 8944 00a0 8d44 0080 9144 0080 9544
000000a0: 0060 9944 0060 9d44 0040 a144 0040 a544
000000b0: 0020 a944 0020 ad44 0000 b144 0000 b544
000000c0: 00e0 b844 00e0 bc44 00c0 c044 00c0 c444
000000d0: 00a0 c844 00a0 cc44 0080 d044 0080 d444
000000e0: 0060 d844 0060 dc44 0040 e044 0040 e444
000000f0: 0020 e844 0020 ec44 0000 f044
