output_final/intermediate_models/9_step_set_fifo_depths.onnx (onnx, 22492 bytes, 8 tensors)

StreamingFCLayer_Batch_0_param0 f4 [14, 31]
00000000: 0000 00c0 0000 40c0 0000 80bf 0000 803f
00000010: 0000 00c0 0000 e0c0 0000 a0c0 0000 803f
00000020: 0000 803f 0000 80bf 0000 a0c0 0000 803f
00000030: 0000 00c0 0000 4040 0000 0000 0000 80bf
00000040: 0000 0040 0000 803f 0000 0080 0000 0040
00000050: 0000 4040 0000 40c0 0000 80bf 0000 0080
00000060: 0000 00c0 0000 00c0 0000 0080 0000 4040
00000070: 0000 80bf 0000 00c0 0000 80bf 0000 c0c0
00000080: 0000 80c0 0000 80bf 0000 803f 0000 40c1
00000090: 0000 c0c0 0000 40c0 0000 0000 0000 0000
000000a0: 0000 803f 0000 80c0 0000 0040 0000 40c0
000000b0: 0000 803f 0000 30c1 0000 40c0 0000 0000
000000c0: 0000 0000 0000 0000 0000 0040 0000 a040
000000d0: 0000 a0c0 0000 00c0 0000 80bf 0000 00c0
000000e0: 0000 0080 0000 80bf 0000 a040 0000 40c1
000000f0: 0000 00c0 0000 20c1 0000 80c1 0000 a0c0
00000100: 0000 40c0 0000 f8c1 0000 f8c1 0000 803f
00000110: 0000 e040 0000 f0c1 0000 f8c1 0000 f8c1
00000120: 0000 80bf 0000 f8c1 0000 00c0 0000 f8c1
00000130: 0000 f8c1 0000 d0c1 0000 8041 0000 f8c1
00000140: 0000 f8c1 0000 f8c1 0000 4041 0000 a0c0
00000150: 0000 e040 0000 803f 0000 c841 0000 80bf
00000160: 0000 1041 0000 8040 0000 f8c1 0000 0040
00000170: 0000 f8c1 0000 803f 0000 0000 0000 0040
00000180: 0000 0000 0000 8040 0000 80bf 0000 40c0
00000190: 0000 80bf 0000 0000 0000 0040 0000 80bf
000001a0: 0000 80bf 0000 00c0 0000 0000 0000 0000
000001b0: 0000 0080 0000 90c1 0000 803f 0000 80bf
000001c0: 0000 803f 0000 0000 0000 0080 0000 00c1
000001d0: 0000 80bf 0000 f8c1 0000 0000 0000 80bf
000001e0: 0000 803f 0000 b0c1 0000 40c0 0000 e040
000001f0: 0000 80bf 0000 80bf 0000 0080 0000 0080
00000200: 0000 0000 0000 0080 0000 80bf 0000 0000
00000210: 0000 0000 0000 80bf 0000 40c0 0000 80bf
00000220: 0000 00c0 0000 803f 0000 0000 0000 0080
00000230: 0000 0000 0000 0000 0000 803f 0000 0000
00000240: 0000 803f 0000 0000 0000 00c0 0000 0000
00000250: 0000 80bf 0000 40c0 0000 0080 0000 0000
00000260: 0000 0000 0000 0080 0000 0000 0000 80bf
00000270: 0000 40c0 0000 f841 0000 80bf 0000 8040
00000280: 0000 4040 0000 98c1 0000 00c0 0000 80bf
00000290: 0000 803f 0000 803f 0000 0000 0000 40c0
000002a0: 0000 00c0 0000 f8c1 0000 80bf 0000 0041
000002b0: 0000 803f 0000 0000 0000 80bf 0000 2041
000002c0: 0000 e0c0 0000 80bf 0000 f841 0000 a040
000002d0: 0000 0080 0000 f0c1 0000 9041 0000 d841
000002e0: 0000 80bf 0000 80bf 0000 80bf 0000 803f
000002f0: 0000 803f 0000 3041 0000 1041 0000 80bf
00000300: 0000 90c1 0000 4040 0000 a040 0000 a040
00000310: 0000 0080 0000 00c0 0000 0000 0000 00c1
00000320: 0000 a040 0000 803f 0000 c0c0 0000 1041
00000330: 0000 803f 0000 0080 0000 80c0 0000 80bf
00000340: 0000 803f 0000 4040 0000 4041 0000 80bf
00000350: 0000 60c1 0000 2041 0000 8040 0000 803f
00000360: 0000 4040 0000 40c0 0000 80bf 0000 803f
00000370: 0000 e040 0000 c040 0000 803f 0000 80c1
00000380: 0000 0000 0000 803f 0000 803f 0000 80bf
00000390: 0000 8040 0000 00c0 0000 80c0 0000 8040
000003a0: 0000 0040 0000 00c1 0000 a040 0000 e040
000003b0: 0000 1041 0000 2041 0000 80c0 0000 80bf
000003c0: 0000 a040 0000 0040 0000 4040 0000 30c1
000003d0: 0000 1041 0000 8040 0000 80bf 0000 80bf
000003e0: 0000 a040 0000 0040 0000 80bf 0000 e040
000003f0: 0000 e040 0000 00c0 0000 a8c1 0000 803f
-2.0 -3.0 -1.0 1.0 -2.0 -7.0 -5.0 1.0
1.0 -1.0 -5.0 1.0 -2.0 3.0 0.0 -1.0
2.0 1.0 -0.0 2.0 3.0 -3.0 -1.0 -0.0
-2.0 -2.0 -0.0 3.0 -1.0 -2.0 -1.0 -6.0
-4.0 -1.0 1.0 -12.0 -6.0 -3.0 0.0 0.0
1.0 -4.0 2.0 -3.0 1.0 -11.0 -3.0 0.0
0.0 0.0 2.0 5.0 -5.0 -2.0 -1.0 -2.0
-0.0 -1.0 5.0 -12.0 -2.0 -10.0 -16.0 -5.0
-3.0 -31.0 -31.0 1.0 7.0 -30.0 -31.0 -31.0
-1.0 -31.0 -2.0 -31.0 -31.0 -26.0 16.0 -31.0
-31.0 -31.0 12.0 -5.0 7.0 1.0 25.0 -1.0
9.0 4.0 -31.0 2.0 -31.0 1.0 0.0 2.0
0.0 4.0 -1.0 -3.0 -1.0 0.0 2.0 -1.0
-1.0 -2.0 0.0 0.0 -0.0 -18.0 1.0 -1.0
1.0 0.0 -0.0 -8.0 -1.0 -31.0 0.0 -1.0
1.0 -22.0 -3.0 7.0 -1.0 -1.0 -0.0 -0.0
0.0 -0.0 -1.0 0.0 0.0 -1.0 -3.0 -1.0
-2.0 1.0 0.0 -0.0 0.0 0.0 1.0 0.0
1.0 0.0 -2.0 0.0 -1.0 -3.0 -0.0 0.0
0.0 -0.0 0.0 -1.0 -3.0 31.0 -1.0 4.0
3.0 -19.0 -2.0 -1.0 1.0 1.0 0.0 -3.0
-2.0 -31.0 -1.0 8.0 1.0 0.0 -1.0 10.0
-7.0 -1.0 31.0 5.0 -0.0 -30.0 18.0 27.0
-1.0 -1.0 -1.0 1.0 1.0 11.0 9.0 -1.0
-18.0 3.0 5.0 5.0 -0.0 -2.0 0.0 -8.0
5.0 1.0 -6.0 9.0 1.0 -0.0 -4.0 -1.0
1.0 3.0 12.0 -1.0 -14.0 10.0 4.0 1.0
3.0 -3.0 -1.0 1.0 7.0 6.0 1.0 -16.0
0.0 1.0 1.0 -1.0 4.0 -2.0 -4.0 4.0
2.0 -8.0 5.0 7.0 9.0 10.0 -4.0 -1.0
5.0 2.0 3.0 -11.0 9.0 4.0 -1.0 -1.0
5.0 2.0 -1.0 7.0 7.0 -2.0 -21.0 1.0

StreamingFCLayer_Batch_1_param0 f4 [31, 11]
00000000: 0000 80bf 0000 3041 0000 4040 0000 4040
00000010: 0000 80c0 0000 4040 0000 00c0 0000 3041
00000020: 0000 4040 0000 80bf 0000 80bf 0000 00c0
00000030: 0000 4040 0000 0040 0000 803f 0000 0000
00000040: 0000 803f 0000 0080 0000 8040 0000 00c0
00000050: 0000 0040 0000 803f 0000 3041 0000 60c1
00000060: 0000 4041 0000 00c0 0000 8040 0000 70c1
00000070: 0000 88c1 0000 40c0 0000 40c1 0000 40c0
00000080: 0000 e040 0000 40c0 0000 f041 0000 80c1
00000090: 0000 0000 0000 88c1 0000 d041 0000 a841
000000a0: 0000 d841 0000 1041 0000 803f 0000 00c1
000000b0: 0000 40c0 0000 f041 0000 a041 0000 80c0
000000c0: 0000 30c1 0000 f041 0000 e041 0000 f041
000000d0: 0000 4041 0000 803f 0000 a0c0 0000 0040
000000e0: 0000 40c0 0000 0040 0000 40c0 0000 4040
000000f0: 0000 3041 0000 e040 0000 0041 0000 803f
00000100: 0000 80c0 0000 0041 0000 0040 0000 803f
00000110: 0000 80c1 0000 0080 0000 80bf 0000 0040
00000120: 0000 00c1 0000 30c1 0000 20c1 0000 00c0
00000130: 0000 80c1 0000 a8c1 0000 c841 0000 90c1
00000140: 0000 e0c0 0000 50c1 0000 c041 0000 c040
00000150: 0000 40c0 0000 5041 0000 0080 0000 d0c1
00000160: 0000 20c1 0000 c041 0000 b0c1 0000 00c0
00000170: 0000 b8c1 0000 a841 0000 5041 0000 d841
00000180: 0000 d041 0000 0000 0000 88c1 0000 c0c0
00000190: 0000 e041 0000 c0c0 0000 803f 0000 30c1
000001a0: 0000 f041 0000 e841 0000 f041 0000 c041
000001b0: 0000 80c0 0000 50c1 0000 0040 0000 40c0
000001c0: 0000 0080 0000 0000 0000 803f 0000 80bf
000001d0: 0000 8040 0000 80bf 0000 80bf 0000 4040
000001e0: 0000 80bf 0000 60c1 0000 d841 0000 d0c1
000001f0: 0000 c0c0 0000 88c1 0000 d041 0000 9041
00000200: 0000 e841 0000 d841 0000 a0c0 0000 a8c1
00000210: 0000 803f 0000 803f 0000 803f 0000 0040
00000220: 0000 40c0 0000 4040 0000 00c0 0000 80bf
00000230: 0000 00c0 0000 0080 0000 0080 0000 40c1
00000240: 0000 d841 0000 40c0 0000 0040 0000 90c1
00000250: 0000 e841 0000 c041 0000 a041 0000 f041
00000260: 0000 00c0 0000 a0c1 0000 10c1 0000 e841
00000270: 0000 e8c1 0000 0000 0000 f0c1 0000 f041
00000280: 0000 c841 0000 d841 0000 d041 0000 40c0
00000290: 0000 10c1 0000 00c1 0000 7041 0000 00c0
000002a0: 0000 a0c0 0000 40c0 0000 b041 0000 b841
000002b0: 0000 b841 0000 7041 0000 40c0 0000 98c1
000002c0: 0000 40c0 0000 80c0 0000 e8c1 0000 0080
000002d0: 0000 0040 0000 10c1 0000 10c1 0000 0041
000002e0: 0000 00c1 0000 40c0 0000 c040 0000 803f
000002f0: 0000 e841 0000 0040 0000 80bf 0000 80c1
00000300: 0000 d041 0000 d841 0000 e841 0000 7041
00000310: 0000 803f 0000 40c0 0000 50c1 0000 d841
00000320: 0000 70c1 0000 c0c0 0000 80c1 0000 a841
00000330: 0000 6041 0000 c041 0000 c841 0000 40c0
00000340: 0000 a0c1 0000 40c1 0000 f041 0000 70c1
00000350: 0000 30c1 0000 00c1 0000 e041 0000 f841
00000360: 0000 d841 0000 f041 0000 80c0 0000 b0c1
00000370: 0000 e8c1 0000 f0c1 0000 30c1 0000 a0c0
00000380: 0000 80bf 0000 60c1 0000 1041 0000 f0c1
00000390: 0000 e040 0000 40c0 0000 f0c1 0000 80bf
000003a0: 0000 00c0 0000 00c0 0000 80bf 0000 0000
000003b0: 0000 4040 0000 2041 0000 8040 0000 a040
000003c0: 0000 0040 0000 80bf 0000 80bf 0000 0080
000003d0: 0000 8040 0000 0000 0000 80bf 0000 0040
000003e0: 0000 a040 0000 0000 0000 0040 0000 803f
000003f0: 0000 803f 0000 30c1 0000 10c1 0000 80bf
-1.0 11.0 3.0 3.0 -4.0 3.0 -2.0 11.0
3.0 -1.0 -1.0 -2.0 3.0 2.0 1.0 0.0
1.0 -0.0 4.0 -2.0 2.0 1.0 11.0 -14.0
12.0 -2.0 4.0 -15.0 -17.0 -3.0 -12.0 -3.0
7.0 -3.0 30.0 -16.0 0.0 -17.0 26.0 21.0
27.0 9.0 1.0 -8.0 -3.0 30.0 20.0 -4.0
-11.0 30.0 28.0 30.0 12.0 1.0 -5.0 2.0
-3.0 2.0 -3.0 3.0 11.0 7.0 8.0 1.0
-4.0 8.0 2.0 1.0 -16.0 -0.0 -1.0 2.0
-8.0 -11.0 -10.0 -2.0 -16.0 -21.0 25.0 -18.0
-7.0 -13.0 24.0 6.0 -3.0 13.0 -0.0 -26.0
-10.0 24.0 -22.0 -2.0 -23.0 21.0 13.0 27.0
26.0 0.0 -17.0 -6.0 28.0 -6.0 1.0 -11.0
30.0 29.0 30.0 24.0 -4.0 -13.0 2.0 -3.0
-0.0 0.0 1.0 -1.0 4.0 -1.0 -1.0 3.0
-1.0 -14.0 27.0 -26.0 -6.0 -17.0 26.0 18.0
29.0 27.0 -5.0 -21.0 1.0 1.0 1.0 2.0
-3.0 3.0 -2.0 -1.0 -2.0 -0.0 -0.0 -12.0
27.0 -3.0 2.0 -18.0 29.0 24.0 20.0 30.0
-2.0 -20.0 -9.0 29.0 -29.0 0.0 -30.0 30.0
25.0 27.0 26.0 -3.0 -9.0 -8.0 15.0 -2.0
-5.0 -3.0 22.0 23.0 23.0 15.0 -3.0 -19.0
-3.0 -4.0 -29.0 -0.0 2.0 -9.0 -9.0 8.0
-8.0 -3.0 6.0 1.0 29.0 2.0 -1.0 -16.0
26.0 27.0 29.0 15.0 1.0 -3.0 -13.0 27.0
-15.0 -6.0 -16.0 21.0 14.0 24.0 25.0 -3.0
-20.0 -12.0 30.0 -15.0 -11.0 -8.0 28.0 31.0
27.0 30.0 -4.0 -22.0 -29.0 -30.0 -11.0 -5.0
-1.0 -14.0 9.0 -30.0 7.0 -3.0 -30.0 -1.0
-2.0 -2.0 -1.0 0.0 3.0 10.0 4.0 5.0
2.0 -1.0 -1.0 -0.0 4.0 0.0 -1.0 2.0
5.0 0.0 2.0 1.0 1.0 -11.0 -9.0 -1.0

StreamingFCLayer_Batch_2_param0 f4 [11, 3]
00000000: 0000 8841 0000 a8c1 0000 50c1 0000 a0c1
00000010: 0000 40c0 0000 c040 0000 5041 0000 0080
00000020: 0000 70c1 0000 c0c0 0000 50c1 0000 00c1
00000030: 0000 f841 0000 a0c1 0000 a8c1 0000 0080
00000040: 0000 a8c1 0000 1041 0000 40c0 0000 a8c1
00000050: 0000 b041 0000 60c1 0000 a8c1 0000 5041
00000060: 0000 60c1 0000 a0c1 0000 a041 0000 1041
00000070: 0000 00c1 0000 803f 0000 9841 0000 803f
00000080: 0000 a8c1
17.0 -21.0 -13.0 -20.0 -3.0 6.0 13.0 -0.0
-15.0 -6.0 -13.0 -8.0 31.0 -20.0 -21.0 -0.0
-21.0 9.0 -3.0 -21.0 22.0 -14.0 -21.0 13.0
-14.0 -20.0 20.0 9.0 -8.0 1.0 19.0 1.0
-21.0

StreamingFCLayer_Batch_3_param0 f4 [3, 1]
00000000: 0000 f841 0000 4040 0000 e0c0
31.0 3.0 -7.0

StreamingFCLayer_Batch_0_param1 f4 [31, 63]
00000000: 0000 8040 0000 4041 0000 a841 0000 e841
00000010: 0000 1442 0000 3442 0000 5442 0000 7442
00000020: 0000 8a42 0000 9a42 0000 aa42 0000 ba42
00000030: 0000 cc42 0000 dc42 0000 ec42 0000 fc42
00000040: 0000 0643 0000 0e43 0000 1643 0000 1e43
00000050: 0000 2643 0000 2f43 0000 3743 0000 3f43
00000060: 0000 4743 0000 4f43 0000 5743 0000 5f43
00000070: 0000 6743 0000 6f43 0000 7743 0000 8043
00000080: 0000 8443 0000 8843 0000 8c43 0000 9043
00000090: 0000 9443 0000 9843 0000 9c43 0000 a043
000000a0: 0000 a443 0080 a843 0080 ac43 0080 b043
000000b0: 0080 b443 0080 b843 0080 bc43 0080 c043
000000c0: 0080 c443 0080 c843 0000 cd43 0000 d143
000000d0: 0000 d543 0000 d943 0000 dd43 0000 e143
000000e0: 0000 e543 0000 e943 0000 ed43 0000 f143
000000f0: 0080 f543 0080 f943 0080 fd43 0000 8040
00000100: 0000 4041 0000 a841 0000 e841 0000 1442
00000110: 0000 3442 0000 5442 0000 7442 0000 8a42
00000120: 0000 9a42 0000 aa42 0000 bc42 0000 cc42
00000130: 0000 dc42 0000 ec42 0000 fc42 0000 0643
00000140: 0000 0e43 0000 1643 0000 1e43 0000 2643
00000150: 0000 2f43 0000 3743 0000 3f43 0000 4743
00000160: 0000 4f43 0000 5743 0000 5f43 0000 6743
00000170: 0000 6f43 0000 7743 0000 8043 0000 8443
00000180: 0000 8843 0000 8c43 0000 9043 0000 9443
00000190: 0000 9843 0000 9c43 0000 a043 0080 a443
000001a0: 0080 a843 0080 ac43 0080 b043 0080 b443
000001b0: 0080 b843 0080 bc43 0080 c043 0080 c443
000001c0: 0080 c843 0000 cd43 0000 d143 0000 d543
000001d0: 0000 d943 0000 dd43 0000 e143 0000 e543
000001e0: 0000 e943 0000 ed43 0000 f143 0080 f543
000001f0: 0080 f943 0080 fd43 0000 4d43 0000 5543
00000200: 0000 5d43 0000 6543 0000 6d43 0000 7543
00000210: 0000 7d43 0080 8243 0080 8643 0000 8b43
00000220: 0000 8f43 0000 9343 0000 9743 0000 9b43
00000230: 0000 9f43 0000 a343 0000 a743 0000 ab43
00000240: 0000 af43 0080 b343 0080 b743 0080 bb43
00000250: 0080 bf43 0080 c343 0080 c743 0080 cb43
00000260: 0080 cf43 0080 d343 0080 d743 0000 dc43
00000270: 0000 e043 0000 e443 0000 e843 0000 ec43
00000280: 0000 f043 0000 f443 0000 f843 0000 fc43
00000290: 0040 0044 0040 0244 0040 0444 0040 0644
000002a0: 0040 0844 0040 0a44 0040 0c44 0040 0e44
000002b0: 0040 1044 0040 1244 0080 1444 0080 1644
000002c0: 0080 1844 0080 1a44 0080 1c44 0080 1e44
000002d0: 0080 2044 0080 2244 0080 2444 0080 2644
000002e0: 00c0 2844 00c0 2a44 00c0 2c44 00c0 2e44
000002f0: 00c0 3044 0000 50c2 0000 30c2 0000 10c2
00000300: 0000 e0c1 0000 a0c1 0000 40c1 0000 40c0
00000310: 0000 a040 0000 5041 0000 a841 0000 e841
00000320: 0000 1442 0000 3442 0000 5442 0000 7442
00000330: 0000 8c42 0000 9c42 0000 ac42 0000 bc42
00000340: 0000 cc42 0000 dc42 0000 ec42 0000 fc42
00000350: 0000 0643 0000 0e43 0000 1743 0000 1f43
00000360: 0000 2743 0000 2f43 0000 3743 0000 3f43
00000370: 0000 4743 0000 4f43 0000 5743 0000 5f43
00000380: 0000 6843 0000 7043 0000 7843 0000 8043
00000390: 0000 8443 0000 8843 0000 8c43 0000 9043
000003a0: 0000 9443 0080 9843 0080 9c43 0080 a043
000003b0: 0080 a443 0080 a843 0080 ac43 0080 b043
000003c0: 0080 b443 0080 b843 0080 bc43 0000 c143
000003d0: 0000 c543 0000 c943 0000 cd43 0000 d143
000003e0: 0000 d543 0000 d943 0000 dd43 0000 e143
000003f0: 0000 80bf 0000 e040 0000 7041 0000 b841
4.0 12.0 21.0 29.0 37.0 45.0 53.0 61.0
69.0 77.0 85.0 93.0 102.0 110.0 118.0 126.0
134.0 142.0 150.0 158.0 166.0 175.0 183.0 191.0
199.0 207.0 215.0 223.0 231.0 239.0 247.0 256.0
264.0 272.0 280.0 288.0 296.0 304.0 312.0 320.0
328.0 337.0 345.0 353.0 361.0 369.0 377.0 385.0
393.0 401.0 410.0 418.0 426.0 434.0 442.0 450.0
458.0 466.0 474.0 482.0 491.0 499.0 507.0 4.0
12.0 21.0 29.0 37.0 45.0 53.0 61.0 69.0
77.0 85.0 94.0 102.0 110.0 118.0 126.0 134.0
142.0 150.0 158.0 166.0 175.0 183.0 191.0 199.0
207.0 215.0 223.0 231.0 239.0 247.0 256.0 264.0
272.0 280.0 288.0 296.0 304.0 312.0 320.0 329.0
337.0 345.0 353.0 361.0 369.0 377.0 385.0 393.0
401.0 410.0 418.0 426.0 434.0 442.0 450.0 458.0
466.0 474.0 482.0 491.0 499.0 507.0 205.0 213.0
221.0 229.0 237.0 245.0 253.0 261.0 269.0 278.0
286.0 294.0 302.0 310.0 318.0 326.0 334.0 342.0
350.0 359.0 367.0 375.0 383.0 391.0 399.0 407.0
415.0 423.0 431.0 440.0 448.0 456.0 464.0 472.0
480.0 488.0 496.0 504.0 513.0 521.0 529.0 537.0
545.0 553.0 561.0 569.0 577.0 585.0 594.0 602.0
610.0 618.0 626.0 634.0 642.0 650.0 658.0 666.0
675.0 683.0 691.0 699.0 707.0 -52.0 -44.0 -36.0
-28.0 -20.0 -12.0 -3.0 5.0 13.0 21.0 29.0
37.0 45.0 53.0 61.0 70.0 78.0 86.0 94.0
102.0 110.0 118.0 126.0 134.0 142.0 151.0 159.0
167.0 175.0 183.0 191.0 199.0 207.0 215.0 223.0
232.0 240.0 248.0 256.0 264.0 272.0 280.0 288.0
296.0 305.0 313.0 321.0 329.0 337.0 345.0 353.0
361.0 369.0 377.0 386.0 394.0 402.0 410.0 418.0
426.0 434.0 442.0 450.0 -1.0 7.0 15.0 23.0

StreamingFCLayer_Batch_1_param1 f4 [11, 63]
00000000: 0000 7b43 0080 8243 0080 8743 0080 8c43
00000010: 0080 9143 0080 9643 0000 9c43 0000 a143
00000020: 0000 a643 0000 ab43 0000 b043 0000 b543
00000030: 0000 ba43 0080 bf43 0080 c443 0080 c943
00000040: 0080 ce43 0080 d343 0080 d843 0080 dd43
00000050: 0000 e343 0000 e843 0000 ed43 0000 f243
00000060: 0000 f743 0000 fc43 0080 0044 0040 0344
00000070: 00c0 0544 0040 0844 00c0 0a44 0040 0d44
00000080: 00c0 0f44 0040 1244 0000 1544 0080 1744
00000090: 0000 1a44 0080 1c44 0000 1f44 0080 2144
000000a0: 0000 2444 00c0 2644 0040 2944 00c0 2b44
000000b0: 0040 2e44 00c0 3044 0040 3344 00c0 3544
000000c0: 0080 3844 0000 3b44 0080 3d44 0000 4044
000000d0: 0080 4244 0000 4544 0080 4744 0040 4a44
000000e0: 00c0 4c44 0040 4f44 00c0 5144 0040 5444
000000f0: 00c0 5644 0040 5944 0000 5c44 0000 fc42
00000100: 0000 0843 0000 1343 0000 1d43 0000 2743
00000110: 0000 3143 0000 3b43 0000 4543 0000 4f43
00000120: 0000 5a43 0000 6443 0000 6e43 0000 7843
00000130: 0000 8143 0000 8643 0000 8b43 0080 9043
00000140: 0080 9543 0080 9a43 0080 9f43 0080 a443
00000150: 0080 a943 0080 ae43 0000 b443 0000 b943
00000160: 0000 be43 0000 c343 0000 c843 0000 cd43
00000170: 0080 d243 0080 d743 0080 dc43 0080 e143
00000180: 0080 e643 0080 eb43 0080 f043 0000 f643
00000190: 0000 fb43 0000 0044 0080 0244 0000 0544
000001a0: 0080 0744 0000 0a44 00c0 0c44 0040 0f44
000001b0: 00c0 1144 0040 1444 00c0 1644 0040 1944
000001c0: 00c0 1b44 0080 1e44 0000 2144 0080 2344
000001d0: 0000 2644 0080 2844 0000 2b44 0080 2d44
000001e0: 0040 3044 00c0 3244 0040 3544 00c0 3744
000001f0: 0040 3a44 00c0 3c44 0000 5443 0000 5f43
00000200: 0000 6943 0000 7343 0000 7d43 0080 8343
00000210: 0080 8843 0080 8d43 0000 9343 0000 9843
00000220: 0000 9d43 0000 a243 0000 a743 0000 ac43
00000230: 0000 b143 0080 b643 0080 bb43 0080 c043
00000240: 0080 c543 0080 ca43 0080 cf43 0080 d443
00000250: 0000 da43 0000 df43 0000 e443 0000 e943
00000260: 0000 ee43 0000 f343 0000 f843 0080 fd43
00000270: 0040 0144 00c0 0344 0040 0644 00c0 0844
00000280: 0040 0b44 00c0 0d44 0080 1044 0000 1344
00000290: 0080 1544 0000 1844 0080 1a44 0000 1d44
000002a0: 0080 1f44 0040 2244 00c0 2444 0040 2744
000002b0: 00c0 2944 0040 2c44 00c0 2e44 0040 3144
000002c0: 0000 3444 0080 3644 0000 3944 0080 3b44
000002d0: 0000 3e44 0080 4044 0000 4344 00c0 4544
000002e0: 0040 4844 00c0 4a44 0040 4d44 00c0 4f44
000002f0: 0040 5244 0000 1041 0000 9841 0000 e841
00000300: 0000 1c42 0000 4842 0000 7042 0000 8c42
00000310: 0000 a042 0000 b442 0000 c842 0000 dc42
00000320: 0000 f242 0000 0343 0000 0d43 0000 1743
00000330: 0000 2143 0000 2b43 0000 3543 0000 4043
00000340: 0000 4a43 0000 5443 0000 5e43 0000 6843
00000350: 0000 7243 0000 7d43 0080 8343 0080 8843
00000360: 0080 8d43 0080 9243 0080 9743 0080 9c43
00000370: 0000 a243 0000 a743 0000 ac43 0000 b143
00000380: 0000 b643 0000 bb43 0000 c043 0080 c543
00000390: 0080 ca43 0080 cf43 0080 d443 0080 d943
000003a0: 0080 de43 0080 e343 0000 e943 0000 ee43
000003b0: 0000 f343 0000 f843 0000 fd43 0000 0144
000003c0: 0080 0344 0040 0644 00c0 0844 0040 0b44
000003d0: 00c0 0d44 0040 1044 00c0 1244 0040 1544
000003e0: 0000 1844 0080 1a44 0000 1d44 0080 1f44
000003f0: 0000 1e43 0000 2843 0000 3243 0000 3c43
251.0 261.0 271.0 281.0 291.0 301.0 312.0 322.0
332.0 342.0 352.0 362.0 372.0 383.0 393.0 403.0
413.0 423.0 433.0 443.0 454.0 464.0 474.0 484.0
494.0 504.0 514.0 525.0 535.0 545.0 555.0 565.0
575.0 585.0 596.0 606.0 616.0 626.0 636.0 646.0
656.0 667.0 677.0 687.0 697.0 707.0 717.0 727.0
738.0 748.0 758.0 768.0 778.0 788.0 798.0 809.0
819.0 829.0 839.0 849.0 859.0 869.0 880.0 126.0
136.0 147.0 157.0 167.0 177.0 187.0 197.0 207.0
218.0 228.0 238.0 248.0 258.0 268.0 278.0 289.0
299.0 309.0 319.0 329.0 339.0 349.0 360.0 370.0
380.0 390.0 400.0 410.0 421.0 431.0 441.0 451.0
461.0 471.0 481.0 492.0 502.0 512.0 522.0 532.0
542.0 552.0 563.0 573.0 583.0 593.0 603.0 613.0
623.0 634.0 644.0 654.0 664.0 674.0 684.0 694.0
705.0 715.0 725.0 735.0 745.0 755.0 212.0 223.0
233.0 243.0 253.0 263.0 273.0 283.0 294.0 304.0
314.0 324.0 334.0 344.0 354.0 365.0 375.0 385.0
395.0 405.0 415.0 425.0 436.0 446.0 456.0 466.0
476.0 486.0 496.0 507.0 517.0 527.0 537.0 547.0
557.0 567.0 578.0 588.0 598.0 608.0 618.0 628.0
638.0 649.0 659.0 669.0 679.0 689.0 699.0 709.0
720.0 730.0 740.0 750.0 760.0 770.0 780.0 791.0
801.0 811.0 821.0 831.0 841.0 9.0 19.0 29.0
39.0 50.0 60.0 70.0 80.0 90.0 100.0 110.0
121.0 131.0 141.0 151.0 161.0 171.0 181.0 192.0
202.0 212.0 222.0 232.0 242.0 253.0 263.0 273.0
283.0 293.0 303.0 313.0 324.0 334.0 344.0 354.0
364.0 374.0 384.0 395.0 405.0 415.0 425.0 435.0
445.0 455.0 466.0 476.0 486.0 496.0 506.0 516.0
526.0 537.0 547.0 557.0 567.0 577.0 587.0 597.0
608.0 618.0 628.0 638.0 158.0 168.0 178.0 188.0

StreamingFCLayer_Batch_2_param1 f4 [3, 63]
00000000: 0080 aec3 0080 91c3 0000 6ac3 0000 30c3
00000010: 0000 eec2 0000 74c2 0000 80c0 0000 5842
00000020: 0000 e042 0000 2943 0000 6343 0000 8e43
00000030: 0000 ab43 0080 c743 0080 e443 0080 0044
00000040: 0000 0f44 0040 1d44 00c0 2b44 0000 3a44
00000050: 0080 4844 00c0 5644 0040 6544 0080 7344
00000060: 0000 8144 0040 8844 0060 8f44 00a0 9644
00000070: 00c0 9d44 0000 a544 0020 ac44 0060 b344
00000080: 0080 ba44 00c0 c144 00e0 c844 0020 d044
00000090: 0040 d744 0080 de44 00a0 e544 00e0 ec44
000000a0: 0000 f444 0040 fb44 0040 0145 00d0 0445
000000b0: 0070 0845 0000 0c45 00a0 0f45 0030 1345
000000c0: 00d0 1645 0060 1a45 0000 1e45 0090 2145
000000d0: 0030 2545 00c0 2845 0060 2c45 00f0 2f45
000000e0: 0090 3345 0020 3745 00c0 3a45 0060 3e45
000000f0: 00f0 4145 0090 4545 0020 4945 0000 a842
00000100: 0000 0d43 0000 4743 0000 8043 0000 9d43
00000110: 0080 b943 0080 d643 0000 f343 0000 0844
00000120: 0040 1644 00c0 2444 0040 3344 0080 4144
00000130: 0000 5044 0040 5e44 00c0 6c44 0000 7b44
00000140: 00c0 8444 00e0 8b44 0020 9344 0040 9a44
00000150: 0080 a144 00a0 a844 00e0 af44 0000 b744
00000160: 0040 be44 0060 c544 00a0 cc44 00e0 d344
00000170: 0000 db44 0040 e244 0060 e944 00a0 f044
00000180: 00c0 f744 0000 ff44 0010 0345 00b0 0645
00000190: 0040 0a45 00e0 0d45 0070 1145 0010 1545
000001a0: 00a0 1845 0040 1c45 00d0 1f45 0070 2345
000001b0: 0010 2745 00a0 2a45 0040 2e45 00d0 3145
000001c0: 0070 3545 0000 3945 00a0 3c45 0030 4045
000001d0: 00d0 4345 0060 4745 0000 4b45 0090 4e45
000001e0: 0030 5245 00c0 5545 0060 5945 00f0 5c45
000001f0: 0090 6045 0030 6445 0000 1244 0080 2044
00000200: 0000 2f44 0040 3d44 00c0 4b44 0000 5a44
00000210: 0080 6844 00c0 7644 00a0 8244 00c0 8944
00000220: 0000 9144 0020 9844 0060 9f44 0080 a644
00000230: 00c0 ad44 00e0 b444 0020 bc44 0040 c344
00000240: 0080 ca44 00c0 d144 00e0 d844 0020 e044
00000250: 0040 e744 0080 ee44 00a0 f544 00e0 fc44
00000260: 0000 0245 00a0 0545 0030 0945 00d0 0c45
00000270: 0060 1045 0000 1445 0090 1745 0030 1b45
00000280: 00c0 1e45 0060 2245 0000 2645 0090 2945
00000290: 0030 2d45 00c0 3045 0060 3445 00f0 3745
000002a0: 0090 3b45 0020 3f45 00c0 4245 0050 4645
000002b0: 00f0 4945 0080 4d45 0020 5145 00b0 5445
000002c0: 0050 5845 00e0 5b45 0080 5f45 0020 6345
000002d0: 00b0 6645 0050 6a45 00e0 6d45 0080 7145
000002e0: 0010 7545 00b0 7845 0040 7c45 00e0 7f45
000002f0: 00b8 8145
-349.0 -291.0 -234.0 -176.0 -119.0 -61.0 -4.0 54.0
112.0 169.0 227.0 284.0 342.0 399.0 457.0 514.0
572.0 629.0 687.0 744.0 802.0 859.0 917.0 974.0
1032.0 1090.0 1147.0 1205.0 1262.0 1320.0 1377.0 1435.0
1492.0 1550.0 1607.0 1665.0 1722.0 1780.0 1837.0 1895.0
1952.0 2010.0 2068.0 2125.0 2183.0 2240.0 2298.0 2355.0
2413.0 2470.0 2528.0 2585.0 2643.0 2700.0 2758.0 2815.0
2873.0 2930.0 2988.0 3046.0 3103.0 3161.0 3218.0 84.0
141.0 199.0 256.0 314.0 371.0 429.0 486.0 544.0
601.0 659.0 717.0 774.0 832.0 889.0 947.0 1004.0
1062.0 1119.0 1177.0 1234.0 1292.0 1349.0 1407.0 1464.0
1522.0 1579.0 1637.0 1695.0 1752.0 1810.0 1867.0 1925.0
1982.0 2040.0 2097.0 2155.0 2212.0 2270.0 2327.0 2385.0
2442.0 2500.0 2557.0 2615.0 2673.0 2730.0 2788.0 2845.0
2903.0 2960.0 3018.0 3075.0 3133.0 3190.0 3248.0 3305.0
3363.0 3420.0 3478.0 3535.0 3593.0 3651.0 584.0 642.0
700.0 757.0 815.0 872.0 930.0 987.0 1045.0 1102.0
1160.0 1217.0 1275.0 1332.0 1390.0 1447.0 1505.0 1562.0
1620.0 1678.0 1735.0 1793.0 1850.0 1908.0 1965.0 2023.0
2080.0 2138.0 2195.0 2253.0 2310.0 2368.0 2425.0 2483.0
2540.0 2598.0 2656.0 2713.0 2771.0 2828.0 2886.0 2943.0
3001.0 3058.0 3116.0 3173.0 3231.0 3288.0 3346.0 3403.0
3461.0 3518.0 3576.0 3634.0 3691.0 3749.0 3806.0 3864.0
3921.0 3979.0 4036.0 4094.0 4151.0

StreamingFCLayer_Batch_3_param1 f4 [1, 63]
00000000: 0000 c3c3 0000 b1c3 0000 9fc3 0080 8cc3
00000010: 0000 75c3 0000 51c3 0000 2dc3 0000 09c3
00000020: 0000 c8c2 0000 80c2 0000 e0c1 0000 0041
00000030: 0000 3042 0000 a242 0000 ea42 0000 1943
00000040: 0000 3d43 0000 6143 0000 8343 0000 9543
00000050: 0000 a743 0000 b943 0000 cb43 0080 dd43
00000060: 0080 ef43 00c0 0044 00c0 0944 00c0 1244
00000070: 0000 1c44 0000 2544 0000 2e44 0000 3744
00000080: 0000 4044 0040 4944 0040 5244 0040 5b44
00000090: 0040 6444 0040 6d44 0080 7644 0080 7f44
000000a0: 0040 8444 00c0 8844 0040 8d44 00e0 9144
000000b0: 0060 9644 00e0 9a44 0060 9f44 00e0 a344
000000c0: 0080 a844 0000 ad44 0080 b144 0000 b644
000000d0: 0080 ba44 0020 bf44 00a0 c344 0020 c844
000000e0: 00a0 cc44 0020 d144 00c0 d544 0040 da44
000000f0: 00c0 de44 0040 e344 00c0 e744
-390.0 -354.0 -318.0 -281.0 -245.0 -209.0 -173.0 -137.0
-100.0 -64.0 -28.0 8.0 44.0 81.0 117.0 153.0
189.0 225.0 262.0 298.0 334.0 370.0 406.0 443.0
479.0 515.0 551.0 587.0 624.0 660.0 696.0 732.0
768.0 805.0 841.0 877.0 913.0 949.0 986.0 1022.0
1058.0 1094.0 1130.0 1167.0 1203.0 1239.0 1275.0 1311.0
1348.0 1384.0 1420.0 1456.0 1492.0 1529.0 1565.0 1601.0
1637.0 1673.0 1710.0 1746.0 1782.0 1818.0 1854.0
