output_final/intermediate_models/dataflow_parent.onnx (onnx, 2208 bytes, 2 tensors)

Mul_0_param0 f4 [1, 14]
0	0x3f800000	1.0
1	0x3f800000	1.0
2	0x3f800000	1.0
3	0x3f800000	1.0
4	0xbf800000	-1.0
5	0x3f800000	1.0
6	0x3f800000	1.0
7	0x3f800000	1.0
8	0x3f800000	1.0
9	0x3f800000	1.0
10	0x3f800000	1.0
11	0x3f800000	1.0
12	0x3f800000	1.0
13	0x3f800000	1.0

MultiThreshold_0_param0 f4 [14, 15]
0	0xc1a83cad	-21.029627
1	0xc18ca1e1	-17.579042
2	0xc1620e2c	-14.12846
3	0xc12ad896	-10.677877
4	0xc0e745fe	-7.227294
5	0xc071b5a0	-3.7767105
6	0xbea6fa2b	-0.32612738
7	0x4047f70f	3.1244543
8	0x40d266b7	6.5750384
9	0x412068f4	10.025623
10	0x41579e89	13.476205
11	0x41876a0f	16.926786
12	0x41a304db	20.37737
13	0x41be9fa8	23.827957
14	0x41da3a71	27.278536
15	0xc10ce8aa	-8.806803
16	0xc0f7dcdd	-7.745711
17	0xc0d5e864	-6.684618
18	0xc0b3f3ed	-5.623526
19	0xc091ff76	-4.562434
20	0xc06015fc	-3.5013418
21	0xc01c2d0e	-2.44025
22	0xbfb08842	-1.3791583
23	0xbea2d982	-0.3180657
24	0x3f3e3701	0.7430268
25	0x3fe6ed5b	1.8041185
26	0x40375f9a	2.86521
27	0x407b488b	3.9263027
28	0x409f98be	4.9873953
29	0x40c18d32	6.0484858
30	0xbe1a5739	-0.15072335
31	0x3ded2c66	0.11580734
32	0x3ec3c1d0	0.38233805
33	0x3f261c43	0.64886874
34	0x3f6a579e	0.91539943
35	0x3f97497c	1.1819301
36	0x3fb9672a	1.4484608
37	0x3fdb84d6	1.7149913
38	0x3ffda285	1.9815222
39	0x400fe01a	2.248053
40	0x4020eef0	2.5145836
41	0x4031fdc6	2.781114
42	0x40430c9d	3.0476449
43	0x40541b75	3.3141758
44	0x40652a4a	3.5807061
45	0x3fc6d7d2	1.5534613
46	0x401c57bc	2.442855
47	0x4055438e	3.3322482
48	0x408717b0	4.2216415
49	0x40a38d9a	5.1110353
50	0x40c00383	6.0004287
51	0x40dc796c	6.889822
52	0x40f8ef55	7.7792153
53	0x410ab2a0	8.66861
54	0x4118ed95	9.558003
55	0x41272889	10.447396
56	0x4135637d	11.336789
57	0x41439e71	12.226182
58	0x4151d968	13.115578
59	0x4160145b	14.00497
60	0xc30aa7de	-138.65573
61	0xc2fc7bba	-126.24165
62	0xc2e3a7ba	-113.82759
63	0xc2cad3ba	-101.41353
64	0xc2b1ffb8	-88.99945
65	0xc2992bb8	-76.58539
66	0xc28057b7	-64.17132
67	0xc24f076d	-51.75725
68	0xc21d5f6a	-39.343178
69	0xc1d76ece	-26.929104
70	0xc1683d9c	-14.515041
71	0xc006766a	-2.1009774
72	0x41250271	10.313096
73	0x41b5d13f	22.72717
74	0x420c909d	35.141224
75	0x3f16899e	0.5880374
76	0x3f606ca9	0.876658
77	0x3f9527da	1.1652787
78	0x3fba195f	1.4538993
79	0x3fdf0ae5	1.74252
80	0x4001fe35	2.0311406
81	0x401476f8	2.3197613
82	0x4026efba	2.6083817
83	0x4039687e	2.8970027
84	0x404be141	3.1856234
85	0x405e5a03	3.4742439
86	0x4070d2c5	3.7628644
87	0x4081a5c5	4.0514855
88	0x408ae225	4.3401055
89	0x40941e86	4.628726
90	0xc11394da	-9.223841
91	0xc1086563	-8.524753
92	0xc0fa6bd8	-7.8256645
93	0xc0e40ceb	-7.126577
94	0xc0cdadfe	-6.4274893
95	0xc0b74f0f	-5.7284007
96	0xc0a0f021	-5.0293126
97	0xc08a9135	-4.3302255
98	0xc068648d	-3.6311371
99	0xc03ba6b1	-2.932049
100	0xc00ee8d7	-2.2329614
101	0xbfc455f9	-1.5338737
102	0xbf55b481	-0.8347855
103	0xbe0af43e	-0.13569734
104	0x3f103a4f	0.5633897
105	0xc08bb940	-4.3663635
106	0xc080c104	-4.0235615
107	0xc06b918f	-3.6807592
108	0xc055a115	-3.3379567
109	0xc03fb09b	-2.9951541
110	0xc029c022	-2.6523519
111	0xc013cfa8	-2.3095493
112	0xbffbbe5f	-1.9667472
113	0xbfcfdd6b	-1.6239446
114	0xbfa3fc77	-1.2811421
115	0xbf70370b	-0.9383399
116	0xbf187528	-0.59553766
117	0xbe816680	-0.25273514
118	0x3db87540	0.09006739
119	0x3edda10d	0.43286934
120	0xbeb6f46b	-0.3573335
121	0x3d747951	0.05968601
122	0x3ef412bf	0.47670552
123	0x3f64cb2a	0.89372504
124	0x3fa7c67a	1.3107445
125	0x3fdd2760	1.7277641
126	0x40094422	2.1447835
127	0x4023f494	2.5618029
128	0x403ea508	2.9788227
129	0x4059557b	3.3958423
130	0x407405ed	3.8128617
131	0x40875b2f	4.229881
132	0x4094b369	4.6469007
133	0x40a20ba3	5.0639205
134	0x40af63db	5.4809394
135	0x3e4ded58	0.2011007
136	0x3f104214	0.5635083
137	0x3f6d08d1	0.9259158
138	0x3fa4e7c7	1.2883233
139	0x3fd34b26	1.6507308
140	0x4000d743	2.0131385
141	0x401808f2	2.375546
142	0x402f3aa1	2.7379534
143	0x40466c51	3.100361
144	0x405d9e01	3.4627688
145	0x4074cfaf	3.825176
146	0x408600af	4.1875834
147	0x40919987	4.549991
148	0x409d325f	4.912399
149	0x40a8cb35	5.2748055
150	0x3e058446	0.1303874
151	0x3f1b794b	0.60731953
152	0x3f8ac8c2	1.0842516
153	0x3fc7d4df	1.5611838
154	0x4002707e	2.038116
155	0x4020f68c	2.515048
156	0x403f7c9b	2.9919803
157	0x405e02a8	3.4689121
158	0x407c88b8	3.9458447
159	0x408d8763	4.4227767
160	0x409cca6a	4.8997087
161	0x40ac0d71	5.376641
162	0x40bb5079	5.8535733
163	0x40ca9380	6.3305054
164	0x40d9d686	6.807437
165	0xbdc80af4	-0.09767714
166	0x3ea7d1f5	0.32777372
167	0x3f40d354	0.7532246
168	0x3f96ded6	1.1786754
169	0x3fcd5403	1.6041263
170	0x4001e498	2.0295773
171	0x401d1f2e	2.455028
172	0x403859c4	2.8804789
173	0x4053945b	3.30593
174	0x406ecef2	3.731381
175	0x408504c4	4.1568317
176	0x4092a20e	4.582282
177	0x40a03f5a	5.0077333
178	0x40addca5	5.433184
179	0x40bb79ef	5.8586345
180	0xbea28f00	-0.31749725
181	0x3daffb6a	0.08592875
182	0x3efa8cb5	0.48935476
183	0x3f648d48	0.8927808
184	0x3fa5ea1a	1.2962067
185	0x3fd98d91	1.6996328
186	0x40069884	2.1030588
187	0x40206a3e	2.5064845
188	0x403a3bfa	2.9099107
189	0x40540db6	3.3133368
190	0x406ddf72	3.716763
191	0x4083d895	4.120188
192	0x4090c173	4.5236144
193	0x409daa51	4.9270406
194	0x40aa932e	5.3304663
195	0xc0547bd8	-3.3200588
196	0xc0292910	-2.6431313
197	0xbffbac92	-1.9662039
198	0xbfa50702	-1.2892764
199	0xbf1cc2e6	-0.6123489
200	0x3d8441ca	0.06457861
201	0x3f3dd358	0.7415061
202	0x3fb58f39	1.4184333
203	0x40061a65	2.095361
204	0x40316d2e	2.7722888
205	0x405cbff5	3.4492161
206	0x4084095e	4.1261435
207	0x4099b2c3	4.8030715
208	0x40af5c27	5.479999
209	0x40c50589	6.1569257
