output_final/intermediate_models/dataflow_parent.onnx (onnx, 2207 bytes, 2 tensors)

Mul_0_param0 f4 [1, 14]
0	0x3f800000	1.0
1	0x3f800000	1.0
2	0x3f800000	1.0
3	0x3f800000	1.0
4	0x3f800000	1.0
5	0xbf800000	-1.0
6	0x3f800000	1.0
7	0x3f800000	1.0
8	0x3f800000	1.0
9	0x3f800000	1.0
10	0x3f800000	1.0
11	0x3f800000	1.0
12	0x3f800000	1.0
13	0x3f800000	1.0

MultiThreshold_0_param0 f4 [14, 15]
0	0xc1327d9b	-11.155665
1	0xc10cfca2	-8.811678
2	0xc0cef754	-6.4676914
3	0xc083f562	-4.123704
4	0xbfe3cdc0	-1.7797165
5	0x3f107412	0.5642711
6	0x403a20e3	2.9082572
7	0x40a81264	5.252245
8	0x40f31456	7.5962324
9	0x411f0b24	9.94022
10	0x41448c1d	12.284207
11	0x416a0d15	14.628194
12	0x4187c706	16.97218
13	0x419a8784	19.31617
14	0x41ad47ff	21.660154
15	0xc10c8981	-8.78357
16	0xc0ecbdc2	-7.398164
17	0xc0c06884	-6.0127583
18	0xc0941343	-4.6273513
19	0xc04f7c06	-3.2419448
20	0xbfeda30a	-1.856538
21	0xbef1383f	-0.47113225
22	0x3f6a0de3	0.9142744
23	0x40132df9	2.299681
24	0x406bd87a	3.6850877
25	0x40a2417d	5.070494
26	0x40ce96bc	6.4559
27	0x40faebfb	7.841306
28	0x4113a09e	9.226713
29	0x4129cb3e	10.61212
30	0xbdc70391	-0.09717477
31	0x3d53efa2	0.051742204
32	0x3e4d7993	0.20065908
33	0x3eb2fba2	0.34957606
34	0x3eff3a7b	0.49849305
35	0x3f25bcaa	0.64741004
36	0x3f4bdc14	0.7963269
37	0x3f71fb81	0.9452439
38	0x3f8c0d76	1.0941608
39	0x3f9f1d2c	1.2430778
40	0x3fb22ce3	1.3919948
41	0x3fc53c98	1.5409117
42	0x3fd84c4d	1.6898285
43	0x3feb5c04	1.8387456
44	0x3ffe6bba	1.9876626
45	0xbe951b80	-0.29122543
46	0x3f6df3f9	0.929504
47	0x40099d69	2.1502326
48	0x4057bdd7	3.370962
49	0x4092ef23	4.5916915
50	0x40b9ff5a	5.812421
51	0x40e10f8f	7.0331492
52	0x41040fe3	8.253879
53	0x411797ff	9.474608
54	0x412b201a	10.695337
55	0x413ea836	11.916067
56	0x41523051	13.136796
57	0x4165b86c	14.357525
58	0x41794087	15.578254
59	0x41866451	16.798983
60	0xc285e3bb	-66.944786
61	0xc2640f8b	-57.01518
62	0xc23c57a3	-47.085583
63	0xc2149fb9	-37.15598
64	0xc1d9cf9e	-27.226376
65	0xc18a5fcb	-17.296774
66	0xc0ebbfe9	-7.3671765
67	0x4023fecd	2.5624268
68	0x4147df5c	12.492031
69	0x41b35f82	22.421635
70	0x420167ab	32.35124
71	0x42291f93	42.280834
72	0x4250d77c	52.210434
73	0x42788f67	62.14004
74	0x429023a8	72.06964
75	0xc05cea8d	-3.4518158
76	0xc04f11f1	-3.23547
77	0xc0413956	-3.0191245
78	0xc03360ba	-2.8027787
79	0xc025881d	-2.5864327
80	0xc017af81	-2.370087
81	0xc009d6e5	-2.1537411
82	0xbff7fc94	-1.9373956
83	0xbfdc4b5b	-1.7210497
84	0xbfc09a23	-1.5047039
85	0xbfa4e8eb	-1.2883581
86	0xbf8937b4	-1.0720124
87	0xbf5b0cfa	-0.85566676
88	0xbf23aa88	-0.63932085
89	0xbed89033	-0.42297515
90	0xc09df8d2	-4.9366236
91	0xc090b6e6	-4.5223265
92	0xc08374fb	-4.10803
93	0xc06c6620	-3.6937332
94	0xc051e248	-3.279436
95	0xc0375e71	-2.8651392
96	0xc01cda9b	-2.4508426
97	0xc00256c3	-2.0365455
98	0xbfcfa5d8	-1.6222486
99	0xbf9a9e29	-1.2079517
100	0xbf4b2cf4	-0.7936547
101	0xbec23b36	-0.379358
102	0x3d0f1be5	0.03493871
103	0x3ee60240	0.44923592
104	0x3f5d1079	0.8635326
105	0xc045a911	-3.088444
106	0xc032e7c7	-2.7953966
107	0xc020267e	-2.5023494
108	0xc00d6536	-2.2093024
109	0xbff547d7	-1.9162549
110	0xbfcfc545	-1.6232077
111	0xbfaa42b3	-1.3301605
112	0xbf84c020	-1.0371132
113	0xbf3e7b1a	-0.7440659
114	0xbee6ebe7	-0.45101854
115	0xbe21c336	-0.15797123
116	0x3e0a5156	0.1350759
117	0x3edb32f1	0.42812303
118	0x3f389ea2	0.72117054
119	0x3f81d1e2	1.0142176
120	0xbf5634ff	-0.83674616
121	0xbf15da71	-0.5853644
122	0xbeaaffca	-0.33398277
123	0xbda92ab3	-0.08260097
124	0x3e2cd4e0	0.1687808
125	0x3ed71f8d	0.4201626
126	0x3f2bea52	0.6715442
127	0x3f6c44e1	0.922926
128	0x3f964fb8	1.1743078
129	0x3fb67cff	1.4256896
130	0x3fd6aa45	1.6770712
131	0x3ff6d78b	1.9284528
132	0x400b8269	2.1798346
133	0x401b990d	2.4312165
134	0x402bafb0	2.682598
135	0x3e1b2b0d	0.15153141
136	0x3ee6c67a	0.450733
137	0x3f3ffbb4	0.74993443
138	0x3f864a17	1.049136
139	0x3fac9653	1.3483375
140	0x3fd2e290	1.6475391
141	0x3ff92ecc	1.9467406
142	0x400fbd84	2.245942
143	0x4022e3a3	2.5451438
144	0x403609c1	2.8443453
145	0x40492fdf	3.1435468
146	0x405c55fd	3.4427483
147	0x406f7c1b	3.7419498
148	0x4081511d	4.0411515
149	0x408ae42c	4.340353
150	0xbdfa7f45	-0.12231306
151	0x3db17d54	0.086664826
152	0x3e975e77	0.29564258
153	0x3f012ecf	0.5046205
154	0x3f36ae62	0.7135984
155	0x3f6c2df5	0.92257625
156	0x3f90d6c3	1.131554
157	0x3fab968d	1.340532
158	0x3fc65656	1.5495098
159	0x3fe11620	1.7584877
160	0x3ffbd5e9	1.9674655
161	0x400b4ad9	2.1764433
162	0x4018aabd	2.385421
163	0x40260aa2	2.594399
164	0x40336a87	2.803377
165	0xbeb802d7	-0.35939667
166	0x3e138fce	0.14410326
167	0x3f25c94e	0.6476029
168	0x3f935756	1.1511028
169	0x3fd3ca06	1.6546028
170	0x400a1e5b	2.1581028
171	0x402a57b1	2.6616023
172	0x404a9109	3.1651022
173	0x406aca61	3.6686022
174	0x408581dc	4.172102
175	0x40959e88	4.675602
176	0x40a5bb34	5.179102
177	0x40b5d7df	5.6826015
178	0x40c5f48b	6.1861014
179	0x40d61137	6.6896014
180	0xc01c8df8	-2.446165
181	0xc003b6dd	-2.058036
182	0xbfd5bf8a	-1.6699078
183	0xbfa41157	-1.2817792
184	0xbf64c646	-0.8936504
185	0xbf0169df	-0.5055217
186	0xbdf06be1	-0.11739326
187	0x3e8a9dd5	0.2707354
188	0x3f28ab52	0.65886414
189	0x3f8603dc	1.0469928
190	0x3fb7b210	1.4351215
191	0x3fe96041	1.8232499
192	0x400d8739	2.2113783
193	0x40265e54	2.5995073
194	0x403f356c	2.9876356
195	0xc025f927	-2.593332
196	0xc0104a25	-2.2545254
197	0xbff53646	-1.9157188
198	0xbfc9d840	-1.5769119
199	0xbf9e7a3b	-1.2381052
200	0xbf66386d	-0.8992985
201	0xbf0f7c66	-0.5604919
202	0xbe630173	-0.22168522
203	0x3defdd6a	0.11712153
204	0x3ee96f6f	0.4559283
205	0x3f4b73c1	0.794735
206	0x3f9117e4	1.1335416
207	0x3fbc75e7	1.4723481
208	0x3fe7d3ed	1.811155
209	0x400998f8	2.1499615
