output_final/intermediate_models/dataflow_parent.onnx (onnx, 2207 bytes, 2 tensors)

Mul_0_param0 f4 [1, 14]
00000000: 0000 80bf 0000 803f 0000 803f 0000 803f
00000010: 0000 80bf 0000 803f 0000 803f 0000 803f
00000020: 0000 803f 0000 803f 0000 803f 0000 803f
00000030: 0000 803f 0000 803f
-1.0 1.0 1.0 1.0 -1.0 1.0 1.0 1.0
1.0 1.0 1.0 1.0 1.0 1.0

MultiThreshold_0_param0 f4 [14, 15]
00000000: 68a0 12c2 25ae 02c2 c377 e5c1 3c93 c5c1
00000010: b6ae a5c1 30ca 85c1 55cb 4bc1 4802 0cc1
00000020: 7972 98c0 0f03 47bf 6b63 4d40 d243 e640
00000030: f4ea 3241 00b4 7241 863e 9941 faa9 adc0
00000040: 76f8 76c0 f99c 12c0 e805 39bf 0d68 583f
00000050: 8075 1a40 ffd0 7e40 3e96 b140 fdc3 e340
00000060: def8 0a41 bd0f 2441 9d26 3d41 7d3d 5641
00000070: 5c54 6f41 9d35 8441 8968 1cbf c9da b6be
00000080: fd91 d3bd 9923 1a3e 1608 cf3e 307f 283f
00000090: 567a 693f bd3a 953f 50b8 b53f e235 d63f
000000a0: 74b3 f63f 8498 0b40 4dd7 1b40 1616 2c40
000000b0: e054 3c40 b986 02c3 d5a7 e0c2 3842 bcc2
000000c0: 9adc 97c2 faed 66c2 c022 1ec2 08af aac1
000000d0: 97c4 48c0 c4fb 7041 2b0a 0542 65d5 4d42
000000e0: 5150 8b42 eeb5 af42 8c1b d442 2981 f842
000000f0: 26ff 43c3 63fe 2ac3 a0fd 11c3 b8f9 f1c2
00000100: 32f8 bfc2 acf6 8dc2 4aea 37c2 7cce a7c1
00000110: 75de 8040 b53d e841 e721 5842 7b12 9e42
00000120: 0114 d042 c40a 0143 870b 1a43 ef1a 26bf
00000130: 630a b0be 36f7 1ebd 984c 883e 0a3c 123f
00000140: c851 603f c433 973f a33e be3f 8249 e53f
00000150: 302a 0640 a0af 1940 1035 2d40 80ba 4040
00000160: ef3f 5440 5fc5 6740 41ac 91c0 7ea9 7bc0
00000170: 7bfa 53c0 774b 2cc0 749c 04c0 e3da b9bf
00000180: b5f9 54bf a1f6 58be cafc d03e 389d 833f
00000190: 40fb d23f a52c 1140 a8db 3840 ab8a 6040
000001a0: d71c 8440 e2b9 4fc0 fb9a 33c0 147c 17c0
000001b0: 57ba f6bf 887c bebf ba3e 86bf d301 1cbf
000001c0: d718 2ebe cfea 893e 0571 353f 51f6 923f
000001d0: 2234 cb3f f9b8 0140 e0d7 1d40 c7f6 3940
000001e0: df9c fbbf 825f c9bf 2622 97bf 91c9 49bf
000001f0: b19d cabe b71f 54bb 364d c73e 5421 483f
00000200: 064e 963f 638b c83f bfc8 fa3f 0f83 1640
00000210: bda1 2f40 6cc0 4840 1adf 6140 9d55 833d
00000220: fe7d d93e 4a13 493f ccb3 923f f2dd c03f
00000230: 1608 ef3f 1f99 0e40 32ae 2540 45c3 3c40
00000240: 58d8 5340 6aed 6a40 3f01 8140 c98b 8c40
00000250: 5216 9840 dba0 a340 452b 84bf d73b 33bf
00000260: 4942 bcbe 0967 10bd 8428 983e f42e 213f
00000270: a849 763f 2db2 a53f 863f d03f e0cc fa3f
00000280: 1cad 1240 caf3 2740 763a 3d40 2381 5240
00000290: d0c7 6740 8f74 25c0 069a ffbf ee4a b4bf
000002a0: a7f7 51bf da65 6dbe 7589 b63e efe2 713f
000002b0: 9040 c43f d4c7 0740 606f 2d40 ed16 5340
000002c0: 7abe 7840 0333 8f40 c906 a240 90da b440
000002d0: 4414 7ec0 3168 58c0 1ebc 32c0 0910 0dc0
000002e0: ebc7 cebf c36f 83bf 695e e0be 6904 1a3e
000002f0: 6931 3d3f dcf0 a93f 0449 f53f 9750 2040
00000300: abfc 4540 bfa8 6b40 69aa 8840 b5cc 81c0
00000310: 8dd6 5cc0 b013 36c0 d250 0fc0 e91b d1bf
00000320: 2f96 83bf d041 d8be 31aa 3b3e 01f6 493f
00000330: bb80 b23f 3a03 0040 19c6 2640 f688 4d40
00000340: d34b 7440 5887 8d40
-36.656647 -32.670063 -28.683477 -24.696892 -20.710308 -16.723724 -12.737142 -8.750557
-4.7639737 -0.7773904 3.209193 7.195779 11.182362 15.168945 19.155529 -5.426999
-3.8589149 -2.2908309 -0.7227464 0.8453377 2.4134216 3.981506 5.54959 7.1176744
8.685759 10.253842 11.821927 13.390012 14.958096 16.526178 -0.6109701 -0.35713795
-0.103305794 0.15052642 0.40435857 0.6581907 0.91202295 1.165855 1.4196873 1.6735194
1.9273515 2.1811838 2.435016 2.688848 2.9426804 -130.52626 -112.3278 -94.12933
-75.93086 -57.7324 -39.533936 -21.335464 -3.136999 15.061466 33.25993 51.458393
69.65687 87.85533 106.0538 124.252266 -195.99667 -170.9937 -145.99072 -120.98773
-95.98476 -70.98178 -45.978798 -20.975822 4.0271554 29.03013 54.033108 79.036095
104.03907 129.04205 154.04503 -0.6488485 -0.34382924 -0.038809977 0.26620936 0.5712286
0.8762479 1.1812673 1.4862865 1.7913058 2.096325 2.4013443 2.7063637 3.011383
3.3164022 3.6214216 -4.552277 -3.93222 -3.312163 -2.692106 -2.0720491 -1.4519924
-0.8319352 -0.21187831 0.40817863 1.0282354 1.6482925 2.26835 2.8884068 3.5084636
4.1285205 -3.2457204 -2.8063343 -2.3669481 -1.9275616 -1.4881754 -1.0487893 -0.60940284
-0.17001663 0.26936957 0.7087558 1.148142 1.5875285 2.0269148 2.466301 2.905687
-1.9657248 -1.5732272 -1.1807296 -0.7882319 -0.39573434 -0.0032367536 0.38926095 0.78175855
1.1742561 1.5667537 1.9592513 2.3517492 2.7442467 3.1367445 3.529242 0.06412814
0.42478937 0.7854506 1.146112 1.5067732 1.8674343 2.2280958 2.588757 2.9494183
3.3100796 3.6707406 4.031402 4.3920636 4.7527246 5.1133857 -1.0325705 -0.70013183
-0.36769322 -0.035254512 0.2971841 0.6296227 0.9620614 1.2945 1.6269386 1.9593773
2.2918158 2.6242547 2.9566932 3.2891319 3.6215706 -2.5852392 -1.9968879 -1.4085367
-0.8201851 -0.23183385 0.35651746 0.944869 1.5332203 2.1215715 2.7099228 3.2982743
3.8866258 4.474977 5.0633283 5.65168 -3.969987 -3.3813593 -2.7927318 -2.2041037
-1.615476 -1.0268482 -0.4382203 0.15040745 0.7390352 1.327663 1.9162908 2.5049188
3.0935466 3.6821744 4.270802 -4.0562387 -3.4505951 -2.8449516 -2.2393079 -1.6336643
-1.0280207 -0.4223771 0.18326642 0.78891 1.3945535 2.000197 2.605841 3.2114844
3.817128 4.4227715
